TextCNN1_model_150.pth (torch, 925003 bytes, 9 tensors)

weight f4 [1000, 100]
000000 19 68 bc 3d d6 8e 2f bf 52 12 f6 bd bf 7a 95 3f
       0.091995426 -0.68577325 -0.12015213 1.1678084
000010 b8 17 ad 3e 16 1a 6f 3e c5 e7 80 3d 18 80 91 bf
       0.33807158 0.23349795 0.062942065 -1.1367216
000020 4f 18 99 3f d2 fa 34 3f 57 b8 cd 3e a5 68 1b 3f
       1.1960543 0.7069522 0.40179703 0.6070655
000030 ea 12 26 3f bb 64 41 3a 8c e2 17 be d9 2f 85 3d
       0.6487261 0.0007377376 -0.14832515 0.06503267
000040 59 7d e6 3c 25 25 70 bd 50 31 f2 3e f9 b3 73 3d
       0.028135942 -0.058629174 0.47303247 0.059497807
000050 c1 12 2e bf 34 00 a3 be 90 fb 12 c0 f4 cc 85 3e
       -0.67997366 -0.31836092 -2.2966042 0.2613293
000060 7d 63 86 be 08 8e 69 3e ca 6f bf 3f 4d c9 c4 3d
       -0.2624778 0.22808087 1.495599 0.096087076
000070 9b 1a a6 3f 11 7e 6f be 73 fa 93 3e 05 41 8b 3e
       1.2976869 -0.23387934 0.28902015 0.27198043
000080 7a d9 3a bf 45 32 e6 3f 4c 09 c6 3e ef 48 a2 be
       -0.7298809 1.7984091 0.38678968 -0.3169627
000090 7e 4b 4f 3f 9a 66 4d 3e 40 b4 c9 3e a1 db c9 3b
       0.80974567 0.2005867 0.39395332 0.006160215
0000a0 1e f2 9f bf 29 3e bc 3e af 17 fa be 64 8f b5 bd
       -1.2495763 0.36766174 -0.48846194 -0.0886524
0000b0 e1 fe 98 3d b0 e2 c4 3e 1a d2 98 be 61 1f 8b bf
       0.07470489 0.384542 -0.29847795 -1.0868951
0000c0 4e 1a 1d 3f c1 bf 95 3e 92 36 c7 be b1 04 27 3f
       0.6136826 0.2924786 -0.3890882 0.65241534
0000d0 e3 dc 96 3f 44 be 50 be 23 aa 04 bd f3 2a ab be
       1.1786159 -0.2038508 -0.032388818 -0.33431205
0000e0 2b 3c 8e be 5e 17 4c bf c5 f1 6b be 03 c4 1c bf
       -0.2778028 -0.79723155 -0.23041447 -0.6123659
0000f0 f0 a7 19 bf 05 06 25 bf 7b 87 66 bf 0c b3 09 3f
       -0.6002188 -0.6446231 -0.90050477 0.5378883
000100 5a 7d 7b 3f d8 1c 79 3e a9 b2 a1 3f 13 46 8d be
       0.98238146 0.2432741 1.2632648 -0.27592525
000110 25 0a c4 3d 19 d1 76 3f 65 ea e9 bb fc 43 27 3e
       0.095722474 0.9641281 -0.0071385377 0.16334528
000120 b7 37 f1 be f5 b3 c0 bd ef 34 e8 be ba f6 17 be
       -0.4711282 -0.09409324 -0.45352885 -0.14840212
000130 f8 a7 0a bf c9 88 b7 3e ee e0 50 3f 06 85 d8 bf
       -0.5416255 0.35846546 0.81593215 -1.6915596
000140 50 1f 0d bf 40 d9 32 3e b7 94 81 bf ca 1e 8a bd
       -0.55125904 0.17465687 -1.0123509 -0.06744154
000150 45 e2 6e 3e 48 e4 6c 3d eb 02 bf bd 41 bf 4b be
       0.23328502 0.057834893 -0.093267284 -0.19897176
000160 46 33 16 be fc a7 88 3e 0d 69 1a 3f e4 9d e4 bd
       -0.14667997 0.26690662 0.60316545 -0.11162928
000170 ab bb 8a bd 29 bb af 3f 40 df 50 3e 2e 5f 85 3f
       -0.06774076 1.3728992 0.20397663 1.0419672
000180 a3 e7 83 3f ce 1d 9d bd da 40 53 3d f0 fb 3d bf
       1.0305065 -0.076717004 0.05157552 -0.7421255
000190 b6 25 29 3f 99 9c 38 c0 b8 c7 bb 3f 2b 4e 22 3f
       0.6607317 -2.884558 1.4670324 0.63400525
0001a0 e1 60 e3 bf cd 3c 36 3f 79 26 4c 3f dd 93 51 be
       -1.776394 0.71186525 0.79746205 -0.20466562
0001b0 f0 82 00 40 b5 6c a5 be 44 73 4f 3f 35 a2 87 bf
       2.0079918 -0.323095 0.81035256 -1.0596377
0001c0 f9 40 a5 bf f1 39 ce be eb 3e 44 bf 20 f5 c3 3e
       -1.2910453 -0.4027858 -0.76658505 0.38272953
0001d0 3a 67 27 3f 38 fd 80 3f 22 b9 83 3f 42 3f 93 3e
       0.65391886 1.0077276 1.0290873 0.287592
0001e0 db 59 b8 3e 45 09 1b 3f 64 2a 28 3f e1 bd ba bf
       0.36006054 0.6056102 0.6568968 -1.4589196
0001f0 a9 f1 9b be 6e 64 5d 3f 22 6f a4 3f b9 22 95 3f
       -0.3045781 0.8648137 1.2846415 1.1651222
000200 b0 81 31 bf 33 26 7a 3f 62 df 0f 3f 32 28 08 bf
       -0.6933851 0.9771454 0.5620023 -0.53186333
000210 89 40 97 3e 27 08 ab 3f f2 83 13 40 4f fd 80 bf
       0.29541424 1.3361863 2.3049283 -1.0077304
000220 4d 21 cf 3f 4a 2d be 3f e0 09 e4 be d0 95 33 bf
       1.6182038 1.4857571 -0.44538784 -0.7015047
000230 be 05 44 bf 42 05 1b bf c6 bb 24 3f 1c 85 40 bf
       -0.7657126 -0.605549 0.6434902 -0.7520311
000240 8b f3 af bf f8 7e 61 3f 25 54 83 3f 69 46 50 be
       -1.3746198 0.88084364 1.0260054 -0.2033936
000250 d3 c5 50 3e 16 4c 2c 3e 12 ca 31 be dc 56 98 3f
       0.20387964 0.168259 -0.1736224 1.1901507
000260 01 36 4f bf 27 b7 d0 3e 7a 2b cc be 89 cf b6 3e
       -0.8094178 0.40764734 -0.3987692 0.35705212
000270 28 48 de 3e 07 12 90 bf a2 da 93 bf 44 0f ac be
       0.43414426 -1.1255502 -1.1551096 -0.33605397
000280 35 f7 af bf 1f 93 29 3b 1f 01 a2 3f d2 55 8d bf
       -1.3747317 0.0025875045 1.2656592 -1.1041815
000290 34 3c 8a bd 39 b0 04 40 1d bc 62 40 68 4b cd 3e
       -0.06749764 2.0732558 3.5427315 0.40096593
0002a0 06 c3 16 bf 99 77 15 40 7e f2 c5 3d 6b 98 dc 3e
       -0.5889133 2.3354247 0.09665392 0.43085036
0002b0 4c 73 85 3f b9 2b dc 3e cf b5 20 3f 28 63 a1 3f
       1.0425811 0.43002108 0.6277742 1.2608385
0002c0 80 6b b9 3f 05 1a f8 bf 7d 37 82 3f be 6b 0d 3f
       1.4485931 -1.938294 1.0173184 0.55242527
0002d0 c5 7d a6 bf 26 39 e5 be db 35 d5 3e 4c b7 03 3f
       -1.3007132 -0.44770163 0.4164265 0.51451564
0002e0 28 02 b3 3f 29 9b 33 bf c6 ae b0 be e5 5a 3b bf
       1.3985033 -0.7015863 -0.34508342 -0.7318557
0002f0 db 9b ab 3e 13 32 ae 3d 57 5a 09 3f d3 27 81 3f
       0.33517346 0.08505645 0.5365347 1.0090278
000300 10 cd 27 bf c6 44 48 3e 9c 0c bd be 53 a0 c5 3f
       -0.65547276 0.19557485 -0.36923683 1.5439552
000310 d9 12 84 3f 5a c6 f4 3e 50 23 a2 bd f3 e1 f5 be
       1.0318252 0.4780758 -0.079168916 -0.48023948
000320 14 a2 30 3f be 23 93 3e f9 32 45 bf 9e a9 03 40
       0.6899731 0.28738207 -0.77030903 2.0572276
000330 a1 be 3a 3f f4 53 6a bf 22 dc 0b 3f 3b da d5 3f
       0.72947127 -0.9153435 0.5463277 1.6707224
000340 ee 57 33 3f 7b 8a ad 3e ed 59 72 bf a0 90 02 3f
       0.70056045 0.33894715 -0.94668466 0.5100193
000350 c3 de 23 bf 35 69 d8 3e c0 a1 93 bf 49 fb 44 bf
       -0.6401178 0.42267767 -1.1533737 -0.7694593
000360 bd 97 8a 3e 52 24 63 bf 1c 97 18 40 fe c0 39 bf
       0.27068892 -0.88727295 2.384223 -0.7256011
000370 59 51 2c 3f d4 f6 f2 3e 6f 7e 5c 3f 1b ab 29 be
       0.67311627 0.4745394 0.8613042 -0.16569178
000380 cb 7b 88 3f f8 9d c9 3f 94 2f 07 3e 40 6b 44 bf
       1.0662779 1.5751333 0.13201743 -0.7672615
000390 5b ed 67 bf 67 a2 05 3f 86 09 b0 3f 64 cf 1f bf
       -0.9059655 0.5220093 1.3752906 -0.6242583
0003a0 8e 57 ff 3f 73 8a eb 3f 41 98 ed 3e 69 d9 4e 3f
       1.9948595 1.8401626 0.46405223 0.8080049
0003b0 53 4d 20 be 44 32 98 3f b9 dd 1b c0 7b 79 d7 bf
       -0.15654497 1.189034 -2.4354079 -1.6833948
0003c0 40 54 08 bf 3e f9 4a bf ef ce 24 3d d5 07 94 3f
       -0.53253555 -0.79286563 0.04023641 1.156489
0003d0 3c 44 67 3e 81 d2 e5 3f eb 2c 99 3e a0 43 37 3f
       0.22584623 1.7954866 0.29917082 0.7158756
0003e0 9a 6e e8 bf 83 08 95 3f 08 65 ec 3d bb 01 10 40
       -1.8158753 1.1643223 0.11542708 2.2501056
0003f0 c2 76 c8 be 16 f4 f6 3e ee fc 90 bf cf 68 d8 3f
       -0.39153105 0.48233098 -1.1327188 1.6906985

weight f4 [100, 1, 3, 100]
000000 33 04 38 be f4 42 99 3d 4c 83 7f be 26 70 67 be
       -0.17970352 0.074834734 -0.2495243 -0.22601375
000010 7f 66 8e 3e c1 c9 52 be c4 e5 23 3f f9 d8 00 bc
       0.27812573 -0.20584776 0.6402247 -0.00786423
000020 96 58 73 3e 39 4e 57 be da 45 c3 3e 0f f5 6e be
       0.23764262 -0.21025933 0.3813923 -0.2333567
000030 e9 ab ef 3d e4 31 5a be ff 7f 8e be 0c b5 b0 3d
       0.11702711 -0.21308094 -0.27832028 0.08628282
000040 70 5a 89 3e 39 0f 38 3d 2c d7 9e 3b 88 25 c9 3b
       0.2682681 0.044936392 0.004847428 0.0061385073
000050 4e 4c 6b be a2 c1 3e 3e e8 27 01 be 19 c3 2f 3d
       -0.22978327 0.18628553 -0.1261288 0.04291067
000060 b2 27 d3 3d 30 9a e7 be 9d e1 38 bf be 67 c9 3e
       0.10310306 -0.45234823 -0.7221926 0.39336962
000070 d9 be 6e 3e 09 df 60 bd 5a fc b5 3e e4 50 5d 3e
       0.2331499 -0.054900203 0.3554409 0.21612889
000080 f9 c8 73 be f4 48 39 be 87 55 92 be c3 a5 d9 3e
       -0.23807134 -0.18094236 -0.28580877 0.4250928
000090 99 29 86 3e 21 95 06 be 60 61 d5 3d 07 5d 9e 3d
       0.26203611 -0.13142826 0.104189634 0.07732587
0000a0 bf f9 0b 3f 2a f1 1f be 64 a7 21 3f 69 fa b1 3d
       0.5467796 -0.1561934 0.6314604 0.0869034
0000b0 15 b2 b0 3e fd c1 24 bd 2e 75 ac be 35 b9 ab 3e
       0.34510866 -0.040224064 -0.3368315 0.3353974
0000c0 c2 aa 2c bf 07 c6 9b 3e ef 1f b7 be 92 93 37 3c
       -0.67448056 0.3042452 -0.3576655 0.011204617
0000d0 a4 47 f2 3a de 53 ac bd be 9c a4 3a 01 e7 5d be
       0.0018484485 -0.08414434 0.001255892 -0.21670152
0000e0 bb a1 20 3c f8 e8 9a bd d7 c3 14 3d f4 88 bb be
       0.009804185 -0.075639665 0.03631958 -0.36627924
0000f0 92 61 6e 3d 44 3f f3 3e 6f eb 9b 3e e4 f4 19 be
       0.05819852 0.47509205 0.3045306 -0.15034825
000100 c7 a2 35 bd 62 d6 b5 3d e5 11 7c be 3d 91 c7 bb
       -0.04434469 0.08878781 -0.24616201 -0.006090312
000110 20 c3 63 3e 9d 61 8c 3d 00 99 cc be 9c 09 89 be
       0.22242403 0.06854556 -0.3996048 -0.26765144
000120 3b f6 1c 3f 1b 99 d1 3e 6f f8 ec be be 47 1d be
       0.6131322 0.40937123 -0.4628329 -0.15359399
000130 38 9d cf 3e 2f 52 89 be 42 f2 4d 3c ce 2b 8d 3d
       0.40549636 -0.26820514 0.012569966 0.06893121
000140 2c bc 55 39 14 13 36 3e c4 e4 c2 bd ba 56 6f be
       0.00020383362 0.17780715 -0.0951629 -0.23372927
000150 2c 20 97 bd 67 16 99 be 0a b1 b5 be d6 79 73 bd
       -0.07379183 -0.29899904 -0.35486633 -0.059442364
000160 ee 7b 3e bd 6d 4a 80 be 68 26 98 bd e9 73 4a be
       -0.046504907 -0.25056782 -0.074292004 -0.19770779
000170 08 42 5e be 00 cd d6 3d 6f 27 bc be aa e2 d0 be
       -0.21704876 0.104883194 -0.36748835 -0.4079793
000180 8e 83 2d be fe a3 86 bd ce 0f 6a be ad ef 89 be
       -0.16944715 -0.06574248 -0.22857592 -0.2694067
000190 e7 d8 2d 3c 57 7e 8f 3e 7b 30 ca be da e9 c9 be
       0.010610796 0.28026077 -0.39490113 -0.39436227
0001a0 71 8d 9a 3e 4c 99 02 bf 7e ef 46 3e af 73 c2 3d
       0.30186036 -0.5101516 0.19427297 0.09494721
0001b0 32 a6 11 bf 3c 0b 27 bf 91 88 82 3e 59 36 c3 be
       -0.5689422 -0.6525152 0.25494817 -0.381274
0001c0 67 77 16 3f 67 c9 81 3f 9e 8f f5 be c5 b4 49 3e
       0.58775944 1.0139588 -0.47961134 0.19697864
0001d0 f8 59 87 3e 3a eb 11 be 75 89 2b be 07 d2 1d be
       0.26435828 -0.14249888 -0.16751654 -0.1541215
0001e0 14 2f a9 be 87 67 01 3e a2 69 6d be 6c 93 35 3e
       -0.3304373 0.12637149 -0.23184827 0.17732018
0001f0 31 10 cb 3d ef 34 e2 b9 5f 0b b1 be fa e5 94 be
       0.09915198 -0.00043145518 -0.34578988 -0.29081708
000200 66 cd 6e be 0b 58 27 be 0e 6c 03 3d 1d 03 b4 bd
       -0.23320541 -0.1634218 0.03208547 -0.08789656
000210 0f fa 7c be d8 de b1 be 17 e0 66 3c aa da 05 3f
       -0.24704765 -0.3474033 0.014091513 0.5228678
000220 4c ed c4 3e b7 69 55 bf 8f 35 35 3e 4c 28 ef 3d
       0.38462293 -0.83364433 0.17696212 0.11677608
000230 2b ee 2c 3e 78 f0 38 be 2e 96 26 bd 8b 31 0c 3e
       0.16887729 -0.18060482 -0.040670566 0.13690774
000240 38 9b 65 3e 6a 2f 81 be af c1 05 be 58 69 2b 3f
       0.22422493 -0.25231487 -0.13062166 0.66957617
000250 b3 2b 49 be 0d 43 93 3e 3e 74 b7 3e 37 8e a0 be
       -0.19645576 0.28762093 0.35830873 -0.313585
000260 47 1f 55 bd 4b 7f 0c 3d 37 b6 5a 3e ee 16 14 bf
       -0.05203178 0.034301084 0.21358572 -0.5784749
000270 0a bc 86 3e 03 c2 00 3e 47 dc d6 3e 0a ca 20 3e
       0.26315337 0.1257401 0.41964933 0.15702072
000280 4b 9a a2 3d ef 91 ce 3e ae f5 69 3e 0d 9e 6c 3e
       0.07939585 0.40345713 0.22847626 0.23107167
000290 30 6b 1a 3b 00 e8 0c be 61 b7 f9 be bf 75 cc 3c
       0.0023562424 -0.13760376 -0.4877272 0.02495849
0002a0 df 1a 61 be d9 d6 ff bd 51 c8 8b 3e a5 91 65 3e
       -0.21982907 -0.12492151 0.27301267 0.2241884
0002b0 22 62 9a bd a2 3a 47 3d 0c cf 15 bf 45 a8 87 bc
       -0.075382486 0.0486399 -0.58519053 -0.01655973
0002c0 b7 59 04 3d a1 2a 8a 3e 92 a7 b5 3d 2b 16 9f 3e
       0.03231212 0.26985648 0.08869852 0.310716
0002d0 e8 da bf 3e 10 c2 88 3e 80 22 95 be 3f 28 f8 3c
       0.374717 0.26710558 -0.29127884 0.030292628
0002e0 66 67 3f be 38 ab 94 be d2 5e 84 be f0 6f 6d 3e
       -0.18691787 -0.2903688 -0.25853592 0.23187232
0002f0 0c 2d 92 3e a2 3c 22 be b9 67 35 bf 00 21 8b 3d
       0.28549993 -0.15843442 -0.70861393 0.067934036
000300 08 72 2e be 5d 97 62 bd ee c4 ee 3e 30 51 44 be
       -0.17035687 -0.055320133 0.4663462 -0.19171596
000310 f9 d4 24 bf e7 4e aa be 8d 16 0d 3e 90 75 34 3e
       -0.6438747 -0.33263323 0.13778134 0.17622972
000320 1c 65 fc 3d ce 09 7b 3d 0e 85 ef 3c 56 53 49 3d
       0.123239726 0.061288647 0.02923825 0.04915174
000330 f3 6e b9 be 69 95 87 be 15 36 3e 3e 3b 35 31 3e
       -0.3621746 -0.26481178 0.18575318 0.17305462
000340 79 91 a9 3d 44 98 c0 be 47 5c 45 3e 9e 64 0a bf
       0.082797 -0.3761617 0.19273482 -0.5405978
000350 ff 8d 4f 3b 29 dc 5a 3e 93 e8 58 be 80 89 fb 3d
       0.003167033 0.21373047 -0.2118247 0.122820854
000360 25 17 32 be 4b ae 3b 3e 59 ab 45 3e 9d ab 55 be
       -0.17391641 0.18328206 0.19303645 -0.20866247
000370 83 4a 53 bd 92 59 10 3e 49 12 7b bd 9c 74 74 3e
       -0.05158473 0.14096668 -0.061296735 0.23872608
000380 28 5d 9e 3c 23 77 39 be a0 5c cf be 48 49 9b 3e
       0.01933153 -0.18111853 -0.40500355 0.30329347
000390 7a 63 04 bd 1b 8c ea 3d d0 07 0b be 1e 0d ff bd
       -0.03232143 0.11452504 -0.13577199 -0.12453674
0003a0 e9 15 f5 3e 44 6d 73 be 3d 49 56 bd fa de 33 3f
       0.4786828 -0.2377215 -0.05231594 0.7026211
0003b0 c7 3c fe bd 38 88 cb bd 4a 41 03 3e d3 e3 c2 3e
       -0.12413936 -0.09938091 0.12817875 0.3806444
0003c0 fb 76 02 3f bc c0 24 be ad 4b aa 3c 10 03 87 3e
       0.509628 -0.16089147 0.020788038 0.26369524
0003d0 3d 82 97 be 5b 01 05 bf 56 ec 86 3c 4e ba a2 3e
       -0.2959155 -0.51955193 0.016470116 0.31782764
0003e0 38 ff 0d bf 54 a2 fe bd 51 3e 83 3e 30 d2 00 be
       -0.5546756 -0.124333054 0.2563348 -0.1258018
0003f0 ed 1f 56 bf db 47 7c bb 21 c0 91 3e 24 4a a7 be
       -0.83642465 -0.0038494978 0.28466895 -0.32673752

bias f4 [100]
000000 52 7c 93 bf ec 4f 58 bf 4c 7b 19 bf c0 22 33 bf
       -1.1522315 -0.8449695 -0.5995376 -0.699749
000010 2f d7 37 bf 8f 7a 58 bf a3 46 60 bf 0e 76 19 bf
       -0.7181272 -0.8456201 -0.87607783 -0.5994576
000020 87 33 90 bf c9 48 47 bf f1 08 08 bf 08 1d 4c bf
       -1.1265725 -0.77845436 -0.53138644 -0.797318
000030 35 84 14 bf 74 60 0a bf ff 96 78 bf b9 39 83 bf
       -0.5801423 -0.54053426 -0.971054 -1.025199
000040 a6 0b 79 bf 80 50 18 bf 0f 68 0c bf bb 6e 67 bf
       -0.972834 -0.59497833 -0.5484628 -0.90403336
000050 30 c6 52 bf b9 9c 3a bf ac 72 57 bf 3b dc 86 bf
       -0.8233366 -0.7289539 -0.8415935 -1.0535959
000060 f4 04 78 bf 86 d0 6c bf 8e b8 19 bf e4 71 22 bf
       -0.9688256 -0.9250568 -0.60047233 -0.63455033
000070 17 7d 45 bf c3 c2 02 bf 64 9e 0a bf 3f e4 a9 bf
       -0.77143997 -0.5107843 -0.54147935 -1.327278
000080 24 0d 8a bf 2e 7a 5f bf 0f d8 0b bf 3b 22 5d bf
       -1.078526 -0.87295806 -0.54626554 -0.86380357
000090 21 00 9e bf db 95 f9 be e2 f8 5b bf 72 4f 88 bf
       -1.2343789 -0.48747143 -0.8592664 -1.0649245
0000a0 5a 3f fa be e3 a0 01 bf 29 9d 3c bf 7c da 8c bf
       -0.48876458 -0.5063612 -0.7367731 -1.1004176
0000b0 1c 60 52 bf e0 98 42 bf a1 8a 4d bf 6c 33 5b bf
       -0.821779 -0.7601452 -0.80289656 -0.8562534
0000c0 02 bc 37 bf 9b 60 18 bf 64 52 95 bf f1 88 4e bf
       -0.7177125 -0.5952241 -1.1665769 -0.80677706
0000d0 02 14 1e bf 69 5f 79 bf 49 46 3c bf d0 f4 29 bf
       -0.6174928 -0.9741121 -0.73544747 -0.6638918
0000e0 7d 68 03 bf ed 34 26 bf 02 12 27 bf 1c 90 57 bf
       -0.5133131 -0.6492451 -0.6526185 -0.8420427
0000f0 4d 95 18 bf ff 92 59 bf 18 e9 79 bf c7 e5 88 bf
       -0.59602815 -0.84989923 -0.976213 -1.0695122
000100 d3 a4 24 bf ff 48 3b bf 47 ff 07 bf a2 8a 25 bf
       -0.64314 -0.7315826 -0.531239 -0.6466466
000110 11 c6 15 bf a1 8b 0d bf 21 bd 64 bf 1e 29 42 bf
       -0.5850535 -0.5529118 -0.8935109 -0.7584399
000120 28 6e e1 be fa 4d 80 bf 31 08 88 bf 86 6e 73 bf
       -0.44029355 -1.0023797 -1.06275 -0.9509052
000130 e5 91 26 bf bb 4c 45 bf 19 ee 29 bf ca 58 4a bf
       -0.6506637 -0.77070206 -0.66378933 -0.7904173
000140 55 1c 3b bf ef 62 2c bf 83 ec 12 bf 66 6b a3 bf
       -0.73090106 -0.6733846 -0.5739214 -1.276715
000150 cb 22 ef be b9 2d 11 bf 24 15 9d bf 33 41 d8 be
       -0.46706232 -0.5671039 -1.2272077 -0.42237243
000160 c5 1b 1b bf 5e ae 2b bf 42 bc 26 bf 86 8a 6c bf
       -0.6058925 -0.6706294 -0.6513101 -0.9239887
000170 03 2d 75 bf b8 a9 3a bf 0e 75 56 bf 11 1c 2f bf
       -0.9577181 -0.7291522 -0.8377236 -0.684022
000180 c9 84 70 bf e4 90 80 bf 57 f3 54 bf 6e 9f 56 bf
       -0.93952614 -1.0044217 -0.8318381 -0.8383702

weight f4 [100, 1, 4, 100]
000000 91 bc f2 be 10 8b 02 3e b8 0f fe 3d d0 63 b8 3d
       -0.4740949 0.1274836 0.12405342 0.09003413
000010 fc 46 59 be a5 84 da be fd 08 03 bf 4c 51 a6 be
       -0.21218485 -0.42679325 -0.5118559 -0.324839
000020 f3 15 c8 bd a4 14 91 bd 6d 58 02 3e c5 70 03 3d
       -0.097698115 -0.07084015 0.12729044 0.032089967
000030 5e 7c 78 bd 7a ef e6 bc 0c fc a8 bd a8 9d 7a 3e
       -0.06066548 -0.028190363 -0.08251199 0.24474204
000040 e3 f7 f8 be 40 3c 10 bc 08 6b d2 3d 2a 03 88 bd
       -0.48626623 -0.008803427 0.10274321 -0.066412285
000050 14 74 bf 3e af 1d d6 bd 65 12 8a bc 9a 34 e7 3e
       0.37393248 -0.104548804 -0.016854474 0.4515732
000060 a0 6b 1e 3f f4 20 42 be ef be 33 be 4f da 89 bc
       0.6188297 -0.18957883 -0.17553304 -0.01682773
000070 1e b0 1f be c8 20 0c be 43 79 33 be 60 fe b5 bb
       -0.15594527 -0.1368438 -0.17526726 -0.0055540055
000080 fe d4 9e 3e 46 01 10 bf 50 1a 90 3c 3b 00 81 3e
       0.31021875 -0.56251943 0.017590672 0.25195488
000090 c7 fd a1 3d cf d3 cd bd e7 b1 62 3c a4 44 07 3f
       0.07909732 -0.10050165 0.013836361 0.5283911
0000a0 1d ca b0 3e f2 d9 d1 3c 18 10 45 3d 24 31 81 3f
       0.345292 0.02561662 0.04811105 1.0093122
0000b0 31 ea 92 3e cb 5f 22 be b7 22 0a bf 28 32 aa 3d
       0.286943 -0.15856855 -0.5395922 0.08310348
0000c0 55 08 e5 3e 8a 25 42 bf 67 8e 49 be c7 63 d0 be
       0.4473292 -0.7583853 -0.19683228 -0.40701124
0000d0 4a 1f 01 3e e9 ab 9f 3d 04 02 f8 3d a0 b3 07 3f
       0.12609592 0.07796461 0.121097594 0.5300846
0000e0 4b b0 37 3e 19 12 84 3c 26 de b5 3e 3b ee 1f be
       0.17938344 0.01612191 0.35521048 -0.15618221
0000f0 02 25 36 3e df e6 39 3c 63 f8 67 be 3b 0e 1a bf
       0.17787555 0.011346548 -0.22653346 -0.60177964
000100 eb 78 ad 3e 7a 86 40 bf e1 9e f2 bd e6 4d 68 be
       0.33881316 -0.75205195 -0.1184671 -0.22685966
000110 89 f9 e4 bc f0 05 b7 be 98 7c d5 3d 78 25 47 be
       -0.027951019 -0.35746717 0.10424155 -0.19447887
000120 57 c3 3f bd e1 9a 6d bd f4 52 1b 3e 74 ea 6d be
       -0.04681715 -0.058009032 0.15168363 -0.23233968
000130 18 6d 2e be 90 96 c3 3e cb aa 88 be af 8f ac 3e
       -0.17033803 0.38200808 -0.26692805 0.33703372
000140 51 00 4b be 31 84 88 3e 50 89 e6 bd ba ea 8e 3d
       -0.1982434 0.26663354 -0.11256659 0.06978364
000150 63 8c bb be 51 1a 09 3f b8 99 82 3e 98 90 90 3e
       -0.36630544 0.5355578 0.25507903 0.28235316
000160 03 b7 82 3e 76 75 99 be eb 0c fc 3e 4b ea 20 3f
       0.25530252 -0.29972428 0.49228606 0.628575
000170 cd 04 41 3e 2d d9 bd bd c8 46 93 3e ca 60 ad 3e
       0.18849488 -0.092699386 0.2876494 0.33862907
000180 49 88 be be 36 69 61 be c5 2a 51 3d de 37 d4 3d
       -0.37213352 -0.22012791 0.05106618 0.10362218
000190 06 e7 c3 3d ed ea 9c 3d 5f ea f7 be 48 d7 8e bd
       0.095655486 0.07661996 -0.48420998 -0.069746554
0001a0 7b 34 7a be 8a 17 95 3e c3 fe 00 bf b0 b7 26 3d
       -0.24434082 0.2911952 -0.50388736 0.04070252
0001b0 8d 2d e9 be c0 d1 99 bd d9 d5 10 be 83 bf 2c bf
       -0.45542565 -0.0751071 -0.14144076 -0.67479724
0001c0 db de c5 bc b6 71 44 3e e8 c9 90 be 8e da 38 be
       -0.024154117 0.19184002 -0.28279042 -0.18052122
0001d0 5a ec 34 3e 8e 28 37 bd c3 16 82 be 26 cb 3e be
       0.17668286 -0.04471641 -0.2540799 -0.18632182
0001e0 14 17 77 3e b6 8b fd be 1b d8 10 bd 34 e9 48 be
       0.24129897 -0.49520653 -0.035362344 -0.1962021
0001f0 15 f5 76 3d 5e 79 2a be 9b 1f 1b bc 43 d7 ad 3b
       0.060292322 -0.1664786 -0.009467985 0.005305202
000200 af b0 80 3e 0c 12 84 bb 7d 21 e4 3e 1a 36 72 3e
       0.251348 -0.0040304717 0.445568 0.2365345
000210 97 e3 0a bf d7 f8 06 3d 83 fb a3 be 41 07 4e 3e
       -0.54253525 0.032952156 -0.32027826 0.20119955
000220 31 b6 82 3d 9f 3f 31 be 1b 8b 5c be ea 34 bc 3e
       0.063824065 -0.17309426 -0.2153744 0.3675912
000230 15 5f 25 3e cf 35 3e bd cf 15 09 be fb ee f6 bd
       0.16149552 -0.046438035 -0.13387226 -0.12057301
000240 84 4e e7 3d c7 d1 25 bf e6 23 ad 3e e8 49 60 be
       0.112942725 -0.6477322 0.3381645 -0.21903193
000250 8c b6 5d 3e fd 55 73 3e 60 5f 84 be bd aa 55 be
       0.21651667 0.2376327 -0.25854015 -0.20865913
000260 24 83 73 be 0e e7 db be 5f 8e 93 3d b1 23 da be
       -0.23780495 -0.42949718 0.072048895 -0.42605355
000270 5a 52 15 be e3 d0 99 3e 58 57 1a 3f a9 f7 2d bd
       -0.14582196 0.3004218 0.60289526 -0.042472515
000280 07 50 72 3e f0 6d ce be d7 f0 ea 3e fa 64 8d 3d
       0.2366334 -0.4031825 0.4588687 0.069040254
000290 74 e0 3e bf a2 32 e7 be 29 2e ec 3c c8 bf 85 3d
       -0.7456124 -0.45155817 0.028830605 0.0653072
0002a0 e0 df ee 3e b9 58 15 bf 81 30 9a 3c 0d e1 70 be
       0.46655178 -0.58338505 0.018821957 -0.2352335
0002b0 34 f4 a7 3c ac 91 08 be bf e9 38 be f8 4d b4 be
       0.020502187 -0.1333682 -0.18057917 -0.35215735
0002c0 ee 10 e1 3e 24 83 a5 3d c6 72 a6 3b 2a fd a4 3e
       0.4395823 0.08081654 0.0050796 0.322244
0002d0 2d 98 9b 3e d4 ef 79 3e de 52 a9 3e a8 74 69 3e
       0.30389538 0.24407893 0.33071035 0.22798407
0002e0 54 d6 e5 be bb 82 24 bf cd b5 56 be 4d 78 99 3e
       -0.44890082 -0.6426198 -0.20967789 0.29974595
0002f0 11 de cd be 7c 10 b6 be d8 43 0a bf ff bf 4e bd
       -0.40208486 -0.35559452 -0.5400977 -0.05047607
000300 2a da 94 bc 1c 9b b7 be be cd 91 3d 85 79 80 3b
       -0.018170435 -0.35860527 0.0711932 0.0039207363
000310 d8 bd ae 3d 0e d7 ce 3e c2 06 0d 3d 84 45 e9 bd
       0.085323036 0.4039845 0.034430273 -0.11390212
000320 4a 48 f1 3d 38 c2 f0 bd f1 71 3b be 91 a3 56 bd
       0.11781366 -0.11755794 -0.18305184 -0.052402083
000330 bf f5 58 3e 76 09 be 3b 7e 50 53 bc 7e af ca be
       0.21187495 0.0057994677 -0.012897609 -0.39587015
000340 69 37 28 3d bd 3e 3e 3d e7 7a 91 3c 4d 07 2d be
       0.04106847 0.04644655 0.0177588 -0.16897316
000350 29 df 4e 3e 3c 70 18 3e 8f 88 6c 3c e2 e1 ad 3e
       0.20202316 0.14886564 0.014436855 0.33961397
000360 e3 52 0c 3d ce 44 4e 3e 35 6b 02 be 10 4f 26 3c
       0.034258734 0.20143434 -0.12736209 0.010150686
000370 80 20 6b 3c 93 e3 2f 3c 69 9a 19 be 82 07 9f 3e
       0.01435101 0.01073541 -0.15000309 0.31060416
000380 76 80 00 bf 2b 73 d5 3d 7b 29 9e be b3 58 d1 be
       -0.50196016 0.10422357 -0.30891022 -0.40887985
000390 23 06 31 3e 93 32 30 3e 02 90 07 bf a4 23 5f 3e
       0.17287497 0.17206793 -0.52954113 0.2179094
0003a0 2a cc cf 3d 71 88 bd 3d ef 08 04 bf cf c0 55 3e
       0.10146363 0.0925454 -0.5157613 0.20874332
0003b0 b7 e1 d2 be 2a 96 88 be 3f af 9a 3d c6 5b fc 3d
       -0.41187832 -0.26677066 0.07552957 0.12322192
0003c0 d2 fa c6 bd ed 97 9a 3e 3c 5e a9 bd 5d 0a 3e 3e
       -0.09715809 0.30194035 -0.08269927 0.18558641
0003d0 60 46 05 3e 54 12 56 bc 0f 08 39 bd cb 34 a3 bd
       0.13015127 -0.013065893 -0.0451737 -0.07969054
0003e0 6a ca 1c 3f a5 02 55 be e3 cd a8 3d b3 65 2a bc
       0.6124636 -0.2080179 0.08242395 -0.010400224
0003f0 a5 cc cd be ff 1e 08 be 53 1b e5 3e c5 2a bb be
       -0.40195194 -0.13293074 0.4474741 -0.36556068

bias f4 [100]
000000 fd 8d df be 52 b3 06 bf 8b 1d 18 bf 54 9a 37 bf
       -0.43663016 -0.5261737 -0.5942008 -0.7171986
000010 32 93 13 bf d2 e3 2f bf c5 64 03 bf 64 c5 ee be
       -0.5764648 -0.68707 -0.5132564 -0.46634972
000020 0b 1e ca be 58 c2 38 bf b8 21 19 bf 97 4b 31 bf
       -0.39476046 -0.72171545 -0.59817076 -0.69255966
000030 84 dc 00 bf fe 6f 0d bf 97 31 e6 be 98 cb 13 bf
       -0.5033648 -0.5524901 -0.4495971 -0.57732534
000040 f5 10 1b bf 6f de f5 be 98 0c fb be 40 b3 14 bf
       -0.6057275 -0.48021266 -0.49033046 -0.58086014
000050 11 60 e4 be 0b 3c 20 bf 68 ea c9 be 0b b5 48 bf
       -0.44604543 -0.6259162 -0.3943665 -0.7840125
000060 96 89 c8 be b7 8c 17 bf be c6 23 bf f7 8f 3c bf
       -0.3916747 -0.5919909 -0.6397513 -0.7365717
000070 ab 69 09 bf 6f a5 e2 be 5a 30 1c bf 13 b1 f3 be
       -0.5367686 -0.4426684 -0.6101128 -0.47596034
000080 84 10 b2 be aa 28 03 bf e7 c4 fb be 12 8c df be
       -0.34778225 -0.51233923 -0.49173662 -0.43661553
000090 2b ce 09 bf e8 33 fc be 4a 41 d5 be 2f 4d 03 bf
       -0.5383021 -0.4925835 -0.41651374 -0.5128965
0000a0 b5 28 b9 be 8c a9 53 bf 35 07 ff be 81 9b f9 be
       -0.3616387 -0.82680583 -0.49810186 -0.48751453
0000b0 38 81 3f bf 84 d3 21 bf 8e ff c8 be 30 83 56 bf
       -0.7480655 -0.6321337 -0.39257473 -0.83793926
0000c0 57 3a 44 bf 6f 03 02 bf 08 fc 37 bf 68 a2 c4 be
       -0.7665152 -0.5078649 -0.71868944 -0.38405156
0000d0 af 5f 42 bf 4d 8d e0 be 1a 21 ec be 15 da 5f bf
       -0.7592725 -0.43857804 -0.46119004 -0.8744214
0000e0 6a 7f 18 bf c9 50 22 bf 6f cd 43 bf 5d 95 0f bf
       -0.5956942 -0.6340452 -0.7648534 -0.56087285
0000f0 17 98 10 bf 93 23 1a bf 56 0a 5e bf 6d a5 45 bf
       -0.5648207 -0.6021053 -0.8673452 -0.77205545
000100 fd 22 1d bf 01 cb 0d bf 0b 44 08 bf 74 6b 12 bf
       -0.6138151 -0.55387884 -0.53228825 -0.5719521
000110 64 5f c4 be 9f 38 35 bf 5a 05 db be 58 ee 24 bf
       -0.38354027 -0.7078952 -0.4277752 -0.64426184
000120 07 75 e3 be 3f fa d6 be 27 e9 23 bf cd 1b 06 bf
       -0.44425222 -0.41987798 -0.6402764 -0.5238617
000130 35 10 2b bf 7e db 3b bf 31 2f df be 6b 6e fb be
       -0.66821605 -0.73381793 -0.43590692 -0.4910768
000140 47 8a 03 bf 74 65 e0 be 02 d3 77 bf e7 03 ff be
       -0.5138287 -0.43827403 -0.9680635 -0.49807665
000150 84 21 48 bf 9f 1b c5 be 7f fd 40 bf 75 d9 fa be
       -0.7817614 -0.38497636 -0.75386804 -0.48994032
000160 f6 2e 20 bf 5e f1 1d bf 63 b0 e0 be 53 ed 14 bf
       -0.62571657 -0.6169642 -0.43884572 -0.5817463
000170 db c9 5e bf cc f9 09 bf b3 e6 06 bf 32 1d 3a bf
       -0.87026757 -0.53896785 -0.5269577 -0.727008
000180 a4 c3 18 bf 09 3f 01 bf e5 44 3b bf 14 d7 1a bf
       -0.59673524 -0.5048681 -0.73152 -0.60484433

weight f4 [100, 1, 5, 100]
000000 b0 cd c3 bd fc c9 8e bd b3 5c d5 3e 61 ca 82 bd
       -0.09560716 -0.06972119 0.41672286 -0.06386257
000010 5e 6b 33 3d 9d 59 5b be 68 8f 42 3e 13 23 ce 3d
       0.043803565 -0.21420904 0.19000018 0.100652836
000020 11 66 09 be aa 60 be bd d2 34 7a bd f2 88 df 3e
       -0.13417841 -0.09295781 -0.06108553 0.43659168
000030 03 8b 97 bd 4b fc 87 be ff aa 6d be c6 d3 a7 3e
       -0.07399561 -0.26559672 -0.23209761 0.32778758
000040 2d 9f 1b 3e fb 61 32 be de 31 4f be f7 25 fa bb
       0.1519744 -0.17420189 -0.20233867 -0.0076339203
000050 b6 36 1e be 21 e9 ec bd 11 a9 59 be 81 eb 62 be
       -0.15450558 -0.11567903 -0.212559 -0.2216015
000060 2e 67 27 be 69 b3 5f be c6 d3 87 be ff af ff be
       -0.16347954 -0.21845783 -0.26528758 -0.49938962
000070 4e 44 b7 be 55 5a 13 3e 62 c1 76 be ec 7c 47 be
       -0.357943 0.14389928 -0.24097207 -0.19481248
000080 46 69 4f 3e 09 86 07 bf d6 13 54 be b4 9b 80 3d
       0.20255002 -0.52938896 -0.20710692 0.06279698
000090 aa 82 ed bd 08 fd 94 3e d0 70 2a 3e 60 b8 3a 3d
       -0.11597188 0.29099298 0.16644597 0.04558599
0000a0 db 20 e8 3e 9e c0 b6 be d7 3b 0f bf 62 71 9c 3d
       0.45337567 -0.3569383 -0.55950683 0.076388136
0000b0 fc 1f 18 bd 49 e5 83 bd f2 ea 57 be c5 bd 75 3e
       -0.037139878 -0.06440217 -0.21085718 0.23998173
0000c0 1c ad 40 be 2c c7 0f 3e 8c 4f 07 3f 0a e3 0d be
       -0.18816036 0.14040822 0.52855754 -0.1385614
0000d0 6c 7f 57 be 32 b4 a9 3b b0 2a f8 3d 97 fd 97 bc
       -0.21044701 0.0051789517 0.12117517 -0.018553538
0000e0 aa 0f f4 be e6 e4 a4 be 19 ed 15 be e7 cc ae 3e
       -0.476682 -0.32205886 -0.14641227 0.34140703
0000f0 ec 8d 47 bb 4a 53 8a 3e 04 02 48 3d 12 ac bb 3d
       -0.0030449582 0.2701667 0.048830047 0.09163679
000100 4e c1 08 3f 86 54 6b bd 54 71 7b be d1 8f 87 be
       0.5341996 -0.057453655 -0.2455495 -0.2647691
000110 32 26 82 3e 19 5b 59 be 73 3d ea bd 1d bd 58 be
       0.25419766 -0.21226157 -0.11437502 -0.21165891
000120 b7 5d d3 3e 99 0a 7f be b8 8d 4b 3e 7e 70 07 3e
       0.41282436 -0.24906386 0.1987828 0.13226506
000130 0c dc d1 be 7a 5b 8d 3e 59 de 51 bf 03 ff 9f 3e
       -0.40988195 0.27608854 -0.819799 0.31249246
000140 e6 b4 87 3e 32 9e be bc f0 1f cb 3e 17 50 9f bd
       0.26505202 -0.023268793 0.39672804 -0.07778948
000150 51 a0 ba be 4f f0 8b be 59 1e b9 be 1c 32 3d be
       -0.36450437 -0.27331778 -0.36155966 -0.18476146
000160 92 cf c3 bd ef cb dc be 38 ef 85 3e ce 7d ed 3e
       -0.09561075 -0.4312434 0.26159072 0.46385044
000170 7b 11 02 bf 4a ee a1 bd f2 1e 5e be 50 cf 25 be
       -0.50807923 -0.07906778 -0.21691492 -0.16192365
000180 68 e4 a6 be 85 43 c4 3d 88 b0 73 be 73 5c 90 3d
       -0.32596135 0.09583191 -0.2379781 0.07048883
000190 35 26 d6 be 6a e8 f3 bd b2 45 d4 be cf 3b 8b bc
       -0.41826025 -0.11909564 -0.41459423 -0.016996292
0001a0 01 1f a3 bd 1f 76 c9 3e 84 6c ba bd 4d 6f 0d 3e
       -0.07964898 0.39347932 -0.09102729 0.13811989
0001b0 d9 97 a6 be d9 12 d1 bc 23 0c 1c 3d f5 8a d4 3e
       -0.32537726 -0.025521683 0.038097512 0.41512266
0001c0 29 26 2f 3e 4c e3 7e 3e a5 49 db be 88 4f 28 bc
       0.171044 0.24891394 -0.42829624 -0.010272868
0001d0 8e 2c 11 3e 42 0d bb bd 51 fb 06 3e e0 e6 bd be
       0.14177153 -0.09133388 0.13181807 -0.37090206
0001e0 34 1c 9e ba a7 60 e4 be 2c 25 70 be d4 e3 dd 3d
       -0.0012062849 -0.4460499 -0.2345168 0.108344704
0001f0 15 ef 19 be fa 25 51 bd 79 a3 7d be 3a 2d 6b be
       -0.15032609 -0.051061608 -0.24769391 -0.22966471
000200 42 d7 82 be e3 98 a9 be 10 c5 8f 3e 8f 63 f0 be
       -0.25554854 -0.33124456 0.28080034 -0.46950957
000210 f4 0d 32 be 89 74 27 be c9 dd 13 bd e0 00 6b 3d
       -0.17388135 -0.16353048 -0.036100183 0.05737388
000220 be a8 39 be f7 e2 a7 be 34 4e 42 3e 4e 56 b1 3e
       -0.18130776 -0.32790348 0.18975145 0.34636158
000230 f7 d8 8e 3e 31 fb 18 bc b1 a2 10 3e de 32 cd 3e
       0.27899906 -0.009337232 0.14124562 0.4007787
000240 61 21 da bb 86 09 a6 be b7 b7 a5 3d e0 aa d1 3d
       -0.006656811 -0.3242914 0.080916815 0.1023767
000250 81 7a ac be 62 9c 28 be 39 53 56 be 92 b0 34 be
       -0.33687213 -0.16465905 -0.20930184 -0.17645481
000260 73 3e 66 3d ad 27 a9 3e 2a f5 08 3f ae c0 59 3c
       0.0562119 0.33038083 0.5349909 0.013290567
000270 fb a3 5b be 72 78 b4 3e 91 3c 73 be 17 8a 6a be
       -0.21449272 0.35248142 -0.23753573 -0.2290424
000280 b8 45 7d be a2 96 0f 3e c8 29 05 be ed bd f6 bd
       -0.24733627 0.14022306 -0.1300422 -0.12047944
000290 64 8a 69 be 50 ea 9a 3d 74 ee 53 be 6f 60 3d 3e
       -0.22806698 0.07564223 -0.20696431 0.18493818
0002a0 9b 3b df 3e 01 d5 0c 3f 6d 5e 05 3e 34 27 47 be
       0.43600163 0.5501252 0.13024302 -0.19448549
0002b0 68 e5 49 3e b1 d2 01 bd 4e 9a 7a 3d 9a 24 30 be
       0.19716418 -0.03169507 0.061182313 -0.17201462
0002c0 c3 df 8a bd 1a e5 00 3f b5 23 09 bf b1 c0 e1 3d
       -0.067809604 0.5034958 -0.5357011 0.11023081
0002d0 3f 0f db bc 97 f1 98 bc 60 d9 4a be 33 fb 0c 3e
       -0.026740668 -0.018669887 -0.19809484 0.137677
0002e0 29 10 8c bd 31 64 02 3f 0d 89 a9 be 8a 3e 96 be
       -0.0683902 0.5093413 -0.33112374 -0.2934459
0002f0 92 ee d9 3d 7a 62 8f 3d e0 8a 3a 3e 11 c7 a4 3e
       0.10641207 0.07001205 0.18217039 0.32183126
000300 b5 64 b4 3d 83 4e bf bd 7b c6 04 3e 07 0a d6 bd
       0.08808271 -0.09341147 0.1296634 -0.10451131
000310 2d 0d 47 bd ed 54 d4 be ad 0f b6 be c4 0f 37 be
       -0.04859655 -0.41471043 -0.35558835 -0.17877108
000320 0a 79 a4 be 42 a3 36 3d 8f c3 49 bd 06 5f 22 3d
       -0.32123595 0.04458929 -0.049258765 0.039641403
000330 6e 50 10 bf 68 8c fc 3d 15 1a 70 3e eb 91 63 3e
       -0.56372726 0.12331468 0.2344745 0.22223632
000340 de 88 2d bf 18 32 f8 be 74 04 82 3d b5 a7 e8 bc
       -0.6778697 -0.48475718 0.063485056 -0.028400281
000350 8e 6f c0 be 88 33 eb 3c 93 d2 f1 be a4 95 47 3e
       -0.3758511 0.028711095 -0.47230968 0.19490677
000360 2e 20 16 3f b2 ab 71 bd 90 8d ab 3e 43 1f 25 be
       0.5864285 -0.059001632 0.3350644 -0.16125207
000370 39 4c ab be f8 39 7a 3e b1 6b 19 be c3 16 ec 3e
       -0.3345659 0.24436176 -0.14982487 0.46111116
000380 22 ae 65 be a2 8e 77 be 59 3d 83 3d af d6 5a bf
       -0.22429708 -0.24175504 0.064081855 -0.8548383
000390 12 62 b5 bd 2b 3e 7d 3e 46 8b b2 3d 5f 44 34 3d
       -0.08856596 0.24730746 0.087179706 0.044010516
0003a0 06 a8 75 be da 02 21 bc df 97 f2 be 11 77 e0 3d
       -0.23989877 -0.00982734 -0.47381493 0.1096021
0003b0 bb d0 ca be 51 81 43 be 82 f6 38 3e 55 ec 2a 3f
       -0.39612374 -0.19092299 0.18062785 0.66766864
0003c0 5d 9f 31 3d 51 65 21 bf af 7a 05 bd 9d d4 d3 3e
       0.04336487 -0.6304522 -0.032587703 0.4137315
0003d0 40 95 16 3f 8e 46 57 3e e4 87 c9 3e 78 3e c9 3e
       0.5882149 0.21023008 0.3936149 0.39305472
0003e0 dc f8 55 be dd 18 88 3e 0c 81 0f 3f 0e 49 37 be
       -0.20895714 0.2658147 0.56056285 -0.17898962
0003f0 ae f6 12 3e 4c 5a 3e be f5 e2 f6 3d 31 08 12 3c
       0.14351913 -0.18589133 0.12055007 0.008913086

bias f4 [100]
000000 e2 fc 54 bf bb ba 01 bf 66 52 f5 be 23 89 cf be
       -0.8319837 -0.50675553 -0.47914428 -0.40534315
000010 bb 16 ad be 62 ed 0c bf 09 f0 c1 be 17 60 41 bf
       -0.33806404 -0.5504972 -0.37878445 -0.75537246
000020 5a 52 cd be c6 37 e4 be 42 fb 06 bf 71 c1 dc be
       -0.40101892 -0.44573802 -0.5272714 -0.43116334
000030 18 66 e4 be 4f b2 f5 be fa 58 09 bf 74 4a 06 bf
       -0.4460914 -0.479876 -0.5365139 -0.52457356
000040 e0 87 d5 be a6 59 e1 be 7f 65 e1 be 7e 5c 1d bf
       -0.41705227 -0.4401371 -0.44022748 -0.61469257
000050 cd 73 03 bf 66 8d f7 be f4 15 11 bf fb fb 2e bf
       -0.5134857 -0.48350066 -0.5667412 -0.6835324
000060 57 24 02 bf 82 12 02 bf c1 73 fe be 30 b7 b9 be
       -0.508367 -0.5080949 -0.49697688 -0.36272573
000070 04 4c ca be e3 8a e4 be f0 39 e8 be c3 e4 0f bf
       -0.3951112 -0.44637212 -0.45356703 -0.5620844
000080 d2 7b 10 bf c4 28 05 bf 05 e8 fa be 6c 73 10 bf
       -0.56438935 -0.5201533 -0.49005142 -0.5642612
000090 84 ab ae be ff af 02 bf 8c 50 08 bf 08 db f2 be
       -0.3411523 -0.510498 -0.53247905 -0.47432733
0000a0 7a 85 0e bf 79 5d ce be e2 6a d9 be 90 90 2b bf
       -0.5567242 -0.4030569 -0.42464358 -0.6701746
0000b0 4a e8 ce be c4 b5 17 bf b5 90 e6 be bd ad 05 bf
       -0.40411597 -0.5926173 -0.45032278 -0.5221823
0000c0 91 7a 0b bf 14 38 25 bf fd b9 d7 be ec 4e 18 bf
       -0.54483896 -0.64538693 -0.42134085 -0.59495425
0000d0 e8 6e f3 be 71 5f 1b bf 82 2c a7 be f0 3d 02 bf
       -0.47545552 -0.6069251 -0.32651144 -0.5087576
0000e0 2a aa 23 bf bc 78 03 bf c1 df 0a bf 1b 94 20 bf
       -0.63931525 -0.513561 -0.5424767 -0.6272599
0000f0 69 d6 c5 be 97 07 0d bf e1 1d 2d bf 12 54 1f bf
       -0.38640144 -0.55089706 -0.67623717 -0.62237656
000100 ed 78 07 bf 68 48 c5 be f2 ac 4b bf 98 b4 4f bf
       -0.52918893 -0.38531804 -0.7956077 -0.8113494
000110 3a cb be be 87 4a cf be bd 13 07 bf 2f 37 1a bf
       -0.37264425 -0.40486547 -0.52764493 -0.60240453
000120 12 bf e6 be 59 45 e8 be 34 b8 b8 be 9f f9 ac be
       -0.4506765 -0.45365408 -0.36078036 -0.33784196
000130 c7 7d d3 be 88 f4 23 bf 1e 10 0e bf 80 56 d2 be
       -0.41306898 -0.64045 -0.5549334 -0.4108162
000140 6d 21 cd be 76 5f e0 be 33 9f ea be c1 7b bc be
       -0.40064564 -0.4382283 -0.45824584 -0.36813167
000150 7a be c5 be 4b 59 cf be 88 90 d4 be 0f 7f c6 be
       -0.38621885 -0.40497813 -0.4151652 -0.38768813
000160 c7 ee 32 bf 48 c2 13 bf 9e 73 04 bf 04 95 25 bf
       -0.69895595 -0.57718325 -0.5173892 -0.64680505
000170 96 fd c0 be 45 8e 00 bf d2 4d 00 bf c4 dc 99 be
       -0.3769347 -0.50217086 -0.50118744 -0.30051243
000180 a7 2f f4 be 87 cc 0f bf 48 51 e4 be 00 23 57 bf
       -0.47692606 -0.5617146 -0.44593263 -0.8403778

weight f4 [31, 300]
000000 97 17 6a be e4 fc b7 bc 1e 3c e2 bd 54 e7 d1 be
       -0.22860561 -0.022459455 -0.11046623 -0.40996802
000010 fb 8c 1b 3e fd b4 89 3f d8 02 94 bd 7b 63 f4 bf
       0.15190499 1.0758358 -0.07227105 -1.9092859
000020 03 2e 7e 3f 86 d4 b6 be e2 32 2d bd 51 48 25 3f
       0.9928896 -0.35709018 -0.042284854 0.6456347
000030 87 81 af 3d bf b6 dd be 3a 35 9a bd 77 b8 27 3c
       0.08569627 -0.43303487 -0.075296834 0.010236851
000040 7b 70 cd 3d 42 c1 21 bf 66 4d 16 3f b8 08 5b bf
       0.100312196 -0.63185513 0.5871185 -0.8556018
000050 a5 05 84 3f 3f 7c 28 3e df 2f c0 be fa a6 25 bd
       1.0314223 0.16453646 -0.37536523 -0.040442444
000060 47 85 5a bf 58 16 05 3f 5f 5c 46 bf cb d3 1c be
       -0.85359615 0.5198722 -0.774847 -0.15315168
000070 98 d6 5d be 54 24 4c bf 3e 14 ed 3d 8e 65 b8 3f
       -0.21663892 -0.7974293 0.115761265 1.4405992
000080 31 1b 0a 3e 45 8b d4 bc ed a5 10 bc ae 5a 8a bd
       0.13486935 -0.025945315 -0.008828622 -0.06755577
000090 17 2d f0 be 48 93 c9 3b 7f 5b 1e 3f ba d0 c7 3e
       -0.469094 0.0061515905 0.6185836 0.39026433
0000a0 84 ca 86 bf 50 f8 f6 bd 1e d3 97 3b ff 90 cc be
       -1.0530553 -0.120590806 0.0046333214 -0.39954373
0000b0 30 0b 9a 3d 5c ab 3c 3e 99 46 a6 be d8 c3 84 3d
       0.07521665 0.18424743 -0.32475737 0.06482667
0000c0 9b 61 0d be a4 41 59 bf b7 36 a4 be f9 27 ca be
       -0.13806765 -0.84865785 -0.32072994 -0.39483622
0000d0 72 8b 8c bd 4f c2 b2 bb ea 44 55 be 35 31 01 3a
       -0.068625346 -0.0054552923 -0.2082707 0.0004928292
0000e0 b1 ae 30 be 27 0d a6 be b6 fc b2 bf eb 6c 87 be
       -0.1725414 -0.3243191 -1.3983371 -0.26450285
0000f0 46 b9 05 3e b6 a6 d3 bc 70 e4 84 3b 9a 36 7b be
       0.13058957 -0.02583633 0.004055552 -0.24532548
000100 85 9a 8d be c3 d2 bf 3e 0b 66 b8 3e e2 94 1f 3e
       -0.27656952 0.37465486 0.36015353 0.15584138
000110 4d aa 21 3f 89 ba 0f bf 31 09 84 be 78 1b 5a 3f
       0.63150483 -0.56144005 -0.25788262 0.85198164
000120 3a 3c c2 be 8b 4e 41 bd fe b1 80 bc 85 3a 91 be
       -0.37936574 -0.047194045 -0.015709873 -0.2836496
000130 ed 57 08 bf 32 3f b4 3e a8 cb 80 bf 39 4b 84 bf
       -0.53259164 0.35204464 -1.0062151 -1.0335456
000140 35 95 82 bf 1d 10 f2 3d f6 d8 d0 be 57 03 b1 3f
       -1.0201784 0.118194796 -0.40790528 1.3829144
000150 c5 c9 1c 3e 41 db d5 bf 68 82 eb be 5d db 46 3e
       0.15311344 -1.6707536 -0.4599793 0.19419618
000160 6b 0d 1a be 9b 58 64 be a1 4a d2 bd ad d8 e3 3c
       -0.15044181 -0.22299425 -0.102681406 0.02781328
000170 0d bb 82 3e 1a 3c c8 3e ad 18 c0 bd a4 cd 05 3e
       0.25533333 0.39108354 -0.093797065 0.13066727
000180 41 d0 77 be f9 84 be bd d2 b6 80 3e 1a aa e7 3e
       -0.24200536 -0.09302706 0.2513948 0.45246965
000190 4a fa b4 bd e9 c6 80 3e 7a 8f bc be ba 56 76 be
       -0.08836801 0.25151756 -0.36828214 -0.24056521
0001a0 51 7c 4c 3f 6d 43 67 3e 38 e8 5e bf e0 b2 66 bf
       0.7987719 0.22584315 -0.8707309 -0.9011669
0001b0 49 f4 e9 be 5f 0c d6 bd 6e 1d 12 bc 26 8e 04 3e
       -0.45694187 -0.10451578 -0.008918149 0.1294485
0001c0 f9 a7 34 3d 94 51 94 3e d6 da 22 be 54 2d 5a 3e
       0.044105504 0.2896849 -0.15903792 0.21306354
0001d0 f6 90 3d be de 1e 0a be c4 ac f1 bd ca 02 eb be
       -0.1851233 -0.13488337 -0.118005306 -0.45900565
0001e0 1c 5a ae bd 98 8f 1f 3e ba a1 69 bd 49 86 e0 bd
       -0.08513281 0.1558212 -0.057039 -0.10963113
0001f0 b4 30 bb be bf 2a 10 3f ce 34 6b 3e 00 4e cf be
       -0.36560595 0.56315225 0.22969362 -0.40489197
000200 1a e8 b0 bf 47 c7 de be 4b be 6e 3d 17 0e 0f be
       -1.3820832 -0.43511412 0.058286946 -0.13970219
000210 ac 9b 7e 3e 54 24 d7 3d c4 a2 22 3e 09 46 0c 3f
       0.24864072 0.10504976 0.15882403 0.54794365
000220 af 52 ae bf d2 45 9d be ce 32 77 bf e3 20 07 bf
       -1.3618983 -0.3071733 -0.96561897 -0.52784556
000230 53 c5 96 bf 7e 79 bb be 6e 5e fa bd 31 f1 51 bf
       -1.1778969 -0.3661613 -0.12225042 -0.82008654
000240 d1 f6 77 be 37 c0 0a bf 02 4d 5f bf 21 1d 47 3e
       -0.24215247 -0.54199547 -0.8722688 0.19444706
000250 a6 af 6b 3e d5 d8 49 3f 75 c4 9c bf 8c 5f 6f be
       0.23016223 0.78846484 -1.2247454 -0.23376292
000260 fc 94 a4 3a fa 51 84 3e fd 58 10 bd 5f 38 4f be
       0.0012556608 0.25843793 -0.035241116 -0.20236348
000270 0b 56 3f be 78 1d 5a bf 21 aa 0b bf 9f 6c 0f 3f
       -0.18685167 -0.85201216 -0.5455647 0.5602512
000280 13 6b 7d 3e 99 20 89 be e5 7f 40 3d 92 95 4e 3e
       0.24747877 -0.26782683 0.04699697 0.20174244
000290 b2 b8 23 bf e5 dc 27 be 30 33 df bf 33 07 50 be
       -0.639537 -0.16392858 -1.7437496 -0.20315246
0002a0 c0 18 27 bf 13 92 80 3c de f4 97 be fe 81 b8 be
       -0.6527214 0.015694654 -0.29679006 -0.36036676
0002b0 9a 90 2f bc 38 b3 00 bf 61 d5 22 3e c4 d0 d3 3c
       -0.010715628 -0.50273466 0.1590171 0.025856383
0002c0 82 8f 8d be 69 9f 01 3f 75 a1 95 3e 49 53 1e 3f
       -0.2764855 0.50633866 0.29224744 0.61845833
0002d0 aa bc 6a 3e ee 33 00 3f 74 b0 35 3e 26 50 19 3f
       0.22923532 0.5007924 0.17743093 0.5988792
0002e0 c0 66 ff 3d 98 a2 f9 be e6 cf dd be 8d 49 50 be
       0.1247077 -0.48756862 -0.43322676 -0.20340557
0002f0 77 bd 24 bf 67 0b 6a be 86 5d 14 bf 47 8e a2 3e
       -0.643516 -0.22855912 -0.57955205 0.31749174
000300 a6 cc 91 be e4 ef 64 3e c8 bc e3 be d0 51 50 bd
       -0.28476447 0.22357136 -0.44479966 -0.050859272
000310 7b dd a5 3d 4c 82 ed bd 27 33 d7 3d 9e 24 9a 3e
       0.08098885 -0.11597118 0.105078034 0.30106062
000320 0b 84 e3 be 4c 8b 2d 3e 1a 00 b3 bd e9 74 41 be
       -0.44436678 0.16947669 -0.08740254 -0.18892254
000330 09 9a 89 be bf 52 5c 3f 8a bf ca bf 2c 4b 77 3e
       -0.26875332 0.8606376 -1.5839703 0.2414977
000340 10 3d 81 3d d9 94 b1 3e 1a 25 32 3f 6a bc 45 be
       0.06310475 0.34683874 0.6958786 -0.19310156
000350 a8 74 39 3e 99 f0 54 3e 67 73 42 be 89 fa 7e be
       0.18110907 0.20794906 -0.18989335 -0.24900259
000360 45 da 81 be c3 8a 37 bd 1c f5 49 bf f5 1b 14 bf
       -0.2536184 -0.044810068 -0.7888963 -0.5785516
000370 28 33 5b bd ca d6 60 be 62 2f 96 3c 7d 9f d1 be
       -0.053515583 -0.21956936 0.01833314 -0.40941992
000380 94 db 26 3e 6b 63 68 bb e1 f2 e5 be 54 92 d5 bd
       0.162947 -0.0035459648 -0.44911864 -0.104283005
000390 47 f9 9c 3e ec 63 82 be ed e7 19 be d8 18 1d be
       0.30658934 -0.2546686 -0.15029879 -0.15341508
0003a0 06 87 f9 3d bf 05 56 3e ae 76 1c bf 1b ff 83 be
       0.12183957 0.2090063 -0.6111859 -0.25780568
0003b0 76 a1 27 be 09 fc ce 3d c9 7f 24 be 92 9b 0e 3f
       -0.16370186 0.10106666 -0.16064371 0.5570613
0003c0 8b fb 90 3e 98 19 97 be 00 61 8a bf 98 dc dc be
       0.28316912 -0.29511714 -1.0810852 -0.4313705
0003d0 37 43 b1 be e8 e1 1d bf cd c8 68 3f 41 1d dc be
       -0.34621593 -0.6167283 0.909314 -0.4299107
0003e0 b2 3e 3d 3e 00 4f bb 3e 2b 0b 9c be 38 16 00 3e
       0.18480948 0.3658371 -0.3047727 0.12508476
0003f0 97 72 81 3c 4c 8c 72 3d 56 19 b4 3e 3f 40 25 bf
       0.015801711 0.05921583 0.3517558 -0.64551157

bias f4 [31]
000000 06 9b 5e bf a1 28 c2 bf 40 b5 2b bf c7 60 0b bf
       -0.86955297 -1.5168649 -0.6707344 -0.54444546
000010 8d 23 ad bf 46 a0 3d bf f7 af 65 bf ec 0e 3c bf
       -1.3526474 -0.7407268 -0.89721626 -0.7346027
000020 67 77 9a bf de d6 29 bf 92 a0 96 be 0e 1e 53 bf
       -1.2067689 -0.66343486 -0.2941938 -0.82467735
000030 e6 4c 38 bf 65 fd 84 bf 33 ac 11 c0 a3 00 01 bf
       -0.7199234 -1.038983 -2.2761352 -0.50391597
000040 51 88 28 bf a6 93 24 bf 58 b8 d1 be 6e 39 3f bf
       -0.65833 -0.64287794 -0.40960956 -0.74697006
000050 17 60 99 be a8 24 4c bf 27 5e ba bf 56 a1 71 bd
       -0.29956123 -0.79743433 -1.4559983 -0.058991753
000060 72 85 92 bf 98 07 64 bf db c1 1c bf db 0c 2c bf
       -1.1446974 -0.8907409 -0.612333 -0.67207116
000070 e8 7a 29 bf a8 5b 35 bf 7b 06 48 be
       -0.66203165 -0.7084298 -0.19533722
