TextCNN1_model_best.pth (torch, 925016 bytes, 9 tensors)

weight f4 [1000, 100]
000000 b3 0f 20 bb 94 b1 83 bf 7f 11 80 3f 28 5b 29 3e
       -0.002442342 -1.0288568 1.0005339 0.1653868
000010 c3 79 7c bd 4c 3f 01 bf fe b1 a9 3e 94 ed 81 be
       -0.06163956 -0.5048721 0.3314361 -0.2537657
000020 9b d4 85 3e 15 90 5b 3d 6c 7e 45 3f 85 c6 30 3e
       0.26138768 0.053604204 0.7714603 0.17263229
000030 82 ab 38 bd ae e7 be 3e 6a eb d5 bc ea 8a 29 bf
       -0.045085438 0.37286133 -0.02611323 -0.6622759
000040 b8 5e 6c bf a4 90 2b bf 34 71 73 3e d9 80 ff be
       -0.9233203 -0.6701758 0.23773652 -0.4990299
000050 ef 7a 0b bf c9 00 da bb 29 4d 0d 3d 85 2d 30 3e
       -0.54484457 -0.0066529256 0.034497414 0.17204864
000060 5b 46 6e 3f e7 38 32 3f bf cd 87 be 04 fc ce 3d
       0.93076104 0.69618076 -0.2652416 0.10106662
000070 cf 6c d9 3e 20 5e 01 bd 2a a7 ba bd 1d a8 2e bd
       0.42465827 -0.031583905 -0.09113915 -0.042640794
000080 79 1e 7a 3f f4 58 95 3f 1f de 86 3e 40 7d b2 be
       0.9770275 1.1667771 0.2634134 -0.34861183
000090 23 29 c7 ba e9 fd da be 1d 6e b0 3e 7b b5 72 be
       -0.0015194755 -0.42771843 0.3445901 -0.23702042
0000a0 17 79 73 bf 53 2d 29 3f 8d 7e 78 3e 6e e0 a7 be
       -0.95106643 0.66084784 0.24267025 -0.32788414
0000b0 05 d6 ed be dd 19 64 3e 88 ac 2f bf c1 a2 e7 3d
       -0.46452346 0.22275491 -0.68622637 0.1131034
0000c0 40 60 2d bf a8 a9 07 3f 61 70 d1 3c 88 7e 6c be
       -0.6772499 0.5299325 0.025566282 -0.23095143
0000d0 ea c3 1a 3d 9b 48 89 3d 08 6d c8 3e 00 7f b1 be
       0.037784494 0.067033015 0.39145684 -0.34667206
0000e0 53 63 3b be b9 f9 ca bd a0 f8 98 bf 23 98 22 be
       -0.18299608 -0.09910912 -1.1950874 -0.15878348
0000f0 65 9e 21 be 71 7d 28 3e 2b 5a 44 3f 2c 5c 70 3f
       -0.15783079 0.16454102 0.76700085 0.93890643
000100 09 10 05 3e ff 2e e2 3a 1c 6d 32 bf 75 6b 02 3d
       0.12994398 0.0017256438 -0.6969774 0.03184076
000110 4c a7 3a bf 88 e3 46 bd e9 af aa bf 4d 21 43 3e
       -0.72911525 -0.048556834 -1.3334934 0.19055672
000120 c5 8a 2f bf f5 7e e2 bd c6 e2 1c bf b9 4d 2b 3e
       -0.6857112 -0.110593714 -0.6128353 0.16728868
000130 47 56 ba 3e 60 14 17 be 20 15 64 be 09 f7 91 bd
       0.3639395 -0.14753866 -0.22273684 -0.07127196
000140 8f a0 5e bd a1 19 3d bf 19 12 42 be 0d 5c e3 b9
       -0.05435234 -0.7386723 -0.18952216 -0.00043365397
000150 c2 c7 b9 3f 08 f7 00 bf 9e cd 56 3f 5f d3 7f 3f
       1.4514086 -0.5037694 0.83907497 0.999319
000160 35 a6 4a bf 38 40 d1 bf b7 57 5f 3e 4d 9f d5 3e
       -0.7915986 -1.6347723 0.21810804 0.417231
000170 70 ab b9 3d 50 65 87 3d d2 d2 44 3c 5f a9 fc be
       0.09065902 0.06611121 0.012013154 -0.4934797
000180 9f 2b 66 be 3c 4f 0d 3f d3 c8 6b 3e 7a b3 10 bf
       -0.22477578 0.5519903 0.23025827 -0.5652386
000190 d7 b3 e5 be d9 1b 69 3e 35 5c c3 be dc 51 89 3e
       -0.4486377 0.2276453 -0.38156286 0.26820266
0001a0 65 da 1b 3c 40 8b d8 3c b7 34 16 3f 75 ae 7e 3e
       0.0095125185 0.026433587 0.58674186 0.24871238
0001b0 54 80 d0 3e cb 41 46 3f dc 84 38 bf 77 6e 6b bd
       0.40722907 0.7744414 -0.7207773 -0.057478394
0001c0 1f 0c 24 bf 8b 87 cd be 50 25 b6 be 94 ad ca 3e
       -0.64080995 -0.40142474 -0.35575342 0.39585555
0001d0 54 05 b5 be d9 94 bc bc 04 89 fb 3e 28 69 45 bd
       -0.35355628 -0.023020195 0.49127972 -0.048195988
0001e0 c4 aa 05 3f 22 cc d9 3d 3f ad 4f 3d dc ee f0 be
       0.5221369 0.10634638 0.05070233 -0.47057235
0001f0 a0 96 07 bf 22 cd 56 3e 45 f2 9b 3f f3 37 65 be
       -0.5296421 0.2097669 1.218331 -0.22384624
000200 25 63 84 be 28 7c 57 3e e5 9f 39 be d4 3e 55 3f
       -0.2585689 0.21043456 -0.18127401 0.83298993
000210 9c 00 9b be 8a 52 50 3f e1 31 16 bf fe 4c 1e 3e
       -0.30273902 0.81375945 -0.5866986 0.15459058
000220 f0 b8 0e bd c1 4e ab be 78 ea 08 3f 8f d3 39 bf
       -0.03484434 -0.33458522 0.5348277 -0.7258844
000230 00 6e 34 3e f1 62 1e 3f a8 47 2e 3e 68 6f c2 3e
       0.17620087 0.6186972 0.17019522 0.3797562
000240 0b c0 d9 3e 33 a6 13 3f 36 f6 0e 3c 54 e3 c0 3f
       0.4252933 0.57675475 0.008725693 1.5069375
000250 f5 dc ed 3e 7f 0c 21 bf 57 4b 87 bf ad a9 ec 3e
       0.4645764 -0.6290969 -1.0569867 0.46223202
000260 47 31 02 3e f7 0f 7c 3e be aa 58 3f bc cc 75 bf
       0.1271411 0.24615465 0.8463553 -0.96015525
000270 95 dc db 3e cc b1 d9 be 4a 6b db be d8 c9 d0 3e
       0.42941728 -0.4251846 -0.42855293 0.40778995
000280 09 a9 e7 3e e6 0e b2 3e 23 f7 a9 3d 61 54 32 3f
       0.4524615 0.34776992 0.08299091 0.6966
000290 44 85 78 bd 9d 9c ea bb 45 ab e8 be ea 7a b1 be
       -0.060673967 -0.007159783 -0.45443168 -0.34664088
0002a0 86 8d 98 3e 24 6d 5d be 14 56 ac 3e e6 a6 0e bf
       0.29795474 -0.21623665 0.33659422 -0.55723417
0002b0 56 15 a3 3f 4a b9 59 bf b2 fb 0c 3f a2 be 50 bf
       1.2740886 -0.85048354 0.55071557 -0.8154088
0002c0 fd 71 a5 bc cb 55 15 be a3 3b 94 bf de 06 35 bf
       -0.020195955 -0.14583509 -1.15807 -0.70713603
0002d0 5f 03 6e bf fb 3c 3d 3e 1b 93 b7 3e c8 05 03 bf
       -0.92973894 0.18480293 0.3585442 -0.51180696
0002e0 1f 72 18 bf de ef c3 3e f9 bd ac 3d 2c 54 9d bf
       -0.59549135 0.38268942 0.08434672 -1.2291312
0002f0 c5 e3 ac 3e 91 49 79 bc 92 5f 0d 3f 09 4a 60 bd
       0.33767524 -0.0152152935 0.55223954 -0.054758105
000300 c7 a4 92 be 8b 27 93 3e 42 9d bf be 2a ec 8b 3e
       -0.2864134 0.28741106 -0.37424666 0.27328616
000310 8c 68 97 be 7c 88 d7 bd 30 72 d5 3d 38 34 60 bf
       -0.2957195 -0.10524079 0.1042217 -0.8757968
000320 36 e3 87 be c2 21 92 3e 3d e0 a4 3e e0 89 1e 3d
       -0.26540536 0.2854138 0.3220233 0.038705707
000330 18 28 76 3e 0a 91 f6 bd 1f f7 71 3d c6 ab 1b 3c
       0.24038732 -0.12039383 0.059073564 0.009501403
000340 79 76 e0 3e f2 37 90 3e 9a 0f 73 3d 08 c3 aa be
       0.43840387 0.28167683 0.05934105 -0.33351922
000350 a0 36 c1 bd ac 57 b8 3e cf 5e 84 be 86 0c d6 be
       -0.09434247 0.36004388 -0.25853583 -0.4180643
000360 be 18 06 3e 4d a5 a5 be ae da 57 3e 1d 0b cf bd
       0.13095376 -0.32352677 0.21079513 -0.101095416
000370 8d bc e6 bd 68 d5 15 be 0b 6f 05 3e 51 a7 b2 3d
       -0.11266432 -0.1463219 0.13030641 0.08723319
000380 79 6b 18 3c 98 30 2c 3d 2a f0 4d 3e 88 ee ee bd
       0.009302967 0.04203853 0.20111147 -0.1166659
000390 b3 60 d7 3d 1b 77 2b 3e e1 46 00 3e f2 b7 1b be
       0.10516491 0.16744654 0.12527038 -0.15206888
0003a0 22 b5 33 3e bc 7d 04 3e 87 2b 34 3d fe 9e 1e bf
       0.17549565 0.12938589 0.043986823 -0.6196135
0003b0 32 4a 3d 3e 82 d9 c8 3d 1e e4 55 3e 78 8e 0c 3e
       0.18485335 0.09807111 0.20887801 0.13726223
0003c0 e3 cc c3 3d d8 54 d9 3d 78 dd 5d be c0 72 be 3e
       0.095605634 0.10611886 -0.21666515 0.37196922
0003d0 94 bf fb 3d 24 df 8b bc fd b4 53 3e 84 5e ab 3e
       0.122924 -0.017074175 0.2067451 0.33470547
0003e0 0f 4e e7 3d 9a 53 98 3d 03 71 ab be 42 7b 07 be
       0.11294185 0.07437821 -0.3348466 -0.13230613
0003f0 34 31 8d 3e 54 07 2a 3e 2d 1c 18 be c6 04 7c bd
       0.27576602 0.16604358 -0.14854498 -0.06152799

weight f4 [100, 1, 3, 100]
000000 fc d4 3b bd 44 4a 32 3d 2f 83 63 3d dc 5b 79 bd
       -0.045857415 0.043527856 0.05554503 -0.06087862
000010 20 53 2c bb ac 76 97 bd 9e fd 8e bb 0e 24 56 3d
       -0.0026294664 -0.07395682 -0.0043637296 0.05228048
000020 8d fa a4 3c d1 39 f9 bd 56 05 8b bb b0 4b 9d bd
       0.020139003 -0.12169231 -0.0042425795 -0.07680452
000030 8a f3 d9 3c c9 37 c2 3d 32 23 22 3c 2c 0f 60 bc
       0.026605386 0.094832964 0.0098960865 -0.013675492
000040 b8 82 dc bc 86 6b 13 3d 67 e9 92 3c f5 07 0c bd
       -0.0269178 0.035991214 0.01793356 -0.034187276
000050 98 da 39 3d 96 5e b4 3d 2b c1 08 be a4 0d 05 3d
       0.045374483 0.08807103 -0.13354938 0.03248371
000060 95 cc 9a 3c c8 e4 e0 3d 52 0c b9 bb 68 dd cf bd
       0.01889638 0.109811366 -0.0056472206 -0.10149652
000070 65 d8 05 3c c0 62 f6 bd d6 33 84 bd 1d fc fa bd
       0.008169268 -0.12030554 -0.064551994 -0.12255118
000080 cf 4c 0e bc db e6 12 bd a5 fe 9c 3c f9 f6 89 bd
       -0.008685305 -0.035864692 0.019164393 -0.067365594
000090 0e a2 bd bc 33 90 41 bd 32 27 2c 3a 0c 1d 2e bd
       -0.023148563 -0.04725666 0.000656712 -0.04250817
0000a0 93 ed f2 bc 30 cb d6 3c cd aa 8a bd 21 72 89 bc
       -0.0296543 0.026219934 -0.06770859 -0.016778054
0000b0 fc 57 5a bd c8 b4 b6 bc d6 f7 10 bd d3 eb 16 bc
       -0.053306565 -0.022303 -0.035392605 -0.009211498
0000c0 22 ca 1f 3d 71 31 75 3d cb ae cf 3c 4e fe 43 3c
       0.03901113 0.059861604 0.025351902 0.011962486
0000d0 44 0d 2b 3d c0 59 9d bc 89 4d bf 3c 1e fb 30 bd
       0.041760698 -0.019207835 0.023352401 -0.043208234
0000e0 27 f8 66 bc f0 05 35 be 0d 7c af 3d 5c 6a cf 3d
       -0.01409725 -0.17678046 0.08568583 0.10127708
0000f0 b3 05 ab bd 66 48 c3 3c e1 13 9a bd cc 07 45 bb
       -0.083506964 0.023838233 -0.07523323 -0.0030064462
000100 aa 1e 07 3e 6f 22 c6 bc e8 34 95 3d 30 17 51 3d
       0.13195291 -0.024186341 0.07285482 0.051047504
000110 fa 4f 07 bd 2f bc c5 bd 3b 82 b5 3c 58 e4 a0 bd
       -0.033035256 -0.09655034 0.022156825 -0.07856053
000120 5b d9 b8 3d 8d bf 91 3d c2 67 3c 3d da ce f9 3c
       0.09025832 0.071166135 0.04599739 0.030494142
000130 37 6a 3a ba aa e5 10 be a6 5e c5 bd 15 51 7f bd
       -0.0007111164 -0.1415011 -0.096371934 -0.062333185
000140 08 2f da 3d b1 49 90 bd c5 04 39 bb 34 76 0e be
       0.10653502 -0.070453055 -0.0028231603 -0.13912278
000150 f2 1c 4c bc 48 8f ba 3c ae 9a a9 3d 14 00 98 3c
       -0.012458073 0.0227734 0.08281456 0.018554725
000160 48 00 c0 3d 41 b5 e2 3c d2 9f bf 3d bd 84 4f bd
       0.09375054 0.02767432 0.09356655 -0.0506637
000170 41 2c fa bd d1 bb 08 3c c6 66 10 3d ab 66 e4 bc
       -0.12215472 0.00834556 0.035254262 -0.027880987
000180 62 ef 8f 3c c1 da 7e 3d af ea 87 bc fc 5f 07 ba
       0.017570201 0.06222034 -0.016591398 -0.0005164144
000190 2c 4a f1 3c b6 09 c3 3b b0 67 e2 3c 41 8a 7c bc
       0.029454313 0.0059520854 0.027637333 -0.015413822
0001a0 0b b4 02 be 91 e3 68 3c 43 16 8c 3b 28 91 1b bd
       -0.12763993 0.014214412 0.0042751147 -0.03798023
0001b0 ba 68 27 bd 36 7c 5d bd 3d 29 a2 bc 88 cf 97 bd
       -0.04087136 -0.054073535 -0.019795055 -0.0741263
0001c0 08 a9 ce bb 17 30 91 bc b2 ca 6a 3d 14 35 e2 bc
       -0.006306771 -0.017723126 0.05732221 -0.0276132
0001d0 f2 98 3f bd 10 a8 7e bd 96 60 cf 3d db 5b 58 bb
       -0.04677672 -0.062171996 0.10125844 -0.0033013735
0001e0 90 3e a6 bd bf a2 61 3d 94 2f 8e bd 9e 86 36 bd
       -0.081174016 0.055086847 -0.069426686 -0.044561975
0001f0 bf b4 af bb e2 83 fb 3c 71 b1 88 bd ed 64 bb bd
       -0.005362123 0.030702535 -0.06674469 -0.091501094
000200 bd 32 cd 3d 98 29 73 bd 22 bd f1 bd fb 06 43 bd
       0.10019443 -0.05936584 -0.11803652 -0.04761408
000210 4a f4 36 bd 4c c6 38 3c 02 04 af 3d f4 b8 a5 bd
       -0.044666566 0.011277746 0.08545686 -0.08091918
000220 9f db b8 bd 04 13 5b bc db 48 8f 3c 59 76 67 3d
       -0.090262644 -0.013371233 0.017490795 0.05650935
000230 14 83 cc bc ca 8f 28 bc fd 31 b6 3b e7 78 43 bd
       -0.024964847 -0.010288188 0.0055601583 -0.047722723
000240 f9 a6 9e bc fb a4 51 bd 92 be 43 bd 47 00 eb 3c
       -0.019366728 -0.05118273 -0.047789164 0.028686656
000250 73 31 f6 bc 40 d3 c2 3d 99 4d c1 3c ff b3 05 3d
       -0.030052876 0.09512949 0.023596572 0.03264236
000260 fe 24 36 3d da 6b 2e 3d f1 f6 0f 3c 5b b9 5f 3d
       0.044468872 0.042583324 0.008786903 0.054620128
000270 40 03 08 bd ee 5f 05 bc e2 dd a5 3c f0 43 e1 3d
       -0.033206224 -0.008140547 0.020247404 0.10999286
000280 01 39 35 3c 9d d3 50 3d 76 e1 f4 bc 81 b7 13 bd
       0.011060954 0.05098306 -0.029892664 -0.036063675
000290 9d 2f a9 3d 2b 5a b8 3b 2b 75 87 3c 9b 39 1c 3e
       0.08261035 0.0056259832 0.016535362 0.1525635
0002a0 e0 25 8e 3d 36 c0 c0 bd 71 28 c2 bc c7 39 04 be
       0.06940818 -0.09411661 -0.023700925 -0.12912665
0002b0 de 49 45 3d 1c f5 c8 3d c1 03 1c 3c ca b1 9e 3c
       0.04816615 0.09812376 0.009522379 0.019371886
0002c0 d8 f7 61 3d 0d 49 8d bd 19 4d a0 bc 0b 4d 91 3d
       0.055168003 -0.06898699 -0.019568013 0.07094773
0002d0 01 18 77 3d e2 33 98 bd a0 cc 87 3d e1 da 36 bd
       0.060325626 -0.07431771 0.06630826 -0.044642333
0002e0 c0 33 9c 3d 14 4e 01 3c fb 09 6a 3c 85 6e 11 bd
       0.07627058 0.00789215 0.014284606 -0.03550579
0002f0 11 a7 39 bc 49 a6 30 bb 27 82 32 bd 0c 4e 81 bd
       -0.011331336 -0.0026954582 -0.043581154 -0.063137144
000300 98 20 b0 3d ca 8a 6a 3d f6 1a 24 3c 99 2d a8 bb
       0.08599967 0.057261266 0.010016194 -0.005132389
000310 5d ba 66 bc 12 21 1e bb dc 78 da 3c 5d ef 02 bd
       -0.014082518 -0.0024128598 0.026668958 -0.031966556
000320 b1 e6 04 3d 4e 56 d6 3c 4e 1b c9 3d 70 61 0e 3d
       0.032446567 0.0261642 0.09819661 0.034760892
000330 3f c0 0a be 9f c9 b3 bd cc 27 3c bd 6c 4a 49 3d
       -0.13549899 -0.087786905 -0.04593639 0.04914324
000340 a9 ab 33 bd 7a 20 48 be 50 2f 71 3d 6a 92 97 bd
       -0.04386488 -0.19543639 0.05888301 -0.07400973
000350 18 65 36 bd 7e 63 63 3c 63 2f 02 3d dc 76 0b 3e
       -0.044530004 0.013878701 0.031783473 0.1361956
000360 a7 2a 1b 3d 18 9a 91 3d 34 3a 10 bd 25 5c 93 3b
       0.037882473 0.07109469 -0.035211757 0.0044970685
000370 61 51 a5 bc 14 19 4a 3d 7f 76 9a bd 86 10 30 3b
       -0.020180406 0.049340323 -0.075421326 0.0026865317
000380 7d 87 e0 3c 1b 5c 0e be b7 03 18 3c 79 76 b1 3d
       0.027408356 -0.13902323 0.009278229 0.08665175
000390 c9 4f af bd c2 c7 7b 3d c0 4f bd bc 64 6f 07 be
       -0.0856014 0.0614698 -0.023109317 -0.13226086
0003a0 42 4f b1 bd c1 6c fd bd a3 0a 03 bd bb 34 23 bd
       -0.08657695 -0.12374259 -0.031992566 -0.03984521
0003b0 eb 1c 9c 3b 90 68 e1 3d c5 4f 58 bc 58 95 3f bd
       0.0047641895 0.11006272 -0.013202612 -0.046773285
0003c0 c7 de 87 3c 70 59 dd bd 76 48 be 3b 90 84 a1 bd
       0.01658572 -0.108080745 0.005806978 -0.078866124
0003d0 9d 21 1a 3d 00 89 f1 bd 23 2d 3f bc 49 bc 69 bd
       0.037629712 -0.11793709 -0.011668476 -0.05706433
0003e0 f4 79 2b bd 0c 20 0d 3e de db 81 3d 2c 80 67 bc
       -0.04186435 0.13781756 0.063407645 -0.01412968
0003f0 08 2d 27 3b b0 8f bd 3c 6e 7a b3 bd 03 c0 9f 3d
       0.0025509018 0.023139805 -0.08763586 0.07800295

bias f4 [100]
000000 fd 4a af bd 6f 80 dc bd c7 52 33 3d db 4d 38 be
       -0.08559225 -0.10766684 0.043780115 -0.1799845
000010 5a 4b 65 bd cd 0a 44 be 8d cf d3 3c bc bf 84 3c
       -0.055980064 -0.19144745 0.025855804 0.016204707
000020 ca 89 02 be 7e 33 14 3d 50 af 5f 3d 1d 1c 3f 3c
       -0.12747875 0.03618192 0.05461055 0.011664418
000030 46 6e 05 3d 66 35 56 be 6a 25 1d bd a3 d1 4a 3c
       0.032575868 -0.20918807 -0.03836576 0.012379083
000040 9a 6a cb bd ba c3 bd bc d2 5c 8c 3d 57 ae ba 3c
       -0.09932442 -0.023164619 0.068536416 0.02278821
000050 c6 e5 1d bd e3 a3 66 3b 7d 9a c7 bc 2e 9d cb bc
       -0.038549207 0.00351929 -0.024365658 -0.024855223
000060 60 3b 2f be f5 a6 c6 bd ca 7e b4 bd 02 08 8d 3c
       -0.17112494 -0.09699813 -0.088132456 0.017215732
000070 7a 21 3b be e2 9a 01 be aa 23 1d bd 01 3d 87 bd
       -0.18274489 -0.1265674 -0.03836409 -0.066034324
000080 f1 83 be bd 93 f3 51 3d f4 6c 0a be e2 d3 f5 bb
       -0.093025096 0.05125768 -0.13518125 -0.007502065
000090 b9 a3 89 bc 63 71 07 3d 50 9e 4e b9 25 2d 59 3c
       -0.016801702 0.03306712 -0.00019704667 0.013255392
0000a0 b1 86 46 be fc 6c c9 3c 3b 0e 49 be 8d 58 ed bc
       -0.19387318 0.0245881 -0.19634335 -0.028972888
0000b0 52 a2 ad bc 16 0a 24 bd c3 c0 42 bd 69 53 3a bc
       -0.021195564 -0.04004868 -0.047547113 -0.011372426
0000c0 cd 85 bf 3c 28 25 cb bd 3d 07 00 be a1 04 cc bd
       0.02337923 -0.09919196 -0.12502761 -0.099618204
0000d0 b0 77 11 bd 9c 9c a6 bd ad 26 c8 3b 8d 73 32 be
       -0.035514534 -0.081353396 0.006108126 -0.17426892
0000e0 f2 e4 b1 3c 5e 66 ec bd cf aa 9e bd 63 84 4d 3d
       0.021715615 -0.115429625 -0.07747423 0.050175082
0000f0 6c ee a2 3c d7 c3 55 bd d6 db 02 be c8 0e 3e 3d
       0.019889079 -0.05218872 -0.12779173 0.046400815
000100 e0 f6 e0 bd cb f3 ae 3b e2 44 9a 3d 36 bb 02 be
       -0.10984588 0.005339121 0.075326696 -0.12766728
000110 27 83 16 be 1f 4c 58 3d 24 55 8a bd 28 15 f2 bd
       -0.14698468 0.05280697 -0.067545205 -0.118204415
000120 59 61 a8 ba cf 6d b5 bc c4 76 65 bd f4 f5 73 bc
       -0.0012846395 -0.022147087 -0.056021467 -0.014890183
000130 13 fc 76 3b 62 87 58 be 30 c0 81 3d 67 65 26 be
       0.003768687 -0.21145394 0.06335485 -0.1624962
000140 c6 b7 1d bc 47 87 29 bc fa bd 7f bd cd 42 07 3d
       -0.0096263345 -0.010347194 -0.062437035 0.03302269
000150 df 25 fd bd 1b bb 21 bd 59 43 71 3d f3 7b 19 be
       -0.12360739 -0.03948508 0.05890212 -0.14988689
000160 06 79 c7 3c 13 1f e8 bd d2 3c 26 be f3 ca 57 bc
       0.0243497 -0.11334052 -0.16234139 -0.013170945
000170 81 e8 28 be 15 b0 14 bc 9d 8a 5d be e2 42 34 3d
       -0.16494943 -0.009075184 -0.21634908 0.044009097
000180 96 84 29 bb c6 e0 19 bd b2 61 8e bd b5 09 c6 bc
       -0.002586638 -0.037567876 -0.06952228 -0.02417455

weight f4 [100, 1, 4, 100]
000000 0a ff 3f 3d 61 5e e4 3b 4b ab 3e 3c ee f2 01 bc
       0.046874084 0.0069692587 0.011637519 -0.007931454
000010 71 e7 3e bd 57 5e cd bc e5 73 16 bd ef a5 ef bc
       -0.04660744 -0.025069399 -0.03673162 -0.029253928
000020 51 64 59 bd 54 01 2c ba e3 a5 1d bd 3d 02 c2 bc
       -0.053074185 -0.0006561477 -0.03848828 -0.023682708
000030 b0 5a 8a 3d 44 1b 07 bd a8 14 d8 bc 40 53 92 ba
       0.067555785 -0.032984987 -0.026377037 -0.0011163726
000040 71 8a e3 3c 23 42 50 bd b4 4d e2 bc 1c d8 79 3d
       0.027775975 -0.050844323 -0.027624942 0.060997114
000050 c3 33 35 bc 70 bd 2a 3d 98 f7 70 3c 30 2c ca 3d
       -0.011059704 0.041684568 0.014707468 0.09871709
000060 39 5d cc 3c a1 64 a8 bc 96 ae d2 bc b9 9a d9 3b
       0.024946796 -0.020555796 -0.025718015 0.006640759
000070 99 b0 72 3d d8 1a a1 3c 71 da bd 3d d6 a6 1d 3c
       0.059250448 0.01966612 0.0927018 0.009622296
000080 05 51 ab bb 56 36 0d bd 97 ab 7c ba 50 7a 2a 3d
       -0.005228164 -0.034475647 -0.0009638606 0.041620553
000090 c0 d0 18 bc 2c 10 a0 b9 c6 2c 03 3d 13 ea b3 3d
       -0.009327114 -0.00030529627 0.03202512 0.087848805
0000a0 3d 6e 72 bd 20 b1 f8 bc 05 65 96 bd 7b ff 9e 3c
       -0.059187163 -0.030357897 -0.07343487 0.019408932
0000b0 e2 2b 13 3c 41 8a e2 3b 1a 8d 25 bc f4 0d 9a bd
       0.00898263 0.006913454 -0.010104442 -0.075221926
0000c0 93 65 ad bc 86 7e db 3c af 4c b3 3c be 96 64 bc
       -0.021166598 0.02679373 0.021887152 -0.013951955
0000d0 0b c2 60 bb 0c 1c e0 bc 51 a5 d1 bb 54 7f 16 bd
       -0.0034295346 -0.027357124 -0.006397881 -0.036742523
0000e0 7b 0b 6c bd 0f b4 bd bc f0 1e 8e bb 71 0b 49 bd
       -0.057628136 -0.023157148 -0.004337184 -0.049083177
0000f0 60 5c 01 3d 9b bc ae bd fc 42 b5 bc 6d e0 07 3d
       0.031582236 -0.085320674 -0.022126667 0.033173013
000100 dc 9a 45 bd 5a f0 23 3a dc b8 0e bd de 3b bb bd
       -0.04824339 0.0006253772 -0.034844264 -0.09142278
000110 59 43 55 bd c2 16 d8 3c c7 bb 4f 3d 76 d9 a4 3d
       -0.05206618 0.02637804 0.050716188 0.0804929
000120 74 38 63 3c 1a e5 e6 bb 51 22 cb bc 77 92 25 bb
       0.01386844 -0.007046354 -0.024796637 -0.0025264302
000130 1f 97 92 bc 87 63 57 3d d7 19 e0 3a 45 5c a2 3d
       -0.017894326 0.05258515 0.0017097545 0.07927755
000140 df 24 02 3d 51 a4 a0 3b 71 f2 9b ba 64 f3 9d 3d
       0.031773444 0.0049024005 -0.0011897815 0.07712439
000150 80 15 3d bc a1 ce a7 bc e6 bf 8e bd 8d 09 3f 3d
       -0.0115407705 -0.02048427 -0.069701955 0.046639968
000160 71 68 9c 3c 22 a7 98 3b dd f0 6a bc f0 e8 e2 3c
       0.01909277 0.0046585957 -0.014339653 0.027698964
000170 12 d3 88 3d 48 98 87 3d 02 00 93 3c 49 93 2d bd
       0.066808835 0.06620842 0.01794434 -0.04237679
000180 b5 1a 31 bc 46 61 d2 bc 65 7c 94 bd 7b 83 fb bc
       -0.01080959 -0.02568115 -0.07250289 -0.030702343
000190 7a 31 70 bd a2 69 ab bb ed 33 c7 3c f6 a6 17 3e
       -0.058640935 -0.0052310983 0.024316752 0.14809784
0001a0 66 4b af 3d ee e8 52 bd 35 88 4a bd ab cd 06 bd
       0.08559303 -0.05149167 -0.049446303 -0.032910984
0001b0 22 53 94 bb 4c 99 07 ba 47 00 ac 3c 8b 1f ec bc
       -0.0045265118 -0.00051726843 0.020996226 -0.028823635
0001c0 f9 76 bc bd 2d 10 20 3d aa ab 13 3b db b7 71 3d
       -0.0920238 0.039077926 0.002253274 0.05901323
0001d0 cc 94 0c bd fa 4a 56 bc 96 10 97 3d 80 0a 7a bc
       -0.03432159 -0.013079399 0.073762104 -0.015261292
0001e0 36 bd 6c bd 13 7f 0c 3d 00 c8 14 3c 89 15 ae 3d
       -0.057797633 0.034300875 0.009080887 0.08500201
0001f0 7e 97 f6 3c e4 4b 02 bb 36 1c 88 bd 0c c8 f2 3d
       0.030101534 -0.001988166 -0.06646006 0.11854562
000200 15 ec 17 bc 9c 99 de 3b 67 6a 9c 3d 20 24 10 3d
       -0.009272595 0.006793214 0.07637482 0.0351907
000210 f1 a1 e0 3c fa fc ac bc 72 fe be 3d 04 32 7c 3d
       0.02742097 -0.021116722 0.09325875 0.061571136
000220 b0 74 b2 3d d3 91 05 bb b1 aa 90 bd 17 8e 89 bd
       0.087136626 -0.0020381107 -0.07063807 -0.067165546
000230 00 2d 5e 3d 63 ec 08 bd fe 1f 33 3d a5 29 41 bd
       0.054242134 -0.03342856 0.043731682 -0.047158856
000240 56 70 84 38 0c 43 8e bc 98 3b 34 bd fb fc 85 3b
       6.315175e-05 -0.017365955 -0.044002146 0.0040889955
000250 f3 40 dd bb a9 14 d9 bb 38 a3 4b bc 2b 43 40 3c
       -0.0067521273 -0.0066247773 -0.012429051 0.011734764
000260 af fa a1 3d f7 87 33 be 60 71 33 bc 08 c2 c3 3d
       0.07909142 -0.17532335 -0.010952324 0.09558493
000270 fd d7 5a bc 0b 70 d6 3c 03 49 83 3c 05 43 92 bd
       -0.01335716 0.026176473 0.016026026 -0.07141689
000280 34 9e 71 bb 80 78 ea bd 64 c0 2f bc e1 c7 63 bd
       -0.0036867978 -0.11448765 -0.010727022 -0.05561054
000290 40 d4 94 ba 37 5d 94 bc 95 74 7f 3c 11 4b eb bd
       -0.0011354759 -0.018110855 0.01559176 -0.11488927
0002a0 f8 fd 4f bd d4 38 b4 3d 85 fb 21 bd e6 6c 33 bd
       -0.050779313 0.087999016 -0.03954651 -0.043805026
0002b0 72 9d 47 3d ea 4a ea 3d 92 05 e1 bb 8d 49 eb bc
       0.048734136 0.1144007 -0.006867119 -0.028721595
0002c0 55 23 52 bd 42 62 1e bd d6 c9 9e 3d 56 7e fe 3c
       -0.051303227 -0.038667925 0.07753341 0.031066101
0002d0 8d 4d 00 3c f5 37 8c 3d f7 35 22 bb 2e 01 90 3d
       0.00783099 0.068466105 -0.0024751404 0.07031475
0002e0 25 c3 f6 3c 7a e1 f2 bb 9e 0d 00 3c ee c3 28 39
       0.030122349 -0.007412133 0.007815747 0.00016094718
0002f0 ea a0 e8 bc 3e 88 02 bc e5 16 c2 39 fb dd e2 3c
       -0.028397042 -0.007967053 0.0003701962 0.02769374
000300 49 80 91 bd c1 91 00 be 7f cd a9 3d 83 c2 e4 bc
       -0.071045466 -0.125556 0.082911484 -0.027924782
000310 bd 7e 63 bd 62 e2 5c bb 42 5e c9 3d 7c ad 34 bd
       -0.05554079 -0.003370427 0.098324314 -0.04411076
000320 cf 41 a8 bd 40 28 97 3c b0 0d be 3d d8 91 17 3d
       -0.08215677 0.01845181 0.092799544 0.03700432
000330 27 85 6c 3d 99 64 25 bb 80 7c b7 bd a1 24 26 3d
       0.05774417 -0.0025236963 -0.08959293 0.040562276
000340 a6 06 05 3d 1b 17 15 bd 92 a6 11 3d 0d a9 cc bd
       0.032477044 -0.03639899 0.035559244 -0.099931814
000350 d0 f4 86 3d 0c 5d df 3d a4 01 86 bc e0 e3 ef bc
       0.06589663 0.10906419 -0.016358204 -0.029283464
000360 fc 25 d2 bc 32 05 a0 bc 33 4d 6f bd c3 c3 9e bd
       -0.025652878 -0.019533727 -0.058423232 -0.07752182
000370 f8 ae aa bc 5c 17 71 3b 67 26 c5 3c 50 b2 d8 3c
       -0.020835385 0.0036787605 0.024066163 0.026452214
000380 09 b3 ba 3b 8f e7 94 bc 2c 9d da bc a8 33 e2 bc
       0.005697612 -0.018176822 -0.026686274 -0.027612522
000390 18 0f 1e 3d 8b 33 25 3d 4b b2 92 bb de ef 39 bc
       0.038588613 0.04033236 -0.0044768206 -0.011348693
0003a0 9b e7 54 3c 6c 1d f8 bc d4 7c 56 3c e9 16 72 bd
       0.012994672 -0.030287467 0.013091285 -0.05910388
0003b0 b4 e7 22 3c c6 90 96 3b 1f 45 5a bd 77 b6 c0 3d
       0.009942938 0.004594895 -0.053288575 0.094098024
0003c0 ee 69 07 bd 57 f9 7f bc 69 33 c0 bd 17 c8 98 3d
       -0.033060007 -0.015623412 -0.09384806 0.07460039
0003d0 3f 74 3e 3b 82 bc 48 bd 28 bc 3f bc ae 18 8a 3a
       0.0029060987 -0.0490079 -0.011702575 0.001053592
0003e0 ed 3d 5b bc cf 2c 96 3b ac 4a a3 bc e0 99 37 bd
       -0.0133814635 0.0045829783 -0.019933067 -0.04482448
0003f0 b5 f7 a1 3b ab 8f ce bb ea de 4e bd 30 cf 96 3d
       0.004942859 -0.0063037477 -0.050505556 0.07363737

bias f4 [100]
000000 5c b6 ea 3b 7c 71 01 be fd 48 e3 bd bb b2 31 be
       0.007162852 -0.12640947 -0.11097906 -0.17353337
000010 c5 d9 80 bc 07 70 af bd 3e 55 77 bd 6f 52 11 bd
       -0.01572884 -0.085662894 -0.060384028 -0.035479005
000020 7f b4 17 be ff 1f 34 bd ec 69 0a bd 4b 0e 8c bd
       -0.14814948 -0.043975826 -0.03379242 -0.06838664
000030 43 bc 96 bd 83 ac 45 be af a2 1e be ea f3 93 bd
       -0.07360127 -0.19304089 -0.15491746 -0.07224257
000040 a8 b5 21 be 13 80 16 be 2f e6 d8 bd 7a a4 bf bc
       -0.15791953 -0.14697294 -0.10590779 -0.023393858
000050 11 29 31 be 5e 08 0f be 6b 10 ed bd 3b 05 27 bd
       -0.17300822 -0.13968036 -0.11575397 -0.040776473
000060 71 b0 58 bd 11 ce f1 bd 92 3d b5 bd 3a 5a f9 bd
       -0.052902643 -0.11806882 -0.08849634 -0.121754125
000070 77 fc 8d bd ba b0 e7 bd 8a c1 02 bd 5f f5 76 bc
       -0.069329195 -0.11313005 -0.031922854 -0.015073149
000080 5d 5c e1 bc 82 92 17 3d 2a a7 20 be e3 4b 9c bd
       -0.027509863 0.037004955 -0.15688768 -0.07631662
000090 ff d3 98 bd 70 f3 1f bd 1d f8 02 be 25 27 83 bd
       -0.0746231 -0.03905052 -0.1278996 -0.064039506
0000a0 ab 0c 2d 3d b7 5b f9 bb 36 5e 08 be 0e 64 65 bc
       0.04224841 -0.00760981 -0.13317189 -0.014000906
0000b0 70 13 da bc e9 b3 53 bd 18 91 f4 bd 91 73 8c bd
       -0.026620597 -0.051685248 -0.11941737 -0.0685798
0000c0 89 89 09 be 5b b8 47 be ec 44 0c bd bf 84 f9 3c
       -0.13431372 -0.1950392 -0.034245417 0.030458806
0000d0 ce 7d 9f 3a 5b ae d4 bc 94 2e 61 bc f3 aa 79 bd
       0.001216823 -0.025962045 -0.013744015 -0.060954046
0000e0 2a 40 5d bc 87 24 34 be 04 d1 28 bc 78 0c 56 3d
       -0.013504067 -0.17592059 -0.010303739 0.052257985
0000f0 85 ed 15 be 08 b0 20 be 47 e3 d8 bd 5b 83 98 bd
       -0.14641388 -0.1569215 -0.10590225 -0.07446929
000100 5f a2 ec bb fb 20 e8 bd 28 de 9f bd dd ae a3 bd
       -0.0072215046 -0.113344155 -0.07806045 -0.07992337
000110 99 0a 4a bc 98 bb 4a 3d ba a7 13 be 4a 17 94 3c
       -0.012331628 0.04949531 -0.14419451 0.018077511
000120 8c 19 7e bd de 9a de bd 11 be 65 3d 66 d7 64 bd
       -0.062036082 -0.10869382 0.056089465 -0.055869482
000130 c5 b9 59 bc b3 53 1f be 1d 31 4a be d5 42 28 bd
       -0.01328892 -0.15559272 -0.19745298 -0.04107936
000140 44 e6 36 bd 74 b5 c6 bd 21 67 e8 bc ea 1a 57 bd
       -0.044653192 -0.09702578 -0.028369488 -0.0525159
000150 4a 6c 18 be ce d8 eb 3c ae 09 3b bd 96 2e a6 bd
       -0.14885059 0.028789904 -0.04566353 -0.08114354
000160 36 43 01 3c 21 b7 05 be cd 55 b9 bd 8b 69 e6 bd
       0.0078895595 -0.1305814 -0.09049568 -0.112505995
000170 a3 c2 0b be 0c 85 8d bd db eb 22 3c 98 54 2e 3c
       -0.13648467 -0.06910142 0.009943928 0.010640286
000180 bb e5 01 3d fc 9b a6 bc 71 27 2b be 41 d8 aa bd
       0.03171323 -0.020338051 -0.16714264 -0.083420284

weight f4 [100, 1, 5, 100]
000000 81 61 6e 3e f1 0b 76 bd 61 27 03 be fd 21 8f 3c
       0.23279382 -0.060069982 -0.1280799 0.017472262
000010 85 24 5a bd 37 8e 4d bd d0 1d 1a 3e 58 9f ff 3d
       -0.053257484 -0.050184455 0.15050435 0.12481564
000020 57 7e 9c bc 03 1d 1d be 88 b7 29 3d cc 7a 02 3d
       -0.019103212 -0.15343098 0.041434795 0.03185539
000030 2a 55 65 3c 38 72 c7 bc 4d f1 cd 3b 30 2b d0 3d
       0.0139973555 -0.024346456 0.006284869 0.10164487
000040 5c f4 e6 3d ee 82 b8 3d 53 ce 5e 3c 32 60 00 bd
       0.112770766 0.09009348 0.013598996 -0.03134174
000050 47 bd 80 bd 06 d7 b2 3e 91 d9 f9 bc 5e 5f b7 3c
       -0.06286102 0.34929675 -0.030499252 0.022384342
000060 c6 8e 6b bc 51 2e c7 3d 45 0e 15 3b 62 c5 b5 ba
       -0.014377302 0.09725631 0.00227441 -0.0013868029
000070 0c 63 22 3e 11 76 1a 3d 94 8b 27 be 98 e1 d4 bd
       0.15858096 0.037710253 -0.16361839 -0.10394591
000080 28 d9 bf bc 05 c1 3a bc a1 3c b3 3d c6 fd 51 3d
       -0.023418978 -0.0113985585 0.087517984 0.051267408
000090 e5 2e ea bc 61 23 e2 3c 9c 69 d4 bb 53 cf 0d 3e
       -0.028586814 0.02760476 -0.006482316 0.13848619
0000a0 ed 22 90 3d 31 2f 5e bd a8 0a 02 be ed 5b 96 bd
       0.070379116 -0.054244224 -0.12699378 -0.07341752
0000b0 b8 06 17 bc 75 2a 9d bb 9a 7a e4 bd c2 de 9d 3b
       -0.0092179105 -0.004796321 -0.11156197 0.0048178146
0000c0 66 3e 93 3d bf 0c d0 3c 67 7d 0d 3e e5 b2 98 3d
       0.07189636 0.025396703 0.13817368 0.074559964
0000d0 89 ae ec 3c ed b1 61 3d 9c 95 dd bd 08 46 82 bc
       0.028891819 0.055101324 -0.10819551 -0.015902534
0000e0 5e 0a 22 3d 95 dd 6e 3d d1 c2 07 3d e0 a9 4e 3e
       0.03956067 0.058316786 0.033144776 0.2018199
0000f0 6c 4e a9 bd 67 7c ed bd 64 ee 9d bc 1d 0e 9c bd
       -0.08266911 -0.115959935 -0.019278713 -0.076198794
000100 05 b1 a8 3d 11 b2 48 3d 1e df 72 3c 86 c3 92 3d
       0.08236889 0.048997942 0.014823703 0.071661994
000110 ab 2e 01 3e f1 58 bc bd d5 14 83 bc 68 50 ac bd
       0.12615459 -0.09196652 -0.016001144 -0.08413774
000120 62 e3 36 3d 9f d9 4a 3d e6 d4 b8 bb 4a a8 b1 3d
       0.044650443 0.049523946 -0.005640614 0.08674677
000130 84 90 70 bd ec ca e9 bc 5e 1e 25 bd dc 05 6b 3d
       -0.05873157 -0.028539144 -0.040312164 0.057378635
000140 6c 6a 94 3d 41 e5 9b bc 23 ea f9 bd 50 b3 56 bc
       0.07246861 -0.019030215 -0.12202861 -0.013104275
000150 61 04 3b 3d 1a b0 0b bd da 20 a0 bc ee 86 8e bc
       0.045658473 -0.03410349 -0.019546915 -0.017398324
000160 8c b0 ac 3d bc 6f 24 bd 4d 06 4c bd 6f a2 01 3b
       0.08432111 -0.04014562 -0.049810696 0.0019780656
000170 1d 07 76 3d c7 e0 84 3c 6c 7b 38 3e 0c 90 9e 3d
       0.060065378 0.016220463 0.18015832 0.077423185
000180 89 f2 73 3d 3c 91 ec bd 15 5d 6d 3d d4 be 1e 3d
       0.05955747 -0.11551139 0.057950098 0.038756207
000190 70 7b 23 bd d2 66 54 be 69 d2 f5 3b 4b f7 30 3c
       -0.03991264 -0.20742348 0.0075018895 0.010801147
0001a0 43 5d 10 3c f4 73 23 bd 9e d9 44 bd 36 39 42 3d
       0.008811298 -0.039905503 -0.0480591 0.04741784
0001b0 0e 38 f6 3c c5 47 fb 3c e4 c0 21 be 82 f5 01 be
       0.030056026 0.03067387 -0.15796238 -0.1269131
0001c0 49 cd 5d 3c 1c 75 16 3b 64 da 5c 3e 8a e8 9a 3d
       0.013537713 0.0022957986 0.21567684 0.075638846
0001d0 b5 de be bc 6f bd 64 bd 0b 99 d1 bc a2 4f 01 be
       -0.023299554 -0.05584472 -0.025585672 -0.12628034
0001e0 ab b0 cc 3c b3 6f c7 3d ed f9 e1 3d d8 0b 31 be
       0.024986586 0.09738102 0.11033998 -0.17289674
0001f0 23 c5 fa 3c c1 5d 92 bc f6 74 05 bd 8e b0 5b bd
       0.03061158 -0.017866971 -0.032582246 -0.053635173
000200 23 39 bf 3c 78 23 c1 3d d8 b0 9f 3d ee 7e 2a 3d
       0.023342675 0.09430593 0.07797402 0.041624956
000210 86 e7 0e 3e 03 fa 1c bd aa 14 4b bd e6 df d0 bd
       0.13955507 -0.038324367 -0.049580254 -0.10198955
000220 91 9f 0b 3d e5 5c 22 3e 22 b1 11 3d ec ac 81 3d
       0.03408772 0.15855749 0.035569318 0.0633181
000230 a0 e5 d7 bc 2f 00 d4 bd b7 21 a1 bc 7b 44 37 3e
       -0.02635461 -0.103515975 -0.019669397 0.17897217
000240 85 c1 b8 bc e7 f1 a2 bc ce e8 c1 3d 26 6b a9 3d
       -0.022553215 -0.019890739 0.09468232 0.0827239
000250 21 29 94 bc 14 d4 49 3d e8 1a c6 3c e9 c7 1e 3c
       -0.018086018 0.04927452 0.024182752 0.009691217
000260 a2 dd d9 3b 04 80 a0 bd 01 2d 8e 3c 3c de 2e 3c
       0.006648735 -0.07836917 0.017355444 0.010673102
000270 0a 75 01 bd 15 f8 e5 bc 20 3c 5f 3c 3a cb bb bd
       -0.031605758 -0.028072396 0.013625175 -0.09169622
000280 7d c1 50 3c b7 00 dc 3c 88 33 77 3d ce 93 e2 bd
       0.012741444 0.02685581 0.06035188 -0.11063348
000290 03 5c c2 bd c5 5a 84 3d c0 19 02 3d 29 79 0d 3e
       -0.09490206 0.064626254 0.03176284 0.1381575
0002a0 3c 20 88 3e 8b 30 9b bd b6 c4 0e bc 5b 14 a7 bd
       0.26587093 -0.07577618 -0.008713892 -0.081581794
0002b0 73 85 02 be b6 54 08 bd d6 c2 99 bd 19 6f a8 3d
       -0.1274622 -0.03328391 -0.07507865 0.08224315
0002c0 a6 b2 4e be 45 fb 01 3e d5 21 c3 3c b0 c9 be 3d
       -0.20185336 0.12693508 0.023819843 0.093158126
0002d0 28 f0 63 3d da 7c 02 3b b7 c0 84 3d a8 eb 87 3d
       0.055648953 0.0019910843 0.0648207 0.06636745
0002e0 96 ce a1 3c 0a 3e 47 be 1c 1d 2f be 18 f4 a9 bb
       0.019751828 -0.1945726 -0.17100948 -0.005186569
0002f0 12 67 7a 3d db af 18 3e e5 2b bf bd b6 9e 24 be
       0.06113345 0.14910834 -0.09334544 -0.16076168
000300 20 73 76 3c 58 0b a4 bd fc 1f 4e 3e 1c 96 93 bc
       0.015042096 -0.08009976 0.20129389 -0.018015914
000310 29 e3 87 bc af 3e 99 3d 30 7a 26 3e c3 5d 42 bd
       -0.01658781 0.07482659 0.16257548 -0.0474527
000320 c8 fc 87 3d b2 bc c4 bc 46 87 01 be 57 72 fc bd
       0.06640011 -0.024015758 -0.12649259 -0.12326496
000330 c5 80 9b 3d d4 5e 8d 3d d8 4e 95 bd c2 98 1d 3e
       0.0759292 0.06902853 -0.07290429 0.15390304
000340 76 2d 15 bd 70 a4 b2 bc df f1 2d bc f7 4b 84 bc
       -0.036420308 -0.021806926 -0.010616749 -0.016149504
000350 0f 05 d9 3d d8 12 c0 3d 84 36 02 be 49 5f ea 3d
       0.10596668 0.09378594 -0.12716109 0.114439555
000360 05 bd 17 3e 94 6a a4 3d dd 72 9a bd 46 89 13 3b
       0.14818199 0.08028141 -0.0754144 0.0022512241
000370 54 f2 fe 3b 88 27 73 bd 55 78 8b 3e 1b fd 28 3e
       0.0077803526 -0.05936387 0.27240244 0.16502802
000380 fe f0 3a bd 68 da fd bd 94 41 65 bc 23 4e fd 3d
       -0.045639984 -0.12395173 -0.013992686 0.12368419
000390 72 15 1e bd cb 8b 2c 3d f5 46 df 3d ae 03 08 be
       -0.03859467 0.042125504 0.10902206 -0.13282654
0003a0 44 15 8a 3c f8 0b f4 bd ba 0d b3 3d 1c 36 c6 3c
       0.016855843 -0.11916345 0.087428525 0.024195723
0003b0 83 26 ed bd 46 03 27 3c 53 28 1f be 7e cb 4d 3d
       -0.11579611 0.010193652 -0.15542726 0.050242893
0003c0 c5 9b 04 3e 8d a8 dd bc 1f 2e f1 3d 9e 7d 4d be
       0.12950046 -0.02705791 0.11776375 -0.2006745
0003d0 57 1b 09 be 29 bd de 3c 62 21 d7 bc 9a 58 ae 3c
       -0.13389336 0.027189808 -0.026261035 0.021282483
0003e0 3d 37 b3 bd c4 6d c7 bd cc 7c 4f bc 2c b6 b5 3c
       -0.0875077 -0.09737733 -0.012664031 0.022181593
0003f0 5a 78 36 3d b8 5e 83 bd fb 42 f0 bd 4a 40 60 bd
       0.04454837 -0.064145505 -0.117315255 -0.05474881

bias f4 [100]
000000 56 f3 e0 bd eb 1c e8 bc eb 76 20 bd b9 03 90 bd
       -0.10983913 -0.028334102 -0.03917591 -0.0703196
000010 5c e1 fc bc 2a f8 1d bd 24 e8 10 bd 60 57 1c bd
       -0.030869178 -0.038566746 -0.035377637 -0.038169265
000020 c6 06 4d bd 0a 3c 83 bd f7 69 c2 bd 2c 1d 91 bd
       -0.050055288 -0.06407936 -0.094928674 -0.07085642
000030 49 40 dd bd f1 34 c7 bd fd ba 5f bd 96 ea 6a bd
       -0.10803277 -0.09726895 -0.054621685 -0.057352625
000040 e9 15 60 bd ec 21 6e bd 41 a2 d3 bd d8 84 ce bc
       -0.054708395 -0.05813782 -0.10333682 -0.02520983
000050 3b 0d 3b bc 5a b2 eb 3b 3a 69 ed 3c a9 bd 9f bc
       -0.011416729 0.007192892 0.02898084 -0.019499617
000060 d9 cc b0 bd 20 c9 db bd 1b 18 e9 bc 22 50 80 bd
       -0.086328216 -0.10731721 -0.028453877 -0.06265284
000070 ac da 91 bd 9a 08 cd bd bd 48 76 bd 17 04 c9 bd
       -0.071217865 -0.10011406 -0.060127962 -0.09815233
000080 fc ef dd bb 7f a5 16 bc 09 c1 15 bd 09 fc 59 bd
       -0.006772993 -0.009194731 -0.036561046 -0.053218875
000090 b3 77 90 bd d1 a1 fb bd b1 b6 62 bd 52 dd d0 bd
       -0.07054081 -0.122867234 -0.05535001 -0.101984635
0000a0 08 cf ea bc 6d 0e e5 bd fa b4 e6 bd af 1e 21 bd
       -0.028663173 -0.11184392 -0.11264987 -0.039335903
0000b0 42 11 82 bd 65 87 e0 3b 8d db 48 bd 03 77 15 be
       -0.06350948 0.006852078 -0.049037505 -0.1459618
0000c0 4f a9 91 bd 6f 1e fb bd 8a e2 87 bd 53 ae 02 be
       -0.07112371 -0.12261664 -0.06635006 -0.12761812
0000d0 94 7d f9 bc fa 75 91 bd b7 f4 5b bd d2 3d f7 bd
       -0.030455388 -0.0710258 -0.053700175 -0.12072338
0000e0 ed 88 07 bd 5e a0 86 bd cf be 1f bd 93 f0 c6 bd
       -0.033089567 -0.06573556 -0.03900033 -0.09713855
0000f0 96 af 03 bd 25 09 06 be 27 db ef bd b8 e9 01 3c
       -0.032149874 -0.13089426 -0.11711722 0.007929258
000100 b3 12 b8 bd cc 18 98 bd 21 44 90 bd 83 f2 46 bd
       -0.089879416 -0.07426605 -0.070442446 -0.04857112
000110 36 c7 cd bc f6 7b 46 bd 4e dd 4b be 8a d5 2a bd
       -0.025119405 -0.048458062 -0.1990864 -0.041707553
000120 1d 3d 68 bd 36 f7 d4 bd 29 e2 19 3c 10 68 39 bd
       -0.056698907 -0.10398714 0.0093923 -0.045265257
000130 40 df 37 bd 5e 48 ce bd 74 ff 0b bd b7 2d 22 bd
       -0.044890642 -0.10072397 -0.034179166 -0.03959438
000140 fa db ac 3c 5a 26 09 bc b5 4d 54 bc f4 3d 45 bd
       0.021100987 -0.00837096 -0.01295798 -0.048154786
000150 50 a8 8a bd 35 3b 82 bd c5 ce 14 be 3e 91 ab 3c
       -0.06770384 -0.06358949 -0.14532001 0.02094328
000160 f6 d7 12 be 80 ae b1 bd 51 51 0c bd 66 6a 38 3d
       -0.14340195 -0.08675861 -0.034257237 0.045023344
000170 b1 00 24 be 5c fd f0 bd b9 12 0a be 5f e8 15 be
       -0.16015889 -0.117670745 -0.13483705 -0.14639424
000180 88 6b 7b bd 91 32 e6 bd 54 ae d8 bd 5e 76 80 bd
       -0.061381847 -0.112401135 -0.105801255 -0.06272577

weight f4 [31, 300]
000000 98 88 93 3d b4 4a ed 3d e5 14 41 bd 0c 5b ae 3d
       0.072037876 0.11586514 -0.047139067 0.085134596
000010 80 ad 0e be 64 d5 2f bb 2a b5 4f bd fe 56 8a bc
       -0.13933372 -0.0026830072 -0.05070988 -0.016887184
000020 51 37 46 bd bc 00 11 bd 2a 47 29 be cc f6 62 bd
       -0.048392598 -0.03540109 -0.16531053 -0.055411145
000030 a1 b3 80 bd 45 89 30 be fa 98 b8 bd 63 eb 66 ba
       -0.062842615 -0.17239864 -0.09013553 -0.0008808879
000040 4e fd f6 3d 2d 93 c0 bc b1 86 4a bd b5 b3 10 be
       0.12060033 -0.023507679 -0.049444858 -0.14131053
000050 77 4c 41 bd 34 be 39 bd 19 f6 f0 bd 36 32 61 bd
       -0.047192063 -0.045347407 -0.117656894 -0.054979526
000060 11 d2 2b bd 09 75 93 bc 78 77 0a bc 21 c4 37 bd
       -0.04194838 -0.018000143 -0.008451335 -0.044864777
000070 57 c0 dd bd c1 fe ce 3d 56 be 1a 3b dc a6 70 bd
       -0.108277015 0.10107184 0.0023611984 -0.05875288
000080 f7 d4 2e be 50 bb 8b bd ce 2a 7c bd 0d 65 6c bd
       -0.17073427 -0.068228364 -0.06156426 -0.057713557
000090 e8 8e 91 bd 93 a8 89 bd bc 11 15 be f4 b5 60 be
       -0.07107335 -0.06721606 -0.14557546 -0.2194441
0000a0 90 55 57 bc c8 b2 68 bd 7d ed de 3e 53 6c 0a be
       -0.013142958 -0.056811124 0.43540564 -0.13517885
0000b0 47 e9 28 bd 1a 43 e3 bd 78 ac aa bb 32 5f 37 bd
       -0.041238096 -0.11096783 -0.005208548 -0.04476852
0000c0 dc 2d 93 bd d7 fd 3f bd 26 97 a5 3d e7 8a 6b bc
       -0.07186481 -0.04687294 0.0808547 -0.014376379
0000d0 de 17 c6 bc 67 0a e7 bc b4 c9 02 bd 94 b1 7b 3e
       -0.024181303 -0.028203202 -0.03193064 0.2457946
0000e0 ec 96 f1 bd b9 b7 74 bd dd 2e 3f be 4b 9f aa bd
       -0.11796364 -0.059745524 -0.1867022 -0.08331164
0000f0 9d 2f a0 3d bc 5f 1b be da 87 a1 3c 6c 7f 14 bd
       0.078215815 -0.15173239 0.0197181 -0.03625433
000100 8e 5e 57 be b2 51 a1 bd 38 80 7e bd b6 78 d8 3d
       -0.21032164 -0.0787691 -0.062133998 0.10569899
000110 06 67 9b 3b 22 5e fe bc 4d 79 97 3e 08 a1 76 bd
       0.004742506 -0.031050745 0.29584733 -0.060212165
000120 e1 d7 2a bd 3b 6e 41 bd 9b 30 e2 bc 9d 32 dd bc
       -0.041709784 -0.047224265 -0.027611068 -0.027001673
000130 3c 93 ca bc 0d a4 dd bd 3b c7 3b bd b8 bf 0e bc
       -0.02472841 -0.10822306 -0.045844298 -0.0087127015
000140 9c ba 8c bd 0b 12 74 bd 54 74 d9 3c 17 d5 6e bd
       -0.068715304 -0.05958752 0.026544727 -0.058308687
000150 2f 88 55 bb 9f 81 94 bd fd d5 4a 3a 7f a4 80 bd
       -0.0032582392 -0.07251286 0.0007737575 -0.06281375
000160 8a c5 6f bd 2b 4e d5 bd c5 1d a2 bd 15 80 a2 bd
       -0.058537997 -0.104153 -0.07915834 -0.07934586
000170 fb f7 1a 3d a5 f8 13 bd 0d dd bb 3e 5d 86 b9 bc
       0.03783415 -0.036125798 0.36692086 -0.022647077
000180 a0 16 8c bd f4 55 d0 bd 4b ff 67 bd 27 68 6e bd
       -0.06840253 -0.10172644 -0.05663995 -0.058204796
000190 ca d3 8a bd 68 26 8d bd 5e a0 1b be 0a 3c 97 3d
       -0.06778677 -0.06892091 -0.15197894 0.073844984
0001a0 11 b3 a5 bd d4 11 05 3e 68 27 93 bd f7 14 a4 bd
       -0.08090795 0.12995082 -0.071852505 -0.08011811
0001b0 f8 ad 6c 3d 29 0c 42 bd b1 27 81 bd 6c 82 2e bd
       0.057783097 -0.047374878 -0.06306399 -0.04260485
0001c0 72 96 3f bd e1 57 23 3e 12 24 fd bd e7 c3 bf 3c
       -0.046774335 0.15951492 -0.123603955 0.023408843
0001d0 9f 9f 04 bd de 5f bb bd 67 60 d0 3d 78 44 43 bd
       -0.03237879 -0.091491446 0.10174637 -0.04767272
0001e0 16 2c 45 bc 60 1e ed bd 2c 5d 31 bd e3 54 53 3d
       -0.012034437 -0.11578059 -0.043301746 0.051594626
0001f0 89 9c 9e bd 40 b8 48 3c a2 9c 80 bc 05 21 68 3c
       -0.077447005 0.01225096 -0.015699688 0.014168029
000200 f0 d9 e8 bc 38 a6 21 be 16 d0 18 be 40 96 03 be
       -0.028424233 -0.15786064 -0.14923128 -0.12850285
000210 13 d2 f1 bd 16 c8 6d 3c 6e 67 2a be f6 57 c2 3c
       -0.118076466 0.014513036 -0.16641018 0.023723584
000220 03 5f db bc 60 7c 86 3c 4c d0 24 3d 04 31 88 bd
       -0.026778704 0.016416728 0.04023771 -0.06649974
000230 cc bb bb bc 13 91 3c bc f5 83 47 bd e1 a7 42 bd
       -0.022916697 -0.011509198 -0.04870983 -0.047523383
000240 99 47 bf 3d ab 3d 79 bd 07 45 c6 bd 56 f3 db bc
       0.09339828 -0.060849827 -0.09681135 -0.02684943
000250 7b a0 19 3d b7 fb 10 bc 4f 8c 9a bc ee fb 8c bd
       0.03750656 -0.008849076 -0.018865732 -0.06883989
000260 7e 1f 30 bd f3 67 5d be 84 f0 23 bd 3b 48 76 bd
       -0.042998783 -0.21621685 -0.040024295 -0.060127478
000270 20 56 9f bb 51 00 dd bd 85 89 dd bd 20 68 42 bd
       -0.004862562 -0.10791076 -0.108172454 -0.047462583
000280 c9 51 0f 3c f0 0a ce 3d b4 cc e1 3c 2b 1a 54 bd
       0.008747526 0.1006068 0.02756343 -0.05178277
000290 3c f2 a3 bd a9 99 48 bd 3c 1a 0f 3d 72 66 7b bd
       -0.08005187 -0.048974667 0.03493713 -0.061376996
0002a0 4f 0f 10 bd 9f 70 0e be 80 90 07 3e c6 28 ce bd
       -0.03517085 -0.13910149 0.13238716 -0.10066371
0002b0 60 bc cb bd 8c 6e 00 bb b9 48 d4 bd 09 6e 66 bd
       -0.09948039 -0.001959714 -0.10365433 -0.05625728
0002c0 c5 39 f6 bd ea 13 52 3d 06 77 c9 3e 3b b7 aa bd
       -0.120227374 0.051288523 0.3934862 -0.0833573
0002d0 70 3a 76 bd 82 33 d3 3c 93 7a f6 3b 2a 7d b9 bd
       -0.060114324 0.025781397 0.007521936 -0.09057076
0002e0 78 1d 7f 3e 73 33 29 be bd ac 1c bd 02 1d 3c bd
       0.24913585 -0.16523533 -0.038250674 -0.0459261
0002f0 2a 0f 86 bd c0 5c 84 3c 1a 9e e7 bd d1 b2 32 3e
       -0.06545861 0.016157508 -0.11309452 0.17451026
000300 34 2a c1 bc 16 85 68 3e 1b c3 73 bd a1 a4 91 bd
       -0.023579694 0.22707018 -0.05951224 -0.071114786
000310 4b ac 67 bd 4c 71 d1 bc 92 bd 02 3d f1 0f 23 bc
       -0.056560796 -0.02556672 0.03191907 -0.009952531
000320 1c 25 e7 3d 02 40 4a bd ee 4f 86 bd ea 64 a7 bd
       0.11286375 -0.04937745 -0.06558214 -0.08173545
000330 14 f1 45 bc 76 b7 87 bd 15 42 f2 bc 45 66 8b bc
       -0.012081403 -0.06626789 -0.029572526 -0.01701654
000340 dc c4 a4 3c 7a a3 38 bd 73 db 2b 3d 3a 52 67 bd
       0.020113401 -0.04507778 0.04195733 -0.0564749
000350 75 fa 07 be 5f 3d 81 3d 7f d5 1e bd b5 21 96 3d
       -0.13279136 0.06310534 -0.038777824 0.07330648
000360 99 32 95 bd 90 2c 40 bd 7c 7a df bc 0d c0 52 bd
       -0.07285041 -0.046917498 -0.027280085 -0.051452685
000370 58 ed 0d bd fc 8c 5d bd 06 23 04 be a6 b1 33 be
       -0.034650177 -0.05408953 -0.12903985 -0.17548236
000380 27 06 23 bd 44 0d dd 3d 90 b7 70 3d 07 1a 9f 3c
       -0.03980079 0.10793546 0.05876881 0.01942159
000390 d7 ae 35 bd e6 0b 41 bd 70 a4 68 bd ae f5 c6 bc
       -0.044356193 -0.047130488 -0.056797445 -0.024287071
0003a0 2c 63 a3 bd bc 33 0d bd 1f 6d 07 bd 9e 7e 08 bd
       -0.079779 -0.034473166 -0.03306305 -0.033323877
0003b0 a3 e9 e6 bc 0c f7 45 bd 16 b1 3d 3e 53 96 b8 3c
       -0.028187579 -0.048331305 0.18524584 0.022532618
0003c0 04 a1 44 bc 5e 78 c2 bc 9e 92 29 3c cd cf 5a be
       -0.01200128 -0.023739036 0.010349898 -0.21368332
0003d0 3e ef 52 bd e0 3b a4 bd 8a 33 f0 bc 7b c1 31 3b
       -0.05149769 -0.08019233 -0.02932145 0.002712338
0003e0 03 ac 8c bd 5e 94 de 3d 41 9f 84 3d 21 48 00 3d
       -0.06868746 0.108681425 0.06475688 0.031318787
0003f0 c9 83 45 bd ac 54 c9 bc a3 72 98 bd 14 13 c5 bc
       -0.048221383 -0.024576508 -0.0744374 -0.024056949

bias f4 [31]
000000 93 ca 38 be 1c c7 70 be 64 75 dd bd e4 ea e8 bd
       -0.18046026 -0.23513454 -0.10813406 -0.11372927
000010 71 e6 55 be 92 cc 77 be f7 4f 2b be 5b c8 3c be
       -0.20888688 -0.24199131 -0.16729723 -0.18435805
000020 88 4d 6e be 3f 01 d3 bd 82 cc 4f be 8b 6b e2 bd
       -0.23271763 -0.10302972 -0.20292857 -0.110556684
000030 53 ac ba bd 6d 80 18 be 44 19 72 be 77 c4 02 be
       -0.091148995 -0.1489274 -0.2364245 -0.12770258
000040 f6 39 1d be cb d9 0f be e9 83 33 be d5 85 bb bd
       -0.15354142 -0.14047925 -0.17530788 -0.09156386
000050 a9 8e ca bd 8b 38 ca bd 71 4f 0f be b2 e4 0b be
       -0.098904915 -0.09874066 -0.13995148 -0.13661459
000060 d8 27 03 be 99 ae 03 be 56 9f 21 be 76 3d 2c be
       -0.12808168 -0.12859572 -0.15783438 -0.1682032
000070 3e 8e 10 be 89 43 a1 bd 64 49 17 3e
       -0.14116761 -0.078742094 0.1477409
