models/TextCNN1/TextCNN1_model_50.pth (torch, 924990 bytes, 9 tensors)

weight f4 [1000, 100]
0	0x3b364903	0.0027814514
1	0xbf81e8f2	-1.0149214
2	0x3f7d1553	0.98860663
3	0x3e25330a	0.16132751
4	0xbd8045d0	-0.06263316
5	0xbefc3358	-0.49257922
6	0x3ea9a4d2	0.3313356
7	0xbe7bfe45	-0.24608715
8	0x3e856560	0.26053905
9	0x3d62ba62	0.05535353
10	0x3f42c6e6	0.76084745
11	0x3e2fb4ce	0.17158815
12	0xbd409dad	-0.04702537
13	0x3ebc14b7	0.36734554
14	0xbcf5fdb1	-0.030028196
15	0xbf26984b	-0.6507613
16	0xbf695d97	-0.9115843
17	0xbf26f5db	-0.65218896
18	0x3e73171b	0.23739283
19	0xbef5f344	-0.4803716
20	0xbf05c01a	-0.5224625
21	0xbb96abbc	-0.004598109
22	0x3d16969f	0.036764737
23	0x3e28a409	0.16468824
24	0x3f646b2d	0.8922604
25	0x3f2a526b	0.6653201
26	0xbe84fd2b	-0.25974402
27	0x3dc1f065	0.0946968
28	0x3ed5102e	0.41613907
29	0xbcee3265	-0.029076764
30	0xbdb36836	-0.08760111
31	0xbd311950	-0.04323703
32	0x3f77491c	0.9659593
33	0x3f909dd6	1.1298168
34	0x3e83c6fc	0.2573775
35	0xbeb27f32	-0.34862667
36	0xbaca3162	-0.0015426094
37	0xbecfdd39	-0.40598467
38	0x3eaeb491	0.34122136
39	0xbe716e0b	-0.23577134
40	0xbf6f1fb3	-0.93407744
41	0x3f26d0a9	0.6516214
42	0x3e6978af	0.22799943
43	0xbea46830	-0.3211074
44	0xbee5f084	-0.4491006
45	0x3e5a03ae	0.21290466
46	0xbf2c9aa8	-0.67423487
47	0x3de6d5d2	0.11271252
48	0xbf289632	-0.6585418
49	0x3f04a615	0.5181592
50	0x3ca190bf	0.01972234
51	0xbe660d24	-0.2246595
52	0x3d169a6c	0.036768362
53	0x3d8eb972	0.06968965
54	0x3ec297bb	0.38006386
55	0xbeb0b321	-0.34511665
56	0xbe368a83	-0.17826276
57	0xbdcdc2d2	-0.10046925
58	0xbf96149f	-1.1725043
59	0xbe1a8614	-0.15090209
60	0xbe1c9495	-0.15291055
61	0x3e20281c	0.156403
62	0x3f413cb9	0.7548328
63	0x3f6a871b	0.91612405
64	0x3e06194b	0.13095586
65	0xba5b9d3a	-0.00083776156
66	0xbf2e6b6e	-0.68132675
67	0x3d0167d9	0.031593177
68	0xbf3793c1	-0.7170983
69	0xbd4ab036	-0.049484454
70	0xbfa8529a	-1.3150208
71	0x3e3f16db	0.18661062
72	0xbf2d3773	-0.67662734
73	0xbde3ad79	-0.11117072
74	0xbf181bfb	-0.59417695
75	0x3e272e35	0.1632622
76	0x3eb7ca26	0.35896415
77	0xbe122c34	-0.14274675
78	0xbe622f5d	-0.2208838
79	0xbd8a9984	-0.06767562
80	0xbd4b9105	-0.04969885
81	0xbf3b1c36	-0.7308992
82	0xbe3e76a8	-0.18599951
83	0xbb3f37b7	-0.0029177496
84	0x3fb625e3	1.4230312
85	0xbefa52e6	-0.4889137
86	0x3f51be09	0.81930596
87	0x3f792672	0.9732429
88	0xbf46b2c7	-0.7761654
89	0xbfcda88f	-1.6067065
90	0x3e5f39f6	0.21799454
91	0x3ecf0621	0.40434363
92	0x3daf3f25	0.08556966
93	0x3d828470	0.06372917
94	0x3c42d9f9	0.011892789
95	0xbef5f737	-0.48040172
96	0xbe5e9324	-0.21735817
97	0x3f0aa614	0.54159665
98	0x3e5eb028	0.21746886
99	0xbf0f7a1a	-0.5604569
100	0xbee084cf	-0.43851325
101	0x3e5f61b4	0.21814615
102	0xbeb6469e	-0.35600752
103	0x3e88245a	0.26590234
104	0x3c7abe5f	0.015304177
105	0x3ce711e4	0.028206773
106	0x3f134112	0.57521164
107	0x3e7731e7	0.2414013
108	0x3ece06dd	0.4023961
109	0x3f406253	0.7515003
110	0xbf31799d	-0.6932619
111	0xbd6769d7	-0.05649742
112	0xbf1e00a7	-0.61719745
113	0xbec7dcfc	-0.39035785
114	0xbeb05566	-0.34440154
115	0x3ec72669	0.38896492
116	0xbeb0bc31	-0.3451858
117	0xbc9ce7e2	-0.01915354
118	0x3ef3c915	0.4761435
119	0xbd408a86	-0.047007106
120	0x3f00026d	0.500037
121	0x3dd2c39b	0.10291215
122	0x3d56e607	0.052465465
123	0xbeec46d0	-0.46147776
124	0xbf02b7f6	-0.5106195
125	0x3e53e62d	0.20693274
126	0x3f97d5f2	1.1862166
127	0xbe560ebe	-0.20904061
128	0xbe818a76	-0.2530095
129	0x3e52dded	0.2059247
130	0xbe30bf0e	-0.17260382
131	0x3f500d3e	0.81270206
132	0xbe927b1e	-0.28609556
133	0x3f4bba17	0.79580826
134	0xbf131eda	-0.5746895
135	0x3e1bcccc	0.15214843
136	0xbd003e49	-0.0313094
137	0xbea3cf3b	-0.31994042
138	0x3f0607d3	0.5235569
139	0xbf342b14	-0.7037823
140	0x3e2efd0f	0.17088722
141	0x3f19f961	0.60146147
142	0x3e29dd70	0.16588378
143	0x3ebb5fe4	0.36596596
144	0x3ed14069	0.40869454
145	0x3f106534	0.56404424
146	0x3c099c53	0.008399087
147	0x3fbb4702	1.4631045
148	0x3ee91435	0.4552323
149	0xbf1c5157	-0.61061615
150	0xbf84c364	-1.0372128
151	0x3ee612e3	0.44936284
152	0x3de7f90d	0.113267995
153	0x3e74c90e	0.23904821
154	0x3f52bcea	0.8231951
155	0xbf6c9044	-0.9240763
156	0x3ed2b3bc	0.4115275
157	0xbecf88b0	-0.40533972
158	0xbed891af	-0.42298648
159	0x3ec9a280	0.3938179
160	0x3ee2b8d8	0.4428165
161	0x3eac0d33	0.3360382
162	0x3daa2641	0.083080776
163	0x3f2f1344	0.6838877
164	0xbd8168dd	-0.06318829
165	0xbc101a82	-0.008795382
166	0xbee64022	-0.44970804
167	0xbeaf2a6f	-0.34212062
168	0x3e95b3b6	0.2923867
169	0xbe54c1fe	-0.20777127
170	0x3ea36713	0.31914577
171	0xbf0b13cb	-0.54327077
172	0x3f9eeff6	1.241698
173	0xbf51b720	-0.8192005
174	0x3f0842dd	0.53227025
175	0xbf4ad6aa	-0.792338
176	0xbc4c3299	-0.012463235
177	0xbe0d97f1	-0.13827492
178	0xbf90acf3	-1.130278
179	0xbf30cb07	-0.69059795
180	0xbf692860	-0.9107723
181	0x3e3020f6	0.17200074
182	0x3eb274bb	0.34854683
183	0xbefa94b5	-0.4894158
184	0xbf13af08	-0.5768895
185	0x3ebceffc	0.36901844
186	0x3db16d78	0.08663458
187	0xbf991a17	-1.1961087
188	0x3ea83fe7	0.32861254
189	0xbc937276	-0.017998915
190	0x3f0a2d70	0.5397558
191	0xbd5304d5	-0.05151828
192	0xbe904df5	-0.28184476
193	0x3e8e73b0	0.27822638
194	0xbeb7e945	-0.35920158
195	0x3e855baa	0.26046497
196	0xbe92e70e	-0.28691906
197	0xbdda98a3	-0.106736444
198	0x3dd4e2d5	0.10394827
199	0xbf5b8d69	-0.8576265
200	0xbe875480	-0.26431656
201	0x3e983585	0.29728332
202	0x3ea7d850	0.3278222
203	0x3d009224	0.03138937
204	0x3e741343	0.23835473
205	0xbdf62ae2	-0.12019898
206	0x3d774666	0.06036987
207	0x3c5b33a8	0.013379015
208	0x3ee47711	0.4462209
209	0x3e947b33	0.29000244
210	0x3d8c8f8b	0.06863316
211	0xbeace051	-0.3376489
212	0xbdcff5a7	-0.10154276
213	0x3eb649bc	0.3560313
214	0xbe88801c	-0.2666024
215	0xbed5cd12	-0.4175802
216	0x3e09ba64	0.13450009
217	0xbeafa65c	-0.3430661
218	0x3e5be389	0.21473517
219	0xbdd1debf	-0.102475636
220	0xbdef9b70	-0.11699569
221	0xbe1661c7	-0.14685737
222	0x3e0a56a2	0.1350961
223	0x3db697d7	0.0891568
224	0x3c3c40ea	0.011490086
225	0x3d11705c	0.035507545
226	0x3e514c60	0.20439291
227	0xbe025858	-0.12729013
228	0x3de94f1e	0.113920435
229	0x3e29f61b	0.16597788
230	0x3de8ab20	0.113607645
231	0xbe28d79a	-0.16488495
232	0x3e2bc772	0.16775301
233	0x3df0ed21	0.11763979
234	0x3d3cdea8	0.04611078
235	0xbf21a8b8	-0.6314807
236	0x3e435c40	0.1907816
237	0x3dde67a7	0.10859614
238	0x3e586e01	0.21135713
239	0x3e1676d7	0.14693771
240	0x3dd22060	0.10260081
241	0x3de447bb	0.11146494
242	0xbe5aa90f	-0.21353553
243	0x3ebbc44d	0.36673203
244	0x3e07bcc8	0.13255608
245	0xbce4515f	-0.027870832
246	0x3e640a67	0.22269593
247	0x3eab6692	0.33476692
248	0x3dd9db37	0.10637515
249	0x3dc09aaa	0.094045
250	0xbeacdd14	-0.3376242
251	0xbdff185f	-0.1245582
252	0x3e900ac3	0.2813321
253	0x3e2e9cdf	0.17052029
254	0xbe2553c8	-0.16145241
255	0xbd8f203f	-0.06988572

weight f4 [100, 1, 3, 100]
0	0xbd3486b8	-0.04407379
1	0x3d39fb90	0.045405924
2	0x3d7b2b4b	0.061320584
3	0xbd8dfd14	-0.069330364
4	0x3a7e1099	0.00096918043
5	0xbdb75fe6	-0.08953838
6	0xbc3fcf65	-0.011707162
7	0x3d4af4df	0.049549934
8	0x3c938c39	0.0180112
9	0xbdf45697	-0.11930578
10	0xbba4196d	-0.005007914
11	0xbd8896ad	-0.06669364
12	0x3d2558c0	0.04036784
13	0x3dbf7154	0.093477875
14	0x3bb8c376	0.005638535
15	0xbc8c1beb	-0.017103156
16	0xbcc8c32b	-0.024507126
17	0x3d25682e	0.040382557
18	0x3b929c1c	0.004474176
19	0xbd1a498f	-0.037667807
20	0x3d440d21	0.047864083
21	0x3db1ca06	0.08681111
22	0xbe0b97f5	-0.13632186
23	0x3cf50a6a	0.029912192
24	0x3cc39862	0.023876373
25	0x3dec8f92	0.11550821
26	0xbbec865e	-0.0072181663
27	0xbdd084e8	-0.101816
28	0x3b946e3f	0.004529744
29	0xbe04a135	-0.1295212
30	0xbdac5cbc	-0.08416125
31	0xbe064487	-0.13112079
32	0xbc83c88e	-0.016086843
33	0xbd0a2762	-0.033728965
34	0x3cb58299	0.022157
35	0xbd931394	-0.071814686
36	0xbc8ab072	-0.016929839
37	0xbd57c554	-0.05267842
38	0x3b8207b1	0.003968202
39	0xbd253b09	-0.040339503
40	0xbd04afb0	-0.03239411
41	0x3c81551b	0.015787652
42	0xbd9c3930	-0.07628095
43	0xbcaea827	-0.021320416
44	0xbd55c333	-0.05218811
45	0xbcfdb547	-0.030970229
46	0xbd0229c1	-0.0317781
47	0xbc98eb4d	-0.018666888
48	0x3d290de4	0.041273013
49	0x3d7ae3c8	0.061252385
50	0x3d24959e	0.04018175
51	0x3c119f25	0.008888041
52	0x3d0c3bd5	0.034236748
53	0xbc70dabc	-0.014700588
54	0x3ca92c3e	0.02065098
55	0xbd2fdaea	-0.042933382
56	0xbc8da53a	-0.0172907
57	0xbe38c0b8	-0.18042266
58	0x3db1e993	0.08687129
59	0x3dcd44a7	0.1002286
60	0xbddffa2c	-0.109363884
61	0x3cd8c933	0.026463127
62	0xbd9e9993	-0.07744136
63	0xbc047d74	-0.008086551
64	0x3e0d1d99	0.13780822
65	0xbcd59fb8	-0.026077136
66	0x3d95fde7	0.07323819
67	0x3d95761a	0.07297917
68	0xbd23f0f0	-0.040024698
69	0xbde0f32e	-0.10983883
70	0x3c9b2405	0.018938074
71	0xbda2d2b8	-0.07950348
72	0x3daf42bd	0.08557651
73	0x3d97461d	0.0738642
74	0x3d051e0d	0.03249936
75	0x3d29e735	0.04148026
76	0x3c0b009d	0.008484033
77	0xbe15629f	-0.14588402
78	0xbdc4b9dc	-0.09605762
79	0xbd8f2174	-0.069888026
80	0x3dffe526	0.124948785
81	0xbd876f11	-0.06612981
82	0x3ad6c691	0.0016386082
83	0xbe090468	-0.13380587
84	0xbbe4b4e7	-0.006979573
85	0x3cbc050c	0.022951625
86	0x3da8d6b8	0.08244079
87	0x3cae2ab6	0.0212606
88	0x3db654ac	0.08902869
89	0x3cf15219	0.029458093
90	0x3dbaa32d	0.091131546
91	0xbd5603fa	-0.052249886
92	0xbe04ac83	-0.12956433
93	0xbb281011	-0.0025644342
94	0x3d0822b7	0.03323623
95	0xbcd93b69	-0.026517587
96	0x3d1ccb58	0.03827986
97	0x3d8db337	0.06918948
98	0xbcacceeb	-0.02109476
99	0x3c120345	0.008911912
100	0x3d19eb83	0.037578117
101	0x3a8d8c31	0.0010799227
102	0x3c9099f3	0.017651534
103	0xbba7ee30	-0.0051248297
104	0xbdf177ac	-0.11790404
105	0x3c98e4e3	0.01866383
106	0xba48406b	-0.00076389936
107	0xbd128c50	-0.035778344
108	0xbd6dc2fd	-0.058047283
109	0xbd8b7d41	-0.06811
110	0xbcb77845	-0.022396216
111	0xbd9119a9	-0.070849724
112	0xbc1e94a2	-0.0096789915
113	0xbc8b5816	-0.017009776
114	0x3d947529	0.07248909
115	0xbc620551	-0.013795213
116	0xbd2decb8	-0.04246208
117	0xbd6a7fd1	-0.0572508
118	0x3dedf20c	0.116184324
119	0xbc06176f	-0.008184298
120	0xbda19672	-0.07890023
121	0x3d82f2bc	0.06393954
122	0xbd896ee8	-0.06710607
123	0xbd1d70ef	-0.03843778
124	0xbc383e11	-0.011245267
125	0x3d01e45f	0.031711932
126	0xbd8278c7	-0.06370693
127	0xbdbb912d	-0.091585495
128	0x3dbede1c	0.09319708
129	0xbd968fcb	-0.07351645
130	0xbdff9895	-0.124802746
131	0xbd2cc3a8	-0.04217878
132	0xbd4bfcc7	-0.049801614
133	0x3baf19b5	0.0053436407
134	0x3da3e9cb	0.08003577
135	0xbda6bc83	-0.081414245
136	0xbdb79fc1	-0.089660175
137	0xbbafa0bc	-0.005359737
138	0x3c5e83fa	0.01358127
139	0x3d6ee673	0.058325242
140	0xbce85cd7	-0.028364582
141	0xbbf927bb	-0.007603613
142	0x3c09bfc9	0.008407542
143	0xbd6a1608	-0.057149917
144	0xbc73dc87	-0.014884121
145	0xbd635999	-0.05550537
146	0xbd554607	-0.052068736
147	0x3d3b9648	0.045797616
148	0xbd0e3520	-0.034718633
149	0x3dccc280	0.099980354
150	0x3c9f6bff	0.019460676
151	0x3d539b4b	0.05166177
152	0x3d3ed517	0.046589937
153	0x3d1e8a56	0.038706146
154	0x3c181901	0.009283305
155	0x3d2f8ad9	0.042857025
156	0xbd05fe10	-0.032712996
157	0xbcbe1a61	-0.023205938
158	0x3cc2898c	0.023747228
159	0x3e125ba5	0.14292772
160	0x3bf51a9a	0.007479978
161	0x3d349060	0.044083
162	0xbd11ba42	-0.03557802
163	0xbd17a0d6	-0.03701862
164	0x3dc17145	0.094454326
165	0xbbe09abf	-0.0068543847
166	0x3cbc44bd	0.022981996
167	0x3e221d17	0.1583141
168	0x3db44613	0.08802428
169	0xbde2a8c9	-0.110673495
170	0xbccff0c5	-0.025383363
171	0xbe229274	-0.1587618
172	0x3d5e9d18	0.054349035
173	0x3deb3f75	0.11486713
174	0x3cdb51df	0.026772438
175	0x3cb7a4c0	0.022417426
176	0x3d544aed	0.051829267
177	0xbda254f9	-0.079263635
178	0xbd25d0ad	-0.04048221
179	0x3d63d849	0.055626187
180	0x3daa2322	0.08307482
181	0xbd91aa80	-0.071125984
182	0x3d68feb4	0.05688353
183	0xbd5339d3	-0.051568817
184	0x3da1babc	0.07896945
185	0x3c220668	0.009889223
186	0x3c6b1719	0.014348769
187	0xbd1f9b77	-0.038966622
188	0xbb2b3b05	-0.0026127708
189	0xbac548df	-0.0015051625
190	0xbd256e25	-0.040388245
191	0xbd9d124e	-0.07669507
192	0x3da1122a	0.07864793
193	0x3d3ed1ba	0.04658673
194	0x3cf534e9	0.029932456
195	0xbc79bb97	-0.015242479
196	0xbc5341cd	-0.012894106
197	0xbbc2f514	-0.0059496257
198	0x3cb4e249	0.022080557
199	0xbcc44b5f	-0.023961721
200	0x3d2ad7e7	0.041709807
201	0x3d05c99f	0.032662984
202	0x3dcc5a12	0.09978117
203	0x3ce7e20c	0.02830603
204	0xbe1a8cca	-0.1509277
205	0xbdbced99	-0.09225006
206	0xbd3dd1b7	-0.046342578
207	0x3d608d10	0.054822028
208	0xbd8448f1	-0.06459225
209	0xbe4813b9	-0.19538774
210	0x3d6b6e80	0.057478428
211	0xbdc399ab	-0.09550794
212	0xbd4d2388	-0.050082713
213	0x3ce32038	0.027725324
214	0x3cf74fc1	0.030189397
215	0x3e201d2e	0.15636131
216	0x3d1827d6	0.037147366
217	0x3d7d7ef3	0.061888646
218	0xbd167125	-0.036728997
219	0xbcac54a5	-0.021036455
220	0xbced2ab2	-0.028951023
221	0x3d7cc24a	0.061708726
222	0xbdb4c8b7	-0.08827346
223	0x3b64d01f	0.003491409
224	0x3d1181c1	0.035524134
225	0xbe3a3332	-0.18183592
226	0x3c36f2f4	0.011166323
227	0x3db6746c	0.089089245
228	0xbdd0a75b	-0.101881705
229	0x3d864884	0.065568
230	0xbcf9bf5c	-0.030486755
231	0xbdd658dc	-0.10466167
232	0xbddc5cb2	-0.10759868
233	0xbe010913	-0.12601118
234	0xbd523e36	-0.05132886
235	0xbd435b55	-0.047694523
236	0x3c5b39fe	0.013380526
237	0x3db45bcc	0.08806571
238	0xbcdde834	-0.027088262
239	0xbd6d05c6	-0.057866834
240	0x3bcedcfb	0.006312964
241	0xbdc4b47d	-0.09604738
242	0xbc1f07f0	-0.009706482
243	0xbdada331	-0.08478392
244	0x3d259da5	0.040433545
245	0xbe00c48c	-0.12574977
246	0xbcaeabd5	-0.02132217
247	0xbda74355	-0.081671394
248	0xbd50612a	-0.050873913
249	0x3e1287ee	0.14309666
250	0x3d741f46	0.059600137
251	0xbc96de91	-0.018416675
252	0x39626851	0.000215919
253	0x3d02a770	0.031897962
254	0xbdbf0e21	-0.09328867
255	0x3db8e476	0.090279505

bias f4 [100]
0	0xbdc2f025	-0.0951846
1	0xbdee68c9	-0.1164108
2	0x3d40168a	0.046896495
3	0xbe3cc4f1	-0.18434502
4	0xbd82bb25	-0.06383351
5	0xbe4c29d0	-0.19937825
6	0x3ca3b29c	0.019982629
7	0x3c5c1bb7	0.013434342
8	0xbe119ee7	-0.14220773
9	0x3d0e1dda	0.034696437
10	0x3d46f835	0.048576552
11	0x3c734458	0.014847837
12	0x3cdc3e08	0.026885048
13	0xbe57b6a9	-0.21065773
14	0xbd43b031	-0.04777545
15	0x3c89b6df	0.016810833
16	0xbdd96a86	-0.10616021
17	0xbc877f4d	-0.016540194
18	0x3d9632d3	0.07333913
19	0x3c9a2cb5	0.018820146
20	0xbd11a0a0	-0.035553575
21	0x383139aa	4.2253792e-05
22	0xbd2d85fb	-0.0423641
23	0xbd189f5d	-0.037261356
24	0xbe3901c7	-0.18067084
25	0xbdc7e516	-0.097604915
26	0xbdc3c339	-0.0955872
27	0x3c82d738	0.015971765
28	0xbe3d4931	-0.18484952
29	0xbe04b6f3	-0.12960415
30	0xbd61bec3	-0.055113565
31	0xbd9c75a1	-0.076396234
32	0xbdc52b64	-0.09627417
33	0x3d4fae86	0.050703548
34	0xbe069975	-0.13144477
35	0xbc20ade0	-0.00980708
36	0xbc0f1807	-0.008733756
37	0x3d13f0f8	0.036118478
38	0x3b2e1d1b	0.0026567641
39	0x3bfa8a25	0.0076458626
40	0xbe48d4ae	-0.19612381
41	0x3ce88a4c	0.028386258
42	0xbe520ead	-0.20513411
43	0xbcdce7fa	-0.026966084
44	0xbcc4518c	-0.023964666
45	0xbd23ad70	-0.039960325
46	0xbd788573	-0.060674142
47	0xbc57595a	-0.013143862
48	0x3c97b2d6	0.018517893
49	0xbdd77a7d	-0.1052141
50	0xbe022439	-0.1270913
51	0xbdb75f4c	-0.08953723
52	0xbd10e9b2	-0.03537912
53	0xbda83532	-0.08213271
54	0x3ba07eab	0.0048979125
55	0xbe420895	-0.18948586
56	0x3ca14deb	0.019690474
57	0xbdff5fb2	-0.12469424
58	0xbda4382c	-0.080185264
59	0x3d1a99e4	0.037744418
60	0x3cc1ff5a	0.023681331
61	0xbd547234	-0.051866725
62	0xbe01c32c	-0.12672108
63	0x3d29bed5	0.041441757
64	0xbdf64448	-0.12024742
65	0x3bd82c68	0.0065970905
66	0x3d81382e	0.063095436
67	0xbe0bf131	-0.13666226
68	0xbe220ed0	-0.15825963
69	0x3d28efd6	0.04124435
70	0xbd970153	-0.073732994
71	0xbe026cad	-0.12736769
72	0x3a80eca0	0.0009836145
73	0xbcf13ea1	-0.02944881
74	0xbd6eda2a	-0.058313526
75	0xbcfe2320	-0.031022608
76	0x3b30bf71	0.0026969577
77	0xbe5ed5d2	-0.21761253
78	0x3d6e58d6	0.05819019
79	0xbe27d34c	-0.16389197
80	0xbbf04afd	-0.007333158
81	0xbc3ade2c	-0.011405509
82	0xbd9fc618	-0.07801455
83	0x3d0ee3fb	0.034885388
84	0xbe0063fe	-0.12538144
85	0xbd2f06da	-0.042731144
86	0x3d85c8d3	0.06532445
87	0xbe284575	-0.16432746
88	0x3c967323	0.018365448
89	0xbde08fb4	-0.10964909
90	0xbe2756ae	-0.1634166
91	0xbc9e9a1c	-0.019360594
92	0xbe30764c	-0.17232627
93	0xbc507ed1	-0.012725548
94	0xbe6a86db	-0.22903006
95	0x3d27ec7f	0.040997025
96	0xbc237e34	-0.00997882
97	0xbd152eff	-0.036421772
98	0xbdad1a0b	-0.08452233
99	0xbccbf11e	-0.024895247

weight f4 [100, 1, 4, 100]
0	0x3d4d00e0	0.050049663
1	0x3906f240	0.00012869481
2	0x3c17cc45	0.00926501
3	0x3b4fab4a	0.003168779
4	0xbd6ba479	-0.0575299
5	0xbc9f62c0	-0.019456267
6	0xbd0611a7	-0.03273168
7	0xbc8db99c	-0.01730042
8	0xbd6f23ef	-0.05838388
9	0xba4d2f5f	-0.0007827188
10	0xbd26b541	-0.0407002
11	0xbd1b7c07	-0.03796008
12	0x3d97ee26	0.0741847
13	0xbd454454	-0.048160866
14	0xbc723ddf	-0.014785259
15	0x3bfa36d7	0.007635932
16	0x3cf11ddc	0.029433183
17	0xbd38a4d6	-0.045079075
18	0xbd01131e	-0.031512372
19	0x3d6a3a4f	0.057184514
20	0xbb85ad9f	-0.004079535
21	0x3d1bbcd5	0.03802188
22	0x3ba8c6fe	0.005150675
23	0x3deaf272	0.11472024
24	0x3ccf6c2c	0.025320135
25	0xbcc0827a	-0.023499716
26	0xbd313493	-0.04326303
27	0x3cbf3d4e	0.023344662
28	0x3d80587e	0.062668785
29	0x3ce0fce5	0.02746434
30	0x3da92e9f	0.082608454
31	0x3cacc777	0.021091206
32	0x38b9d29a	8.860715e-05
33	0xbd137e63	-0.036009204
34	0x3bd462e1	0.006481514
35	0x3d476a76	0.048685513
36	0xbbaa7d2f	-0.0052029113
37	0xbbaa3f75	-0.005195553
38	0x3cec8e08	0.02887632
39	0x3dbe9ff9	0.09307856
40	0xbd72ddd4	-0.059293583
41	0xbd007efc	-0.0313711
42	0xbd9925cd	-0.07477913
43	0x3ca34353	0.019929564
44	0x3c44d2e2	0.012013169
45	0xbb14f415	-0.0022728492
46	0xbc530b43	-0.012881103
47	0xbdaea05d	-0.085266806
48	0xbcadf3ab	-0.021234354
49	0x3cc9899a	0.024601746
50	0x3cc57a93	0.0241063
51	0xbc37d796	-0.011220833
52	0xbb84d4c8	-0.004053686
53	0xbcb83e87	-0.022490753
54	0xbb353944	-0.0027652541
55	0xbd12225d	-0.035677303
56	0xbd795181	-0.060868744
57	0xbd0ff11b	-0.035142045
58	0xbbe41e54	-0.006961623
59	0xbd1d0ad1	-0.038340393
60	0x3cd0e455	0.025499502
61	0xbdbec5c2	-0.09315063
62	0xbca13e5c	-0.019683056
63	0x3d0d747e	0.034534924
64	0xbd2ffee6	-0.0429677
65	0x3ca52c81	0.020162823
66	0xbd201c1e	-0.039089315
67	0xbda5ee96	-0.08102147
68	0xbd5e1d72	-0.0542273
69	0x3ca309fe	0.019902226
70	0x3d4cb698	0.049978822
71	0x3dab75ba	0.08372064
72	0x3c75961d	0.014989403
73	0xbc960296	-0.01831178
74	0xbcd5fc85	-0.026121387
75	0xbc6889b3	-0.014192986
76	0xbcc09c9b	-0.023512175
77	0x3d952d46	0.07284026
78	0xbb1de7b9	-0.0024094416
79	0x3d880c5d	0.06642983
80	0x3ce07c62	0.02740306
81	0x3c09794e	0.008390738
82	0xbc5684fa	-0.0130932275
83	0x3da6859d	0.081309535
84	0xbc0a2e7a	-0.008433932
85	0xbc8dab0f	-0.017293481
86	0xbd93c38f	-0.07215034
87	0x3d37aa8e	0.044840388
88	0x3c4e1ed0	0.012580588
89	0x3b66c291	0.0035211185
90	0xbc7a52cf	-0.015278532
91	0x3cce94dd	0.025217468
92	0x3d858644	0.0651975
93	0x3d9c5870	0.076340556
94	0x3ca3c202	0.019989971
95	0xbd3ac580	-0.045598507
96	0xbb42cb9f	-0.0029723418
97	0xbc8e4546	-0.017367017
98	0xbd81cc92	-0.06337847
99	0xbd0851c6	-0.03328111
100	0xbd216244	-0.039400354
101	0xbc38b24a	-0.011272976
102	0x3cc5adc8	0.024130717
103	0x3e1e7363	0.15473704
104	0x3dad3156	0.08456676
105	0xbd65a90a	-0.05606941
106	0xbd4929a2	-0.04911197
107	0xbd3484db	-0.044072013
108	0xbc0dd23c	-0.008656081
109	0xbbe7f038	-0.007078197
110	0x3cbdf4f6	0.023188096
111	0xbd32e75e	-0.04367768
112	0xbd9918db	-0.07475444
113	0x3cb9fc39	0.022703277
114	0x3bb0021f	0.0053713466
115	0x3d7844c3	0.06061245
116	0xbd043fee	-0.03228753
117	0xbc80621c	-0.015671782
118	0x3dae9149	0.08523805
119	0xbcb00c4e	-0.021490242
120	0xbd755cbb	-0.059902888
121	0x3d0a4bb6	0.03376361
122	0xbc3bc801	-0.011461259
123	0x3db19438	0.086708486
124	0x3d1766a8	0.036963135
125	0xbb527f5b	-0.0032119367
126	0xbd9e3e74	-0.07726756
127	0x3deff755	0.11717097
128	0x38161592	3.5782876e-05
129	0x3bf1451f	0.007362976
130	0x3dabe5ad	0.083934166
131	0x3d1d0187	0.038331535
132	0x3cd8f6ad	0.026484812
133	0xbc99893a	-0.018742193
134	0x3dbe686c	0.09297261
135	0x3d8af071	0.06784142
136	0x3da23f71	0.07922257
137	0xbacc16f2	-0.0015570803
138	0xbd8d68f2	-0.06904782
139	0xbd83568e	-0.06412993
140	0x3d4b89da	0.049692012
141	0xbcea3807	-0.028591169
142	0x3d1b3a3a	0.037897326
143	0xbd4a5f57	-0.04940733
144	0xbc186ebc	-0.009303745
145	0xbbe859e1	-0.0070907925
146	0xbd490079	-0.049072716
147	0x3c273bd1	0.010207132
148	0xbc167fca	-0.009185741
149	0x3bb2a51d	0.005451812
150	0x3c0d1ccc	0.008612823
151	0x3c28cace	0.010302259
152	0x3d86a296	0.065739796
153	0xbe369368	-0.17829669
154	0xbbf94384	-0.0076069254
155	0x3dc8e1d6	0.098087
156	0xbc1f2fb6	-0.009715965
157	0x3c33661f	0.010949641
158	0x3c2e0054	0.010620195
159	0xbd92f666	-0.07175903
160	0xbc2933a6	-0.010327255
161	0xbdd44ee8	-0.10366613
162	0xb9e868b4	-0.00044328498
163	0xbd78f56a	-0.06078092
164	0xbc21f78a	-0.009885678
165	0xbcf3777a	-0.029720057
166	0x3c8c952e	0.017160978
167	0xbdf27c88	-0.11840159
168	0xbd625dd5	-0.055265266
169	0x3d8966fe	0.06709097
170	0xbd2c4a43	-0.04206301
171	0xbd81eb76	-0.06343739
172	0x3d30fb0c	0.043208167
173	0x3dc9d2bf	0.0985465
174	0xbc3771b6	-0.011196544
175	0xbcb8ddb9	-0.022566663
176	0xbd0f8ab3	-0.035044383
177	0xbc68b42b	-0.014203112
178	0x3d767c29	0.060177002
179	0x3c88940b	0.016672155
180	0xbbb8e9a7	-0.005643088
181	0x3d937e77	0.07201856
182	0x3ad3d8b5	0.0016162606
183	0x3d935e43	0.07195713
184	0x3d012590	0.031529963
185	0xbcab555a	-0.020914722
186	0x3bfb6af6	0.007672663
187	0xbb143ab0	-0.0022617988
188	0xbcf84ec8	-0.030311003
189	0xbc3d8524	-0.011567388
190	0x3c2d57fd	0.01058006
191	0x3c90372b	0.017604431
192	0xbd94bb6c	-0.072623104
193	0xbdf12344	-0.117743045
194	0x3dc226c0	0.09480047
195	0xbd09dae6	-0.033656023
196	0xbd4368ba	-0.047707297
197	0x3bc163c6	0.0059017865
198	0x3db38e6e	0.08767401
199	0xbd454ffe	-0.04817199
200	0xbd87a0cb	-0.06622466
201	0x3c9d8013	0.01922611
202	0x3db867e3	0.0900419
203	0x3d236317	0.03988942
204	0x3d598b2d	0.053111244
205	0xbbe5f63e	-0.0070178797
206	0xbdc8a23c	-0.09796569
207	0x3d1f0eb6	0.03883239
208	0x3cb459c9	0.02201547
209	0xbd19cd91	-0.03754956
210	0x3d18a2c1	0.03726459
211	0xbdd1c802	-0.102432266
212	0x3d92019a	0.07129212
213	0x3dcc5ce5	0.09978656
214	0xbc7dd249	-0.01549203
215	0xbc878354	-0.016542114
216	0xbccfe2e0	-0.025376737
217	0xbc7f27ec	-0.015573483
218	0xbd647672	-0.05577702
219	0xbdab7f16	-0.08373849
220	0xbc693156	-0.014232954
221	0xba30aa95	-0.0006739286
222	0x3b820b96	0.0039686663
223	0x3cb61d16	0.022230666
224	0x3be9d924	0.007136481
225	0xbcafe9d7	-0.021473808
226	0xbd1dae0d	-0.038496066
227	0xbd116e91	-0.035505835
228	0x3cff8521	0.03119141
229	0x3cfbe8c2	0.030750636
230	0xbc6c5a1a	-0.014425779
231	0xbc825cb4	-0.015913345
232	0x3c361f51	0.011115865
233	0xbce16c51	-0.02751747
234	0x3c35b1a5	0.011089717
235	0xbd639323	-0.055560242
236	0x3b95c8b1	0.0045710434
237	0x3b5dcf1e	0.0033845375
238	0xbd78ccd4	-0.060742214
239	0x3dba2679	0.09089369
240	0xbd2088f4	-0.03919311
241	0xbcc933fd	-0.024560923
242	0xbdb4f353	-0.08835473
243	0x3d91b81b	0.071151935
244	0x3b6a912f	0.0035792103
245	0xbd52c612	-0.051458426
246	0xbc8ed409	-0.01743509
247	0x3a5a50d8	0.00083280867
248	0xbc64ea21	-0.013971836
249	0x3bff4ef0	0.0077913925
250	0xbcc015d1	-0.023447903
251	0xbd08cbd3	-0.033397507
252	0xba47283f	-0.00075972447
253	0xbc077eb1	-0.008269952
254	0xbd310773	-0.043219995
255	0x3d8c4df4	0.06850806

bias f4 [100]
0	0xbc191006	-0.009342199
1	0xbe0509fc	-0.1299209
2	0xbde68e3a	-0.11257596
3	0xbe3aabff	-0.18229674
4	0xbcc02efa	-0.0234599
5	0xbdbe73a9	-0.09299404
6	0xbd81648d	-0.06318007
7	0xbd170e56	-0.036878906
8	0xbe1f84c4	-0.1557799
9	0xbd6ca7f3	-0.057777356
10	0xbd36aca8	-0.04459825
11	0xbda1b5d0	-0.07896006
12	0xbd9d7e8f	-0.07690155
13	0xbe4b46bb	-0.198512
14	0xbe27202f	-0.16320871
15	0xbd9761d2	-0.073917046
16	0xbe27e0dd	-0.16394372
17	0xbe25176f	-0.1612222
18	0xbddffaf1	-0.10936535
19	0xbce647a8	-0.02811034
20	0xbe3d3b28	-0.18479598
21	0xbe15d9d3	-0.14633875
22	0xbdfcf265	-0.123509206
23	0xbd2f7c91	-0.042843405
24	0xbd58ac2c	-0.05289857
25	0xbe07021a	-0.13184395
26	0xbdaf4209	-0.08557517
27	0xbe020fa2	-0.12701276
28	0xbda8bfa7	-0.0823968
29	0xbdff2b45	-0.12459425
30	0xbcca55cb	-0.024699112
31	0xbcb1925d	-0.021676237
32	0xbd0f9a79	-0.035059426
33	0x3cf3fd00	0.029783726
34	0xbe26fcc7	-0.16307364
35	0xbdab8031	-0.0837406
36	0xbdaa8200	-0.08325577
37	0xbd2f58d4	-0.042809322
38	0xbe051043	-0.12994485
39	0xbd901273	-0.07034769
40	0x3d135aef	0.035975393
41	0xbcd80661	-0.02637023
42	0xbe0e3368	-0.13886797
43	0xbccd4c0d	-0.025060678
44	0xbcfafcc2	-0.030638102
45	0xbd768357	-0.06018385
46	0xbdfe4f55	-0.12417475
47	0xbd7b5444	-0.06135966
48	0xbe0c5e05	-0.1370774
49	0xbe519a55	-0.20469029
50	0xbd1c42c3	-0.038149606
51	0x3c903605	0.017603884
52	0xbcbd738a	-0.023126382
53	0xbd14b960	-0.0363096
54	0xbd01d084	-0.031692997
55	0xbd785d83	-0.060636055
56	0xbc8f6546	-0.017504346
57	0xbe346a65	-0.17618711
58	0xbc1226fe	-0.008920429
59	0x3d090dda	0.033460476
60	0xbe1d073b	-0.1533479
61	0xbe289826	-0.1646429
62	0xbdd2a97a	-0.10286231
63	0xbd9e6275	-0.07733623
64	0xbc108d02	-0.008822681
65	0xbdfc8c57	-0.12331455
66	0xbda7b158	-0.081881225
67	0xbdb2d6a1	-0.087323435
68	0xbcd376af	-0.025813429
69	0x3d2f9349	0.04286507
70	0xbe1a8449	-0.15089525
71	0x3c8339cd	0.016018772
72	0xbd8c041e	-0.06836723
73	0xbde7205c	-0.11285469
74	0x3d7ce79c	0.061744317
75	0xbd81813f	-0.0632348
76	0xbca18762	-0.019717876
77	0xbe2e88b3	-0.17044334
78	0xbe587736	-0.21139225
79	0xbd39c1a6	-0.045350693
80	0xbd458e40	-0.048231363
81	0xbdcfd613	-0.10148253
82	0xbca3dc37	-0.020002468
83	0xbd5747fc	-0.052558884
84	0xbe2b73e2	-0.16743425
85	0x3cd2bcf5	0.025724867
86	0xbd651966	-0.055932425
87	0xbdaf53a3	-0.08560874
88	0xbc285611	-0.010274426
89	0xbe0a86b7	-0.13527952
90	0xbdd47aa0	-0.10374951
91	0xbdf9c46b	-0.12195667
92	0xbe0ac113	-0.13550214
93	0xbdb71a58	-0.089405715
94	0x3c5cce5a	0.013476932
95	0x3b004814	0.0019574212
96	0x3ccade04	0.024764068
97	0xbce63124	-0.028099604
98	0xbe391caf	-0.18077348
99	0xbdc3fbf3	-0.0956954

weight f4 [100, 1, 5, 100]
0	0x3e6e350b	0.23262422
1	0xbd752309	-0.059847865
2	0xbdf72190	-0.120669484
3	0x3c29e446	0.010369366
4	0xbd27b99f	-0.040948506
5	0xbd617252	-0.055040665
6	0x3e21a3cb	0.15785138
7	0x3e07a034	0.13244706
8	0xbbb69c75	-0.0055728504
9	0xbe23092e	-0.1592147
10	0x3d3ff1ef	0.046861585
11	0x3d184875	0.037178475
12	0x3b872cd8	0.004125219
13	0xbcea25bb	-0.028582444
14	0x3bed0374	0.0072330777
15	0x3dd1af21	0.10238481
16	0x3dfdaabb	0.1238608
17	0x3dc3300f	0.09530651
18	0x3c71bccc	0.014754485
19	0xbd18ba1a	-0.037286855
20	0xbd7bd7c6	-0.061485074
21	0x3eb4fbba	0.35348302
22	0xbd14a050	-0.0362857
23	0x3d195d92	0.03744275
24	0xbc1abe69	-0.009444811
25	0x3dd48c7b	0.10378357
26	0x3b37041d	0.0027926036
27	0xbbfd06c8	-0.0077217557
28	0x3e28e93e	0.16495225
29	0x3d0246a5	0.031805653
30	0xbe37b427	-0.17939816
31	0xbdfc270c	-0.12312135
32	0xbc6b61af	-0.014366551
33	0xbc694504	-0.014237646
34	0x3da62753	0.08112969
35	0x3d518cee	0.05115979
36	0xbcf6271a	-0.030047942
37	0x3d023508	0.031788856
38	0xbc513adc	-0.012770381
39	0x3e1633cf	0.14668201
40	0x3d8fbc73	0.07018366
41	0xbd47de07	-0.048795726
42	0xbe093eb9	-0.13402833
43	0xbda39b4a	-0.079886034
44	0xbc01fa70	-0.007933244
45	0xbb5e2bb0	-0.0033900551
46	0xbde9fc11	-0.11425031
47	0x3b820dd1	0.003968932
48	0x3d8a10d8	0.06741494
49	0x3cd43581	0.025904419
50	0x3e077d11	0.13231303
51	0x3da1c153	0.07898202
52	0x3cdc8fe5	0.026924083
53	0x3d48fc4d	0.049068738
54	0xbdca57b2	-0.09880008
55	0xbcd49925	-0.025951931
56	0x3d388319	0.0450469
57	0x3d7ed079	0.062210534
58	0x3d0cb2b9	0.03435013
59	0x3e641544	0.22273737
60	0xbdc6311d	-0.09677336
61	0xbe013b71	-0.12620331
62	0xbc883048	-0.016624585
63	0xbd9d4f10	-0.076810956
64	0x3db74515	0.08948723
65	0x3d88bb10	0.06676304
66	0x3c9d95aa	0.019236404
67	0x3d8bf876	0.068344995
68	0x3e1928b3	0.14956932
69	0xbdc5fea1	-0.09667707
70	0xbc9456bd	-0.018107766
71	0xbdaf13ef	-0.08548724
72	0x3d337103	0.04380895
73	0x3d62dee3	0.055388343
74	0x3b973de9	0.0046155346
75	0x3db9a357	0.09064358
76	0xbd843a08	-0.06456381
77	0xbcc4fdf8	-0.024046883
78	0xbd285988	-0.04110101
79	0x3d6fdccf	0.05856019
80	0x3d90aeb7	0.07064574
81	0xbcbf3d9a	-0.023344804
82	0xbe155331	-0.14582516
83	0xbc904841	-0.017612578
84	0x3d4ffd84	0.05077888
85	0xbcf20fce	-0.029548552
86	0xbc5479d9	-0.012968504
87	0xbc5c52a6	-0.013447439
88	0x3daf6979	0.08565039
89	0xbd4d569b	-0.05013142
90	0xbd6359a4	-0.05550541
91	0x3c40ad29	0.011760035
92	0x3d63aa1c	0.05558215
93	0x3c0a40e4	0.008438323
94	0x3e3ffd88	0.18749058
95	0x3d8dbf54	0.069212586
96	0x3d8142cd	0.06311569
97	0xbde6385e	-0.1124122
98	0x3d6bbd92	0.057553835
99	0x3d352161	0.044221286
100	0xbd6e1370	-0.058124006
101	0xbe52dcc9	-0.20592035
102	0x3bfef9cd	0.0077812434
103	0x3ca9fc0d	0.02075007
104	0x3cc65969	0.024212556
105	0xbd45b81b	-0.04827128
106	0xbd0b8361	-0.03406084
107	0x3d4f93bc	0.050678
108	0x3d309c0d	0.04311757
109	0x3d30b221	0.043138627
110	0xbe307625	-0.17232569
111	0xbde55be7	-0.111991696
112	0xbc1a4296	-0.009415289
113	0xbabc8105	-0.0014381713
114	0x3e6219a5	0.22080095
115	0x3d971039	0.07376141
116	0xbcbc433d	-0.02298128
117	0xbd65f5fe	-0.0561428
118	0xbd009b48	-0.031398088
119	0xbe026364	-0.12733227
120	0x3cd23a44	0.025662549
121	0x3dedd9cb	0.11613806
122	0x3dde9e22	0.10870005
123	0xbe563eb4	-0.20922357
124	0x3ce7614f	0.028244643
125	0xbbe12cc4	-0.0068717916
126	0xbcbbaf2d	-0.022910679
127	0xbd6b1692	-0.05739457
128	0x3ba58dea	0.005052318
129	0x3dec5681	0.11539937
130	0x3dafe982	0.0858946
131	0x3d23e796	0.04001578
132	0x3e0799e1	0.13242294
133	0xbd151794	-0.03639944
134	0xbd8ec26c	-0.06970677
135	0xbdcb0217	-0.09912508
136	0x3d658d8b	0.05604319
137	0x3e256dc3	0.16155152
138	0x3d269b75	0.0406756
139	0x3d7ad385	0.061236877
140	0xbc910751	-0.017703684
141	0xbdda31a1	-0.10653997
142	0xbb2cedc8	-0.0026386846
143	0x3e54524e	0.20734522
144	0xbce30f5c	-0.027717285
145	0xbc1ebf37	-0.009689144
146	0x3dc65655	0.09684435
147	0x3dc6f9fd	0.0971565
148	0xbc5d6fe4	-0.013515446
149	0x3d0d8244	0.03454806
150	0x3d054787	0.032538917
151	0x3cf0638f	0.029344348
152	0x3b8c8a4d	0.0042889477
153	0xbd9b0c8f	-0.07570755
154	0x3cc764dc	0.024340086
155	0x3bc9a86c	0.0061541107
156	0xbca1ddd0	-0.019759089
157	0xbc97202b	-0.018447956
158	0x3c34e206	0.011040216
159	0xbdd0c4c7	-0.10193782
160	0x3cab9b06	0.020947944
161	0x3d1c884c	0.03821592
162	0x3d89a5dc	0.06721088
163	0xbdf2b3d1	-0.118507035
164	0xbdbc1d3d	-0.09185264
165	0x3da8ede2	0.082484975
166	0x3d076c5e	0.03306233
167	0x3e1919d2	0.14951256
168	0x3e915a5d	0.28389254
169	0xbdc06e3e	-0.09396027
170	0xbb8ec4d6	-0.0043569608
171	0xbdb68914	-0.08912864
172	0xbdf3426d	-0.11877904
173	0xbd0e542d	-0.034748245
174	0xbd908cf5	-0.070581354
175	0x3d987479	0.074440904
176	0xbe68d943	-0.22739129
177	0x3e101ef0	0.14074302
178	0x3cb2c97f	0.021824596
179	0x3dcbad13	0.09945121
180	0x3d5c05ae	0.053716354
181	0xbb0e7fb6	-0.0021743602
182	0x3d9fb598	0.07798308
183	0x3d59b37e	0.053149693
184	0x3b4647b7	0.0030255148
185	0xbe417bbb	-0.18894856
186	0xbe320519	-0.17384757
187	0xbc36c056	-0.011154255
188	0x3d9635f5	0.0733451
189	0x3e15ea53	0.14640169
190	0xbdd77571	-0.10520447
191	0xbe2a4958	-0.16629541
192	0x3b0828cb	0.0020776268
193	0xbdc09af7	-0.09404557
194	0x3e42794f	0.18991588
195	0xbc276c37	-0.0102186715
196	0xbd0fbc0a	-0.035091437
197	0x3d90c210	0.070682645
198	0x3e374738	0.17898262
199	0xbd5b415a	-0.05352912
200	0x3d94a180	0.07257366
201	0xbcc63ec5	-0.024199853
202	0xbe0162fc	-0.12635416
203	0xbe08d1af	-0.13361238
204	0x3d948285	0.07251457
205	0x3da377bb	0.07981821
206	0xbd944fb2	-0.07241763
207	0x3e2396d3	0.15975504
208	0xbd1f4632	-0.038885303
209	0xbce7fe0f	-0.028319387
210	0xbc8236f3	-0.015895342
211	0xbc8c5fc3	-0.017135506
212	0x3df54bb5	0.119773306
213	0x3dbb9cb3	0.091607474
214	0xbe11eaff	-0.142498
215	0x3ddd3600	0.10801315
216	0x3e1bdcbe	0.15220925
217	0x3da47dbd	0.08031795
218	0xbdb6a633	-0.08918419
219	0x3cb23d20	0.021757662
220	0x3cb33e5d	0.021880323
221	0xbd8c7c85	-0.06859688
222	0x3e9495a8	0.2902043
223	0x3e365e12	0.17809322
224	0xbd30e910	-0.043191016
225	0xbe0294f3	-0.12752132
226	0xbc807167	-0.015679074
227	0x3e00db0e	0.12583563
228	0xbd02c489	-0.03192571
229	0x3cdc86f1	0.026919814
230	0x3dede98d	0.11616812
231	0xbe0b79a8	-0.13620627
232	0x3a548d6c	0.00081082317
233	0xbe0d4c3f	-0.13798617
234	0x3db035b0	0.0860399
235	0x3c37bccc	0.011214446
236	0xbe09c6c9	-0.13454737
237	0xbbfd55bf	-0.007731169
238	0xbe144fec	-0.14483613
239	0x3d8672f9	0.06564898
240	0x3df5b9b4	0.11998311
241	0xbc82fbd3	-0.01598922
242	0x3df5ce8b	0.120022856
243	0xbe538674	-0.20656759
244	0xbe10014f	-0.14062999
245	0x3cfbebc1	0.030752065
246	0xbc948acc	-0.01813259
247	0x3cfa4174	0.030548789
248	0xbdc571e6	-0.09640865
249	0xbdc4803e	-0.09594773
250	0xbc4ee8c8	-0.012628742
251	0x3c8c1a96	0.01710252
252	0x3d44dbad	0.04806106
253	0xbd45628e	-0.048189692
254	0xbde8602b	-0.113464676
255	0xbd6c9228	-0.057756573

bias f4 [100]
0	0xbdeca7df	-0.11555456
1	0xbd09efff	-0.033676144
2	0xbd371425	-0.044696946
3	0xbd9c0452	-0.076180115
4	0xbd24094f	-0.04004794
5	0xbd0c6f2d	-0.034285713
6	0xbd4644e9	-0.04840556
7	0xbd152f55	-0.036422092
8	0xbd7596e0	-0.05995834
9	0xbd89de06	-0.06731801
10	0xbdc6f9ff	-0.09715652
11	0xbd9114b8	-0.0708403
12	0xbdeec802	-0.11659242
13	0xbdc3505b	-0.09536811
14	0xbd892c8e	-0.06697951
15	0xbd75e5b9	-0.060033534
16	0xbd707006	-0.058700584
17	0xbd8c8150	-0.06860602
18	0xbdea35a6	-0.11436014
19	0xbd23ad24	-0.03996004
20	0xbcd7b02b	-0.02632912
21	0xbbcd57d1	-0.006266572
22	0x3ceba453	0.02876488
23	0xbcaa8516	-0.020815413
24	0xbdc18289	-0.09448726
25	0xbde347c1	-0.1109767
26	0xbd06cac6	-0.032908224
27	0xbd8e9755	-0.06962458
28	0xbdaf7ea2	-0.08569075
29	0xbdea8a50	-0.11452162
30	0xbd8dad22	-0.06917788
31	0xbdd760c2	-0.10516502
32	0xbc2fe696	-0.010736128
33	0xbc50185a	-0.012701118
34	0xbd2538af	-0.04033726
35	0xbd86fab2	-0.06590785
36	0xbdb1cdce	-0.08681832
37	0xbe03f855	-0.128877
38	0xbd83c3ff	-0.06433868
39	0xbde5f81a	-0.11228962
40	0xbd1347f1	-0.03595728
41	0xbdf33ca9	-0.118768044
42	0xbe02ae98	-0.12761915
43	0xbd29b8a9	-0.04143587
44	0xbd8c1574	-0.06840029
45	0x3b01939b	0.0019771818
46	0xbd8b4877	-0.06800931
47	0xbe1f8f04	-0.155819
48	0xbdaaa210	-0.08331692
49	0xbdfff4c0	-0.12497854
50	0xbd8776af	-0.06614434
51	0xbe06500c	-0.13116473
52	0xbd4703f7	-0.048587766
53	0xbda316a1	-0.079633005
54	0xbd848bb5	-0.064719595
55	0xbe01f8b4	-0.12692529
56	0xbd0ebed0	-0.03484994
57	0xbd974c7a	-0.073876336
58	0xbd6c5e8a	-0.057707347
59	0xbdd2761b	-0.10276433
60	0xbd2ea56b	-0.042638224
61	0xbe095b45	-0.13413723
62	0xbdfa8117	-0.12231653
63	0x3c1b7727	0.009488857
64	0xbdbdf673	-0.09275522
65	0xbdb5bdc1	-0.08874083
66	0xbda3ae01	-0.07992173
67	0xbd8201a6	-0.06347971
68	0xbd111cdd	-0.035427917
69	0xbd6c6724	-0.05771555
70	0xbe4e4dcb	-0.20146863
71	0xbd481ef8	-0.04885766
72	0xbd7cf1cd	-0.061754037
73	0xbdd9a47f	-0.10627078
74	0x3ba6d98b	0.005091851
75	0xbd4f3281	-0.050585274
76	0xbd43cbd8	-0.047801822
77	0xbddd13ae	-0.10794769
78	0xbd0ec884	-0.034859195
79	0xbd6b9e82	-0.05752421
80	0x3c02c0f9	0.007980579
81	0xbc98d25c	-0.018654995
82	0xbcbc2150	-0.022965103
83	0xbd54c272	-0.05194325
84	0xbd9aa4e2	-0.0755098
85	0xbd83b52f	-0.064310424
86	0xbe24cdda	-0.16094151
87	0x3c7bfbf7	0.015379897
88	0xbe1ddb40	-0.15415668
89	0xbdb71853	-0.08940186
90	0xbd0b284d	-0.03397398
91	0x3d4692bc	0.04847978
92	0xbe2cdde9	-0.16881527
93	0xbe01928d	-0.12653561
94	0xbe119365	-0.14216383
95	0xbe1aaa97	-0.15104137
96	0xbd896057	-0.067078285
97	0xbdfbc44f	-0.12293302
98	0xbdd8aa9a	-0.10579415
99	0xbd923ed3	-0.07140889

weight f4 [31, 300]
0	0x3d9f608d	0.077820875
1	0x3e0d4cbd	0.13798805
2	0xbd602785	-0.05472519
3	0x3dc3e3c7	0.095649295
4	0xbe1b5cba	-0.15172091
5	0xbc406295	-0.011742254
6	0xbd672996	-0.056436144
7	0xbc57ba19	-0.013166928
8	0xbd46e04e	-0.048553757
9	0xbd14047c	-0.03613709
10	0xbe2d899d	-0.16947027
11	0xbd8fd6df	-0.07023405
12	0xbd830248	-0.063969195
13	0xbe38c519	-0.18043937
14	0xbdbddb04	-0.092702895
15	0xbc433f51	-0.011916951
16	0x3e012103	0.12610249
17	0xbccd648b	-0.025072357
18	0xbd448065	-0.04797401
19	0xbe25fb8c	-0.16209239
20	0xbd505c05	-0.050869007
21	0xbd42d792	-0.047568865
22	0xbddaf24e	-0.10690747
23	0xbd794da8	-0.060865074
24	0xbd6e765b	-0.05821834
25	0xbd1724dc	-0.036900386
26	0xbc8c4473	-0.017122483
27	0xbd3c0f13	-0.045912813
28	0xbe02b329	-0.12763657
29	0x3de1e04a	0.11029108
30	0x3b5c37a0	0.003360249
31	0xbd62d9da	-0.05538354
32	0xbe4e7bb8	-0.20164382
33	0xbdb2852e	-0.08716808
34	0xbdaca562	-0.08429982
35	0xbd97abb6	-0.07405798
36	0xbdac794d	-0.08421574
37	0xbd8cff6e	-0.06884657
38	0xbe2386ac	-0.15969342
39	0xbe819618	-0.25309825
40	0xbc767d94	-0.015044589
41	0xbd6c1e08	-0.057645828
42	0x3eeb50dc	0.45960128
43	0xbe173484	-0.14766127
44	0xbd36b216	-0.04460343
45	0xbdf78f95	-0.12087933
46	0xbbe870d3	-0.007093528
47	0xbd403fae	-0.04693573
48	0xbd87f33c	-0.0663819
49	0xbd562cc1	-0.052288774
50	0x3d9ff03c	0.07809493
51	0xbbc25914	-0.005931029
52	0xbd277dbd	-0.040891398
53	0xbce45390	-0.027871877
54	0xbcd2b4f3	-0.025721049
55	0x3e84cbd7	0.25936767
56	0xbe022077	-0.12707697
57	0xbd95b7dd	-0.0731046
58	0xbe5fb044	-0.21844584
59	0xbd9f10cd	-0.07766876
60	0x3da8f7e2	0.08250405
61	0xbe2109ae	-0.15726349
62	0x3ce4eb0d	0.027944112
63	0xbd163074	-0.036667302
64	0xbe683f53	-0.22680406
65	0xbd9c9fdb	-0.076476775
66	0xbd6184b7	-0.055058207
67	0x3df6816a	0.120364025
68	0x3c99c427	0.01877029
69	0xbced8c61	-0.028997602
70	0x3ea1dacf	0.3161225
71	0xbd7e74ca	-0.062123097
72	0xbd5d2f36	-0.054000102
73	0xbd5afe94	-0.05346544
74	0xbd302e4c	-0.043012902
75	0xbc99cc8c	-0.018774293
76	0xbd2d70f0	-0.042344034
77	0xbdf706fe	-0.120618805
78	0xbd591745	-0.053000707
79	0xbc2ee6a1	-0.010675103
80	0xbd9f7c86	-0.07787423
81	0xbd75f784	-0.060050502
82	0x3d27e1fb	0.040986996
83	0xbd922923	-0.071367525
84	0xbbb94159	-0.005653542
85	0xbdb1b458	-0.08676976
86	0xba6b9b16	-0.0008987648
87	0xbd956b5f	-0.0729587
88	0xbd928015	-0.07153336
89	0xbdcfce23	-0.10146739
90	0xbda7cdcb	-0.08193549
91	0xbda5e18f	-0.080996625
92	0x3d33a914	0.043862417
93	0xbd2d91ba	-0.042375304
94	0x3ecef251	0.40419248
95	0xbd019335	-0.03163453
96	0xbd81249b	-0.0630581
97	0xbddec3f8	-0.10877222
98	0xbd336bfa	-0.043804146
99	0xbd7c82e0	-0.06164825
100	0xbd95e82c	-0.07319674
101	0xbdac1afa	-0.08403583
102	0xbe18c985	-0.14920624
103	0x3da4c9ad	0.08046279
104	0xbda905e1	-0.082530744
105	0x3e1fca8f	0.15604614
106	0xbd92abef	-0.071617
107	0xbdb56269	-0.08856661
108	0x3d796872	0.060890622
109	0xbd6940e1	-0.05694664
110	0xbd8de948	-0.069292605
111	0xbd320c3e	-0.043468706
112	0xbd4d5fc4	-0.050140157
113	0x3e3f04f1	0.18654229
114	0xbe11236c	-0.14173669
115	0x3cdf717f	0.027275799
116	0xbd372fb6	-0.044723235
117	0xbdcd5c9e	-0.10027431
118	0x3ddb590c	0.10710344
119	0xbd5ae758	-0.053443283
120	0xbc9bb75d	-0.019008333
121	0xbdd5741b	-0.10422536
122	0xbd67f267	-0.056627657
123	0x3d9a1828	0.07524139
124	0xbda96d75	-0.082728304
125	0x3c57a1e0	0.013161153
126	0xbcbe5e5a	-0.02323835
127	0x3c16b243	0.009197774
128	0xbd0c2e1c	-0.03422366
129	0xbe4ab1fe	-0.19794461
130	0xbe474f01	-0.19463731
131	0xbe1404e8	-0.14454997
132	0xbdf1145e	-0.11771463
133	0x3cbfaf3e	0.023398992
134	0xbe426622	-0.18984273
135	0x3d254e80	0.040358067
136	0xbcb34a09	-0.021885889
137	0x3c77c46c	0.015122514
138	0x3d697c95	0.057003576
139	0xbd9d46c6	-0.076795146
140	0xbccc190c	-0.024914287
141	0xbc178ba6	-0.009249603
142	0xbd6a29b7	-0.05716869
143	0xbd7a04c2	-0.061039694
144	0x3dde9711	0.108686574
145	0xbd82d35e	-0.06387971
146	0xbdb871a0	-0.09006047
147	0xbd0c3654	-0.0342315
148	0x3d4f44bc	0.05060266
149	0xbbc62d97	-0.006047915
150	0xbc94d11c	-0.018166117
151	0xbd8c2b45	-0.068441905
152	0xbd1012b9	-0.035174105
153	0xbe6af295	-0.229441
154	0xbd144d73	-0.036206674
155	0xbd6c453b	-0.05768321
156	0xbcc10898	-0.023563668
157	0xbdd09685	-0.10184959
158	0xbe18a240	-0.14905643
159	0xbd6c767c	-0.057730183
160	0xbb83f9c4	-0.004027577
161	0x3db99577	0.09061711
162	0x3d156e57	0.03648218
163	0xbd6221f5	-0.055208165
164	0xbdc830ac	-0.097749084
165	0xbd47bfd9	-0.048766945
166	0x3d33bed4	0.04388316
167	0xbd7a0026	-0.061035298
168	0xbd28f59f	-0.041249868
169	0xbe110a8f	-0.14164184
170	0x3e13268a	0.1437017
171	0xbddd5029	-0.10806305
172	0xbde6eb8c	-0.11275396
173	0xbc0bd8eb	-0.008535604
174	0xbdedbc3f	-0.11608171
175	0xbd662cc6	-0.056195043
176	0xbdf82985	-0.12117294
177	0x3d5f65e4	0.05454053
178	0x3edd2f10	0.43199968
179	0xbdb215f9	-0.08695597
180	0xbd705026	-0.058670186
181	0x3cec10c4	0.028816588
182	0x3c220f40	0.009891331
183	0xbdcf3b9a	-0.1011879
184	0x3e822ce6	0.2542488
185	0xbe32981a	-0.17440835
186	0xbd1bd16a	-0.03804151
187	0xbd2f17e2	-0.042747386
188	0xbd849461	-0.064736135
189	0x3c636fd4	0.013881642
190	0xbde38963	-0.11110189
191	0x3e4a54e3	0.19758944
192	0xbca72e8b	-0.020407936
193	0x3e79911b	0.2437176
194	0xbd942f91	-0.07235635
195	0xbd8d8bee	-0.06911455
196	0xbd85eda3	-0.06539466
197	0xbcf5e5e4	-0.030016847
198	0x3cfe468c	0.031039499
199	0xbc7bded5	-0.0153729515
200	0x3df6e301	0.12055016
201	0xbd61e23d	-0.0551474
202	0xbd800ac7	-0.062520556
203	0xbdd08505	-0.101816215
204	0xbc9e1a42	-0.01929963
205	0xbd9fcd98	-0.07802886
206	0xbd288124	-0.041138783
207	0xbcb09410	-0.021554977
208	0x3d30e9ad	0.0431916
209	0xbd299b0b	-0.041407626
210	0x3d220d2b	0.03956334
211	0xbd86b62c	-0.06577715
212	0xbe24fd28	-0.16112196
213	0x3d9715f0	0.07377231
214	0xbd1c7b96	-0.0382038
215	0x3da271e8	0.07931882
216	0xbd994a6c	-0.07484898
217	0xbd60bbb0	-0.054866493
218	0xbd006bfe	-0.03135299
219	0xbd588d61	-0.052869204
220	0xbd0c9b73	-0.034327935
221	0xbd791077	-0.060806718
222	0xbdff902f	-0.12478673
223	0xbe57a60a	-0.21059433
224	0xbd35d1e5	-0.044389624
225	0x3dfd528f	0.123692624
226	0x3d972aa2	0.073811784
227	0x3c122a33	0.008921194
228	0xbd5c444b	-0.053776067
229	0xbd2a1d37	-0.041531768
230	0xbd80a6e7	-0.06281834
231	0xbd0c460f	-0.0342465
232	0xbdaca680	-0.08430195
233	0xbd16da12	-0.03682906
234	0xbd5f85c9	-0.054570947
235	0xbd2f19ff	-0.0427494
236	0xbcef9d87	-0.02924992
237	0xbd6f0ac4	-0.058359876
238	0x3e51d0cf	0.2048981
239	0x3c8c39cf	0.017117409
240	0xbbd83bf2	-0.006598943
241	0xbc9bc0e6	-0.01901288
242	0x3cef1e11	0.029189141
243	0xbe753e5f	-0.23949574
244	0xbd78da48	-0.060755044
245	0xbde9cc7c	-0.114159554
246	0xbd10a9be	-0.03531813
247	0xb9f97da9	-0.00047586605
248	0xbda36fb1	-0.07980288
249	0x3e024e2f	0.12725137
250	0x3d8646f3	0.06556501
251	0x3ce07265	0.027398298
252	0xbd6b67c8	-0.05747202
253	0xbc9d36e0	-0.019191206
254	0xbda9a63b	-0.08283659
255	0xbcec818b	-0.028870365

bias f4 [31]
0	0xbe46bd4b	-0.19408147
1	0xbe846059	-0.25854757
2	0xbdfd8328	-0.12378532
3	0xbdee8f79	-0.11648459
4	0xbe67bca1	-0.2263055
5	0xbe80541d	-0.25064173
6	0xbe3a4d7f	-0.18193625
7	0xbe470b4a	-0.194379
8	0xbe7c0664	-0.24611813
9	0xbdf3e9d6	-0.11909835
10	0xbe5c4342	-0.21510032
11	0xbe0070a6	-0.12542972
12	0xbdd2c3a4	-0.10291222
13	0xbe246df2	-0.16057566
14	0xbe884073	-0.2661167
15	0xbe016000	-0.12634277
16	0xbe24542d	-0.16047736
17	0xbe1ab827	-0.15109311
18	0xbe3b87a1	-0.18313457
19	0xbdd34198	-0.103152454
20	0xbdda0b8d	-0.106467344
21	0xbde4648d	-0.11151991
22	0xbe270bfd	-0.16313167
23	0xbe0b8a8d	-0.13627072
24	0xbe0e1fca	-0.13879314
25	0xbe1517ef	-0.14559911
26	0xbe2e9ff5	-0.17053206
27	0xbe33c2fb	-0.17554848
28	0xbe1bfce4	-0.15233189
29	0xbdaf5e82	-0.08562948
30	0x3e1445a0	0.14479685
