TextCNN1/TextCNN1_model_100.pth (torch, 925003 bytes, 9 tensors)

weight f4 [1000, 100]
000000 57 62 ab bf d2 b0 a2 3d 7e a2 4d 3e 8c ad 2b be
       -1.3389386 0.07943882 0.20081517 -0.16765422
000010 68 f8 d8 b8 38 9a 72 3f 24 76 7c 3d fb d3 f7 bd
       -0.00010345952 0.9476657 0.061636105 -0.12100979
000020 7f ca 19 3f 31 f9 9c bc 35 0f b6 bc 30 54 fd 3d
       0.6007461 -0.019161792 -0.022224048 0.12369573
000030 a8 50 af 3f 31 7b 29 3e b7 9b c1 be f8 f4 6d be
       1.3696489 0.165509 -0.37814113 -0.2323798
000040 ae e6 a1 be c4 db 9f 3d f2 90 27 3e ba fd c4 bf
       -0.31621307 0.07805589 0.16363886 -1.5389931
000050 02 63 ac be 8c dd 20 be 57 1f 90 bf 67 dc 18 3f
       -0.33669287 -0.15709513 -1.1259564 0.5971131
000060 fc 38 a9 3f 76 81 d5 3e cc 64 c6 3e ad 17 aa be
       1.3220515 0.41700333 0.38748777 -0.33221188
000070 14 2a b7 3d 69 b2 e7 3e f5 31 57 bf 24 a3 4e 3f
       0.08943573 0.45253304 -0.84060603 0.8071768
000080 dd a5 fa be 97 de 8b bf 65 3e 8f 3f 43 32 0d bd
       -0.4895467 -1.0927304 1.1190916 -0.03447176
000090 ee 46 5f bf 69 dd 8e be e5 24 42 3f 67 22 68 3e
       -0.87217605 -0.27903298 0.75837547 0.22669373
0000a0 c5 18 5b 3e ef 39 04 bf 1f 51 12 3e 55 8f d3 bd
       0.21396168 -0.516509 0.14288758 -0.10330073
0000b0 1f 4a 11 bf 7f 23 55 3e 8c 51 ac 3e 57 34 57 bd
       -0.56753725 0.20814322 0.33655965 -0.05254015
0000c0 a8 0c 0c 3d 1e 9a 57 bf 43 9b 88 be 76 f2 8a 3d
       0.034191757 -0.8421954 -0.26680955 0.06784527
0000d0 56 c0 c4 bf 03 b1 90 bd c1 ba f2 be ee dc 84 3e
       -1.5371196 -0.07065012 -0.47408107 0.25949806
0000e0 8d 8f 93 be 77 71 00 3f 48 ed b3 3e 0a ed 36 bf
       -0.28820458 0.50173134 0.3514197 -0.7145544
0000f0 c9 fd 8f 3e b4 24 ef 3f 25 3f 41 3e 1c 21 c7 bf
       0.2812331 1.8683076 0.18871744 -1.5556979
000100 3b 87 76 3f 54 b4 b6 bd ab 6c 4a 3d e1 c2 53 3f
       0.96300095 -0.089211136 0.04942004 0.82719237
000110 c3 f9 0a 3f fd 65 23 3f ec 9d 43 3e 00 47 ee be
       0.54287356 0.63827497 0.19103211 -0.46538544
000120 c3 d2 d1 be 85 92 1f 3f 2d f4 8e 3e 64 d3 b2 be
       -0.4098111 0.62332946 0.27920666 -0.34926903
000130 6a af 35 3d 79 14 a2 3f 05 38 a6 be 13 e1 2b 3e
       0.04435674 1.2662498 -0.32464615 0.16785078
000140 24 ef 67 3e 08 5f 90 3f 3f 07 f4 bf d2 2d 05 3f
       0.22649819 1.1279001 -1.9064711 0.5202304
000150 33 bc 02 bf 0d c5 20 bf 78 98 c8 bd 69 98 cd be
       -0.5106842 -0.62800676 -0.09794706 -0.40155342
000160 ed ff b6 3c 73 28 d7 be 09 43 f1 bd c0 70 19 3f
       0.022338832 -0.42023048 -0.11780364 0.5993767
000170 4d 86 61 3f e6 6d 22 3f ad 70 10 bf a4 d6 32 3e
       0.8809555 0.6344894 -0.5642193 0.17464691
000180 6e 51 4e 3f 8b c7 9f be 72 ce c5 3e e1 f3 3c bd
       0.80593 -0.31206927 0.38634068 -0.04613102
000190 dc db 4b 3f 1b 73 71 3f e0 e3 1d bf 5b a5 eb be
       0.79632354 0.9431626 -0.61675835 -0.46024594
0001a0 5f 68 30 c0 0e ae fd 3d 26 84 19 bf 5a 1b 01 bf
       -2.7563703 0.12386714 -0.5996727 -0.5043236
0001b0 3d 64 be be dd 56 10 c0 96 14 bd be 2b fa 77 bf
       -0.3718585 -2.2553017 -0.36929768 -0.968661
0001c0 d9 3b 28 40 08 d6 e6 3e bf b3 d1 3e 71 c2 8a bf
       2.6286528 0.45085168 0.40957448 -1.0840589
0001d0 94 58 32 3d 44 64 97 3f c4 5f 42 3c f8 64 50 bf
       0.043541506 1.1827474 0.011863653 -0.81404066
0001e0 59 03 40 3e eb 09 46 c0 66 7a 8b 3f 34 a4 02 3f
       0.18751277 -3.0943553 1.0896728 0.51031804
0001f0 c0 5a a4 3f e2 0d 96 bd 54 3f 19 40 d0 5f 33 3f
       1.2840195 -0.07326867 2.3944902 0.70068073
000200 4f 63 87 3e 11 8c 23 bf 7d 54 07 3f 92 58 03 bf
       0.26442954 -0.638856 0.52863294 -0.5130702
000210 8e 52 64 bf 2b 97 12 bf 70 ae 28 be cc 6c 77 3f
       -0.8918847 -0.57261914 -0.16472793 0.96650386
000220 45 5a ab bf 80 04 56 3e ca 07 58 3f 81 e0 a9 bf
       -1.3386923 0.20900154 0.84386885 -1.3271638
000230 8a cd 97 bf 56 4b b2 3f 9a 09 8c 3f cf f8 5b 3f
       -1.18596 1.3929241 1.094043 0.85926527
000240 0d 37 fc be 07 14 90 3f 78 26 22 40 6c c7 55 bf
       -0.4926075 1.1256112 2.533598 -0.8350742
000250 07 5b 88 3f b8 21 42 3e c5 a0 19 bf 8f 9a 5f bf
       1.0652779 0.18958175 -0.6001094 -0.8734521
000260 d3 5d 0b 3f 65 29 b7 3e d3 fb bd 3d 46 88 88 3f
       0.5444004 0.3577377 0.09276547 1.0666587
000270 de ad 0d 3f 41 0d 3b 3e b6 76 df bc d8 ab 84 bf
       0.55343425 0.18266775 -0.027278285 -1.0364943
000280 18 9f 13 3f 66 c7 ff 3e ee b1 9f be f1 30 a8 bf
       0.5766463 0.49956816 -0.31190437 -1.3139936
000290 6f ac e9 be 2f 6f 2a bf 89 de 25 c0 34 e1 7e 3e
       -0.4563937 -0.665759 -2.5917075 0.24890596
0002a0 ba 79 f8 be ec c9 48 be 74 cd 22 bf 95 94 65 3e
       -0.4853037 -0.19608277 -0.63594747 0.22419961
0002b0 df af 53 bf 5a 25 89 bf 40 dc 04 40 6c 1c 83 be
       -0.82690233 -1.0714524 2.075943 -0.25607622
0002c0 db 8f e2 3e f8 19 4e bf f8 33 17 bf 65 45 9a 3f
       0.44250378 -0.80508375 -0.59063673 1.2052428
0002d0 2c 3c d1 3e bd 60 c8 bf 0c e7 e4 bf ba ca 9d 3e
       0.4086622 -1.5654522 -1.788301 0.3081873
0002e0 3d a5 d6 bf 9c 3c 7d 3f f3 99 f5 be ee be 1a be
       -1.6769177 0.9892061 -0.47969016 -0.15111896
0002f0 10 e4 e3 bf be ea 25 3e 85 08 d4 bc 77 5a 0c bf
       -1.7803974 0.16202828 -0.025882969 -0.5482554
000300 a7 4d 95 3e 2b fc df bf 95 d8 39 3f b3 0e b1 3f
       0.29160807 -1.749883 0.725961 1.3832611
000310 9b ae 68 3f 4d 66 dc be 47 14 ae bf ce f2 0b 3f
       0.90891427 -0.430468 -1.3599938 0.54667366
000320 6c 8f 60 bf 8e e7 fe bf e1 c5 4c bf 47 f8 8a be
       -0.87718844 -1.9914415 -0.7998944 -0.27142546
000330 26 e1 45 be c8 dc 80 bf d6 d6 d3 bf 0f 7f a1 3e
       -0.19324169 -1.0067377 -1.6549938 0.3154225
000340 7f 6d 3e bf 70 ee bd bf 6a 9d 15 bf 36 d4 cf bf
       -0.7438583 -1.483839 -0.5844332 -1.6236637
000350 92 24 8e 3c 3b aa 90 bf a4 69 d0 3f 8e 85 5d bf
       0.017351422 -1.130195 1.6282239 -0.86531913
000360 41 ff 0b c0 8b ca 16 bf 30 fc 6d 3e 8e a4 90 3e
       -2.1874545 -0.58902806 0.23240733 0.28250545
000370 05 fb 80 3f 21 17 74 bf e6 e5 e8 3e 1c 49 ce 3e
       1.0076605 -0.9534779 0.454879 0.40290153
000380 61 6e ca bf 60 a9 ae be b1 dc 8d 3e 71 69 d2 3f
       -1.5814935 -0.34113598 0.27707437 1.6438428
000390 b1 4c b1 3f ac 0e 20 bf 2e 46 35 bf e8 5c e1 3e
       1.3851529 -0.6252239 -0.7081021 0.44016194
0003a0 fa 31 bd be a0 fe f1 be 6e c6 eb bf 22 cf 2d 3f
       -0.36952192 -0.47264576 -1.8419931 0.67894185
0003b0 b6 21 2f bf e8 9a 10 3f 47 92 96 3d 91 eb 25 be
       -0.68410814 0.5648637 0.07352119 -0.16203143
0003c0 3f 24 ce bf 0a 5c 0c 40 4a 3a d3 3f ef 83 39 3f
       -1.6104811 2.1931176 1.6502163 0.7246694
0003d0 33 e4 c8 be b5 f4 82 3f cf 09 3b bf a5 67 bd be
       -0.39236602 1.0230929 -0.7306184 -0.36993137
0003e0 1f 38 0d 3f 18 c0 8d bf 4c 7d 43 3f c3 2a 13 bf
       0.5516376 -1.1074247 0.7636306 -0.57487124
0003f0 fe b5 0d c0 d1 8c 3d 3f 63 a1 94 bf e8 5d 17 3e
       -2.214233 0.74042994 -1.1611751 0.14781916

weight f4 [100, 1, 3, 100]
000000 f4 dd f4 3e 4a 60 fe bc af 8a fa 3e f1 36 14 bc
       0.47825587 -0.031051774 0.48933932 -0.009046302
000010 99 f5 1a 3e a3 aa 07 be c4 a8 de bd 1b 71 db 3d
       0.1513275 -0.13248686 -0.10872033 0.107149325
000020 0f b6 ce 3e 9a 4a 4a 3d bd ff b6 be 0f 6e 4e be
       0.40373275 0.04938755 -0.35741988 -0.20159172
000030 21 ed 0f be 5d b2 8f be 97 88 ba bd cb b1 8a bd
       -0.14055301 -0.28065768 -0.09108084 -0.067721926
000040 87 d5 29 3c 3b 99 3d bd 9e dd 67 bd 0f db 59 3e
       0.01036585 -0.04628871 -0.056607835 0.2127497
000050 9e 78 c3 ba 8a 80 bb 3d 62 87 5d 3e 47 f3 53 be
       -0.0014913266 0.09155376 0.21633676 -0.20698272
000060 48 44 bf 3e 71 1a bb bd 2b f8 2f bf 6b 86 82 bc
       0.37356782 -0.09135903 -0.6873805 -0.015933236
000070 89 ba dc bd c2 92 d8 be 82 cd 7e bd 2b cb ed bd
       -0.10777766 -0.42299467 -0.062207706 -0.11611017
000080 a6 3a 5d 3e 52 aa 1f bd 38 e3 07 bf 55 81 7f 3e
       0.21604404 -0.03898079 -0.53081083 0.2495168
000090 c7 f4 3c 3e 46 49 94 be a0 27 7e be a3 16 83 bd
       0.1845275 -0.28962153 -0.24819803 -0.06400802
0000a0 bf 8e 0d 3d ac 1f 0b bd 94 7f a1 3a 63 f0 2c 3e
       0.03455996 -0.03396575 0.0012321346 0.16888575
0000b0 af 76 11 3e dc 09 9b bd f0 46 f7 bd fb 16 b3 3e
       0.1420543 -0.0757024 -0.12074077 0.3497847
0000c0 49 ed 5a 3e 73 90 0e 3e 9b 6a 0a 3c ff da 9e be
       0.2137958 0.1392229 0.008448268 -0.31026456
0000d0 35 a6 b2 bd 25 96 7d be e8 9d 3f 3c d9 90 a0 3e
       -0.08723108 -0.24764307 0.011695363 0.3136051
0000e0 25 b5 81 3e 13 d9 de 3d 2c 53 4b be c5 b0 bc ba
       0.25333515 0.10881247 -0.19855946 -0.0014395943
0000f0 11 b5 21 bf 0f de a1 be 2d d1 cd 3e f3 e8 a0 bc
       -0.6316691 -0.3161473 0.4019865 -0.019642329
000100 ce 1b b8 bd 9e 38 73 bd 24 0d 09 3e 71 6b 9d bd
       -0.08989678 -0.059380166 0.13383919 -0.076865084
000110 65 55 0b 3c 51 0d 08 3e 20 d4 d3 bd 7b 60 77 3d
       0.008504246 0.1328633 -0.10343194 0.060394745
000120 a9 de b9 be 5a 78 fe be eb 3d e1 bc e9 17 bf 3e
       -0.3630269 -0.49701196 -0.027495345 0.3732293
000130 66 1a af bd 37 b7 8c bd 63 d9 11 3f 5f 05 aa 3c
       -0.08549957 -0.06870883 0.5697233 0.020754514
000140 51 77 db bd 65 dd 6c 3e 20 d6 9c 3d 4a 56 ee 3d
       -0.10716117 0.2313133 0.076580286 0.11637552
000150 e3 19 d7 3e 64 8d 55 be 20 38 8b 3d b4 8b 11 be
       0.42011937 -0.20854717 0.06797814 -0.14213449
000160 90 7f 79 3e 24 40 56 be b6 5a 56 be c9 db fe 3d
       0.24365067 -0.20922905 -0.20933041 0.124442644
000170 94 ad c7 be 72 c1 a9 be fe 48 e8 be 85 8f 12 3d
       -0.38999617 -0.331554 -0.4536819 0.035781402
000180 29 46 73 3e de a4 6e 3e 0e 28 ac 3e bb a5 d3 3e
       0.23757233 0.2330508 0.3362431 0.4133738
000190 6b 92 63 3d 48 bf f2 3d dd d4 e4 3e 0b c2 27 bd
       0.055559557 0.1185289 0.44693652 -0.04095654
0001a0 37 b0 a3 3d eb 29 5e 3e 5f 60 17 3e 4d 18 dc 3e
       0.07992595 0.21695678 0.14782856 0.4298729
0001b0 44 40 ca bd 10 c5 9b 3e 6c 48 19 3d 59 36 bd be
       -0.09875539 0.30423784 0.037422583 -0.36955526
0001c0 35 4b 86 be e2 41 c4 be 85 fa 1d 3d e9 ba 94 bd
       -0.26229253 -0.38331515 0.038568992 -0.07262213
0001d0 87 67 99 bd 9e 1e b7 be 35 95 2c 3f 3d 58 1d 3d
       -0.074904494 -0.35765547 0.6741517 0.03841423
0001e0 82 2f bd 3d 3d 95 e1 3d e9 a6 9e 3d c7 6c 76 3e
       0.09237577 0.11014793 0.07746679 0.24064933
0001f0 ad 69 b5 3d 03 02 22 be 79 5b c4 be 07 f3 bb 3e
       0.08858047 -0.1582108 -0.38351038 0.36708853
000200 58 d9 5c 3e 70 fd 2f 3b b7 ea 73 bd da c9 ee bd
       0.21567285 0.0026853941 -0.059550013 -0.11659594
000210 63 ce eb 3e 23 4c 3f 3e 31 29 e1 3d 34 a6 f6 be
       0.46055898 0.18681388 0.10994185 -0.48173678
000220 0a 3a d9 3d 8a 14 0b bf 2a bd 3b 3e 86 69 85 be
       0.10606773 -0.54328215 0.18333879 -0.2605707
000230 83 da 1d 3e 21 48 8c be 13 12 c9 be c1 33 9a be
       0.15415387 -0.2739878 -0.39271602 -0.3011761
000240 b7 b2 2a 3e 84 72 f5 3d 1a ad 03 be 82 ad 21 3e
       0.16669737 0.11984733 -0.12859002 0.15788844
000250 41 3a c9 3e aa 82 20 be 73 9e c5 3d 97 9e 62 3d
       0.39302257 -0.15674844 0.096493624 0.055327024
000260 28 d8 97 3d 5f 38 80 bd c9 cb cc 3d 12 e5 48 be
       0.074142754 -0.06260752 0.099998064 -0.19618633
000270 74 a6 6e bc a5 eb 49 3d 5d cb bf bc 87 c5 bf 3e
       -0.014566053 0.049296994 -0.0234124 0.3745539
000280 38 53 7a be d1 7e a9 be 7e ff 3c 3f ce 4a 1a 3e
       -0.24445808 -0.33104566 0.7382735 0.15067598
000290 e7 f2 22 be f2 23 4b bd c3 a0 0b 3f 2a 12 0c be
       -0.15912972 -0.049594827 0.5454218 -0.13678804
0002a0 50 86 a3 bd e6 ca 91 bd 02 35 a9 be 29 ad a0 3e
       -0.079846025 -0.07118778 -0.33048254 0.3138211
0002b0 29 aa 4e 3e 05 ea de bd 77 13 b5 be 9b 9d d5 be
       0.20182098 -0.108844794 -0.35366413 -0.41721806
0002c0 32 7c 53 bd be 4c 2b 3e 49 39 8d 3d 51 c6 2c be
       -0.051632114 0.16728494 0.06895692 -0.16872527
0002d0 bb b0 1d be e5 d3 90 bd 25 16 2a 3f b4 07 4d 3d
       -0.15399449 -0.07071666 0.6644004 0.050056174
0002e0 39 31 95 3e 73 2a 38 3e 66 4d d9 bd ef 6b f7 be
       0.29139116 0.17984943 -0.10610466 -0.48324534
0002f0 88 e8 fe 3d 60 6d 3b be 5c 1f 9b be 71 af dc bd
       0.124466956 -0.18303442 -0.30297363 -0.1077565
000300 12 3a 9a be 3e aa bf 3c 04 28 23 bd 39 89 0d bf
       -0.3012243 0.023396607 -0.039833084 -0.5528751
000310 9c e4 7c 3e 4f db 60 be 10 86 95 be 47 84 2d be
       0.24696583 -0.2195866 -0.29203844 -0.16944991
000320 cf b7 08 3e 31 0a c4 bd 35 e9 b6 3e 57 66 05 be
       0.13351367 -0.09572256 0.35724798 -0.13027321
000330 29 33 f9 3e 48 c3 03 be cc 6e 08 3e 09 17 54 3e
       0.48671845 -0.12867463 0.13323516 0.20711912
000340 44 b8 1f 3e e5 11 34 3e 8e 26 3c be e9 c0 d0 be
       0.15597636 0.17584951 -0.18374082 -0.4077218
000350 c2 ce bb be e2 da 65 3e 88 55 61 3c b7 9b 44 3d
       -0.3668118 0.22446778 0.013753302 0.048000064
000360 88 63 39 3d cb 3e 0c 3e 38 49 d0 3c 26 e7 24 3f
       0.045260936 0.13695829 0.025425538 0.64415205
000370 70 6b 66 be c1 5e e1 bd 61 19 5f 3d 3c 4c d0 3e
       -0.22501922 -0.11004401 0.054467563 0.40683162
000380 09 45 a5 be d0 4d 53 be 7d 12 05 be c6 ed 85 3e
       -0.32279232 -0.20635152 -0.12995334 0.2615797
000390 3b 02 f8 be 35 00 eb bd 93 60 8c be 86 56 3a 3d
       -0.48439202 -0.11474649 -0.2741743 0.04549267
0003a0 32 1f f1 3e af 8f 2a be ee 22 dd bd 61 e4 d8 be
       0.47094113 -0.16656373 -0.10797678 -0.4236174
0003b0 93 d0 5f 3e fb 58 f1 bd 70 53 ed be 10 54 63 3e
       0.21856909 -0.1178455 -0.4635272 0.22200036
0003c0 e6 3b d7 3e d1 02 56 be 81 6f 05 bf 6e 08 04 3e
       0.42037886 -0.20899512 -0.52123266 0.1289384
0003d0 11 27 f3 3d ba 6c 11 bf 8a 9e 42 3c b6 dc 1b be
       0.11872686 -0.5680653 0.011878619 -0.15220913
0003e0 d9 3e 10 be 25 86 e5 3e 8e 3b df bb 2c 3d a1 be
       -0.14086474 0.44828907 -0.0068125194 -0.31491983
0003f0 72 03 01 3f 1d 80 32 3f 4a 23 34 be 8b 30 ed bd
       0.5039588 0.69726735 -0.17591587 -0.115815245

bias f4 [100]
000000 1c 1a 00 bf ab 9f 7e bf 47 e2 08 bf c8 a7 2c bf
       -0.5003984 -0.99462384 -0.5347027 -0.67443514
000010 18 f2 58 bf 72 7e 25 bf b2 8a eb be b5 c2 43 bf
       -0.84744406 -0.64646065 -0.46004254 -0.76468974
000020 d9 47 89 bf 0d ec 0d bf a2 b8 f3 be 9a e6 1a bf
       -1.0725051 -0.5543831 -0.476018 -0.6050812
000030 8d 88 14 bf 29 bb 0f bf de df fb be f5 5a de be
       -0.5802086 -0.5614496 -0.49194235 -0.4342877
000040 90 e6 09 bf 7f d8 cf be 28 37 0d bf 29 32 49 bf
       -0.53867435 -0.4059486 -0.55162287 -0.78592163
000050 03 99 74 bf e5 6e 58 bf d1 d2 4d bf b9 63 ff be
       -0.9554598 -0.8454421 -0.80399805 -0.4988077
000060 f2 17 62 bf 77 b6 15 bf 9a f1 50 bf 97 31 9c bf
       -0.8831779 -0.58481544 -0.81618655 -1.2202634
000070 9b c7 16 bf 1e 5b 57 bf 93 65 1c bf 15 82 17 bf
       -0.58898324 -0.8412341 -0.6109249 -0.59182864
000080 d7 72 04 bf c7 31 16 bf a7 0c 15 bf fe e3 86 bf
       -0.5173773 -0.58669704 -0.5822243 -1.0538328
000090 9a 5e 68 bf 89 52 50 bf 88 ca df be af 9c 1f bf
       -0.9076935 -0.8137594 -0.43709207 -0.62348455
0000a0 2f d4 7f bf 3a f2 21 bf b3 63 7c bf 16 56 75 bf
       -0.9993314 -0.63260233 -0.9858963 -0.9583448
0000b0 cf ac 50 bf 4a 34 46 bf 5a ab 56 bf 09 82 74 bf
       -0.81513685 -0.77423537 -0.8385521 -0.9551092
0000c0 0d 6f 51 bf 3a cf b0 be eb ba 19 bf 7e 58 0d bf
       -0.81810075 -0.345331 -0.6005084 -0.55213153
0000d0 c5 92 08 bf a6 71 35 bf 26 35 40 bf 8b b9 ef be
       -0.5334895 -0.7087654 -0.750811 -0.46821246
0000e0 67 a9 c8 be f8 50 74 bf a5 19 10 bf 5a f7 94 bf
       -0.39191744 -0.9543605 -0.5628913 -1.1637986
0000f0 34 5b 46 bf c3 af 26 bf 7d af 77 bf 3e 07 92 bf
       -0.77482915 -0.6511194 -0.9675215 -1.140846
000100 2e f1 2c bf 08 27 32 bf c7 94 04 bf 6c b6 2c bf
       -0.6755551 -0.69590807 -0.51789516 -0.67465854
000110 85 3b 0b bf ee 87 af be 97 f0 6e bf 53 67 3c bf
       -0.54387695 -0.34283394 -0.9333586 -0.7359516
000120 e7 f5 4d bf a0 98 05 bf fc 64 11 bf f7 33 33 bf
       -0.8045334 -0.5218601 -0.56794715 -0.7000117
000130 8c 5e 4c bf bd eb 0b bf e4 25 1f bf 1f 43 cf be
       -0.7983177 -0.54656583 -0.6216719 -0.40480897
000140 e1 aa 32 bf 98 16 2a bf 83 47 40 bf 3b 6d 25 bf
       -0.6979199 -0.66440725 -0.7510912 -0.646198
000150 b0 ca 80 bf 96 a5 75 bf 60 bf 43 bf 92 e0 ee be
       -1.0061855 -0.9595579 -0.7646389 -0.4665571
000160 73 07 4d bf 9d 09 0d bf ce 15 6a bf 0a f6 81 bf
       -0.8008949 -0.55092794 -0.9143952 -1.015321
000170 78 a3 7c bf b1 45 41 bf de b2 6e bf d1 51 62 bf
       -0.98686934 -0.75496966 -0.9324168 -0.8840609
000180 38 2a 79 bf dc 93 57 bf 1b 55 0b bf 25 19 c1 be
       -0.97330046 -0.8420999 -0.54426736 -0.37714496

weight f4 [100, 1, 4, 100]
000000 b5 71 7f bd 69 83 ec 3d ce 45 92 be 35 c1 76 3e
       -0.0623643 0.11548502 -0.28568882 0.2409714
000010 48 62 e0 3d ff 2e 5c be 58 b4 6b bd ef ba 3d 3e
       0.10956246 -0.21502303 -0.057545036 0.18528341
000020 bb a2 4d 3f 8f 08 17 3f c4 71 9c 3c da 8d 93 be
       0.8032643 0.58997434 0.019097216 -0.28819162
000030 a0 7f 91 be e8 48 12 3e 2c 16 d0 be f5 36 a7 bc
       -0.28417683 0.14285624 -0.40641916 -0.020411948
000040 64 b2 17 3f fd 81 8f 3e 5e 5d ac be 46 c8 17 be
       0.5925658 0.2802886 -0.33664984 -0.14822492
000050 eb 9e 9e 3e b0 fc 37 3e ae 6d aa bd 3e 69 0f bf
       0.3098062 0.17967486 -0.08321701 -0.5601996
000060 5d 5b ec 3d 4d 3f 2b bd 78 13 38 3d 0b 25 cf be
       0.11540864 -0.041808415 0.04494044 -0.4045795
000070 63 1a 0a be c6 56 92 3e a3 ab 0a be b6 45 55 be
       -0.13486628 0.28581828 -0.13542037 -0.20827374
000080 8a 2f 0a be af 2a 52 3d 62 57 d2 bc ed ef 88 be
       -0.13494697 0.051310237 -0.025676433 -0.2674555
000090 52 e5 0c 3d 35 8b e1 be 24 25 ba be 34 8c 77 bd
       0.034398384 -0.4405152 -0.3635646 -0.060436442
0000a0 b1 3e 93 3e 80 88 9e 3e 0d 73 49 be c8 c3 7a 3e
       0.28758767 0.30963516 -0.19672795 0.24488747
0000b0 2b 09 01 3e 44 d0 47 3e 25 09 d9 bd 96 18 ca bd
       0.12601154 0.19513041 -0.10597447 -0.09867971
0000c0 bd 24 75 bd e8 1a d3 3e 42 02 58 3e 4e 36 90 3d
       -0.05984949 0.41231465 0.21094611 0.07041608
0000d0 21 d7 a5 be cd 8e 07 3f 25 0c d7 be 53 ac 1a bd
       -0.32390693 0.5295227 -0.42001453 -0.037761997
0000e0 a6 95 5e 3d aa 73 14 be 30 b8 08 be 19 bb 64 bd
       0.054341935 -0.14497247 -0.13351512 -0.055842493
0000f0 54 27 79 be 64 53 b6 be f3 28 38 3d 54 90 75 be
       -0.24331409 -0.35610497 0.044960927 -0.23980838
000100 d9 b3 e9 3d 12 22 d0 bd ba c4 26 3e ed ca c6 3e
       0.11411256 -0.101627484 0.16285983 0.38826695
000110 20 9c 5f 3e e4 20 ae be 64 42 0c 3e a0 52 83 3e
       0.218369 -0.3400947 0.13697201 0.25648975
000120 a8 49 df 3d 9f fb 59 bd d4 07 c4 bd c1 c7 9e 3e
       0.10902721 -0.05321848 -0.095718056 0.31011775
000130 b4 32 35 be f9 14 09 be 7f 97 c6 3c b3 3a c4 3d
       -0.17695123 -0.13386907 0.02424216 0.095815085
000140 49 9c c9 3e 5a a7 7a 3d 02 9b 87 3e c2 70 01 be
       0.3937705 0.061194755 0.2648545 -0.1264067
000150 9d 03 d8 3e ab 67 bf be cd 43 74 3e 35 82 bd 3e
       0.42190257 -0.3738378 0.23853989 0.37013403
000160 b3 9b 0b be 1f c7 3d bd 08 ea 5c bd c5 3c 9a 3e
       -0.13633613 -0.046332475 -0.053934127 0.30124488
000170 e2 d7 77 3e 85 be 3a be b7 50 84 bd dc 70 77 3d
       0.24203447 -0.1823674 -0.06460708 0.060410365
000180 4c fb f5 be d9 31 3f 3e 0a bc c7 bd 78 68 9f be
       -0.48043287 0.18671359 -0.097526625 -0.3113439
000190 dc 60 c7 3c 22 31 6a bd 34 72 71 3e 96 9e 49 3e
       0.024338178 -0.057175763 0.23578721 0.19689402
0001a0 7b a4 88 3e c7 14 64 be 1b 22 88 be 3f bc f3 3e
       0.2668799 -0.22273551 -0.2658852 0.47604558
0001b0 6a 94 8d 3d 11 36 d9 3e d9 ca 28 bd d4 ab 56 3d
       0.06913073 0.42424062 -0.041209076 0.05240996
0001c0 59 9a 44 bd 4a b2 5d be 8c e1 ac bb 35 39 7b 3d
       -0.04799876 -0.21650043 -0.0052759107 0.061333854
0001d0 d2 bd c3 bd eb 84 2a 3e e7 94 cf bd 42 74 80 3e
       -0.0955769 0.16652267 -0.10135823 0.25088698
0001e0 7e f0 52 bb ae c4 d2 3e 04 dd c0 3b 19 21 8c bd
       -0.0032186802 0.4116568 0.005885722 -0.068422504
0001f0 ec 01 5a bd 18 3a 90 3d 5e c4 80 be f6 ae 30 be
       -0.05322449 0.070423305 -0.25149816 -0.17254242
000200 0a 6b 7e 3e c7 40 31 3e 9e 38 c2 bc 39 f7 35 3e
       0.2484552 0.17309867 -0.023708638 0.17770089
000210 26 80 d1 3d b8 39 3a 3b 4b 4f f1 3d f2 ff a3 3d
       0.102295205 0.002841575 0.11782702 0.08007802
000220 33 e9 4d 3d 4c 23 b4 3c 23 2f c0 be a1 e7 95 3e
       0.050271224 0.021989487 -0.37535962 0.2927828
000230 4a 01 8c 3e d5 35 9c be 9d 62 2a bf 48 88 04 3e
       0.27344733 -0.3050982 -0.6655672 0.12942612
000240 2e f1 16 3e 52 1e dc bd 77 9f 2d 3e 6a 35 c0 bd
       0.1474044 -0.10747971 0.16955362 -0.09385188
000250 61 bf 61 be 54 56 00 3e 9d 57 d1 bd 5f 76 a7 be
       -0.22045662 0.12532932 -0.10221789 -0.32707497
000260 eb 0b f8 bd 00 5e 9f be 67 be 5f 3e 4a 3d 10 3e
       -0.12111648 -0.31126404 0.21849976 0.1408588
000270 2d 55 5e 3d d4 7c d2 be 69 bc ed bc 87 bc bb 3d
       0.05428045 -0.4111086 -0.029020505 0.09166818
000280 b1 93 00 bd b7 07 b7 3e d9 bb 56 3d 61 51 56 3c
       -0.03139085 0.35748073 0.05242524 0.013080926
000290 6e 31 49 3e d0 40 6f b9 c9 5f 3a 3e 02 f3 fa bd
       0.19647762 -0.0002281696 0.18200602 -0.12253381
0002a0 0a d6 9c 3e f5 ba c2 bd 30 72 97 3e 52 ea af ba
       0.3063205 -0.095083155 0.29579306 -0.0013421273
0002b0 f3 82 c5 bc 18 de 37 3d c2 d4 a4 bd f3 84 00 be
       -0.024110293 0.04488954 -0.08048393 -0.12550716
0002c0 8f b3 2b be 15 41 af bd cb ca 1f bd 80 26 72 bc
       -0.16767715 -0.08557335 -0.039011758 -0.014779687
0002d0 c8 60 84 3e 6d 7c 03 3d 70 00 07 3e df 5a a2 3e
       0.25855088 0.032101084 0.1318376 0.31709954
0002e0 ff dc 0d 3e b7 db 1a be d7 d3 b3 3e 12 57 5d be
       0.13853835 -0.15122877 0.35122558 -0.21615246
0002f0 91 2b 8e 3e ab 4c 26 be 4e 57 02 3d 9b 0d e8 3d
       0.27767614 -0.16240184 0.03182154 0.1133072
000300 24 ef fd bc e6 da 99 3e 3f 00 29 3e b6 65 57 bd
       -0.03099782 0.3004982 0.16504 -0.052587233
000310 d5 f0 27 be 65 c8 88 3e a1 ac a2 3e 0d 33 45 be
       -0.16400464 0.2671539 0.3177233 -0.19257756
000320 5e b2 21 be 31 aa ab 3e f0 ae ca 3d 86 80 a9 bc
       -0.15790698 0.33528283 0.09896648 -0.020691168
000330 06 8c 3b 3e bd 11 04 3e ba 9e ec 3e 09 7d e5 3d
       0.18315133 0.12897392 0.4621485 0.11205489
000340 55 83 83 be 1f 7e c7 3e 3a 24 6a be d9 68 28 bd
       -0.25686136 0.3896341 -0.22865382 -0.041115616
000350 2d 7a 33 be 08 d3 5b be 7d ac db bb 0a ce 11 3e
       -0.17527075 -0.21467221 -0.006703912 0.14238754
000360 98 e6 df bd 85 ca 4f 3e 30 68 d1 be 8b 8d a2 3e
       -0.10932654 0.20292099 -0.408998 0.31748614
000370 17 a0 62 be a8 40 0f 3f 96 0e a4 bd ef ec b4 be
       -0.22131382 0.5595803 -0.080105945 -0.35337016
000380 0c cc 41 be f8 17 64 be 54 1e e9 be d1 6f 0f be
       -0.18925494 -0.22274768 -0.4553095 -0.14007498
000390 d6 ff bb 3c 2d 69 9a 3e 2d 73 4f 3e d8 ba c2 3d
       0.02294914 0.30158368 0.2025878 0.09508294
0003a0 fc c5 74 bd 37 f7 8b 3e b9 bc 06 3e 02 eb d6 be
       -0.059759125 0.27337047 0.1315793 -0.41976172
0003b0 1b 1e e5 3e eb ff 31 be 04 d5 34 be ab fd 3b be
       0.4474953 -0.17382781 -0.17659384 -0.18358485
0003c0 74 b0 e9 3e 3e a4 9a 3d 16 a5 6a be d7 c4 83 3e
       0.45642436 0.07550858 -0.22914538 0.25736114
0003d0 90 10 c1 3c 7b d3 a1 3e 3b 18 5c bd 5e 67 a7 bd
       0.023567468 0.3160666 -0.053734045 -0.081740126
0003e0 8a 5f 8d 3d a8 e4 8f be cf 61 d5 3e 25 03 83 be
       0.06902988 -0.28104138 0.41676185 -0.25588337
0003f0 b8 9a bf bd 45 76 d3 3e 4b 40 95 3c 51 65 19 be
       -0.09355682 0.4130117 0.018219134 -0.14980055

bias f4 [100]
000000 5c ec e0 be 9a 62 bf be de 53 f2 be bb e1 2a bf
       -0.43930328 -0.37379915 -0.4732961 -0.6675069
000010 05 a3 ce be 9f e3 36 bf 28 19 c3 be 4a 24 05 bf
       -0.4035875 -0.7144107 -0.3810513 -0.520085
000020 73 ee f6 be ba b5 d8 be ec 95 04 bf 48 7e cf be
       -0.48228797 -0.42326146 -0.5179126 -0.40526032
000030 21 0c eb be 93 05 f3 be 9d ae ef be ac cf c3 be
       -0.4590769 -0.4746519 -0.46812907 -0.3824438
000040 38 d9 ce be 55 f1 06 bf 7c a6 36 bf 78 0d b5 be
       -0.404001 -0.52711993 -0.71347785 -0.35361838
000050 ba 58 cd be 02 44 4f bf 12 27 df be 74 48 fe be
       -0.40106755 -0.80963147 -0.43584496 -0.49664652
000060 b2 14 b9 be 94 f1 35 bf b8 73 0b bf 20 e4 c6 be
       -0.36148602 -0.71071744 -0.5447345 -0.3884592
000070 66 0d 05 bf f3 a6 0b bf cc a8 13 bf e5 f4 70 be
       -0.5197357 -0.5455162 -0.5767944 -0.2353092
000080 38 38 e1 be 75 7e 07 bf fd 39 38 bf 86 8e 30 bf
       -0.43988204 -0.52927333 -0.71963483 -0.68967474
000090 3a e2 49 bf 20 9c 18 bf 0b 9a bb be 9d 2b 21 bf
       -0.7886082 -0.5961323 -0.36640963 -0.62957174
0000a0 91 cd 83 be 84 d0 35 bf ea 2c 27 bf 65 3d c7 be
       -0.25742772 -0.71021295 -0.6530291 -0.38914028
0000b0 a4 e7 f8 be 57 85 a1 be 6b e8 95 be 62 9f 24 bf
       -0.48614228 -0.31547043 -0.29278883 -0.643057
0000c0 f2 0b 33 bf bd 8a 11 bf 50 dc d4 be 8c 1f ee be
       -0.699401 -0.5685232 -0.41574335 -0.46508443
0000d0 a5 d2 59 bf 8d 45 99 be ba b4 e1 be ff 9b 0f bf
       -0.85087043 -0.29935876 -0.44083196 -0.56097406
0000e0 c4 ce 03 bf 60 64 0f bf b2 df e1 be 93 92 f8 be
       -0.51487374 -0.56012535 -0.44115978 -0.48549327
0000f0 5c d6 d8 be ae 68 14 bf 81 a7 51 bf 10 9c 4c bf
       -0.42351043 -0.5797223 -0.81896216 -0.7992563
000100 0b bf cc be d2 1b e5 be 10 c4 3b bf e2 fd 1d bf
       -0.39989504 -0.44747788 -0.7334604 -0.6171552
000110 8a 82 71 be bd ed 1d bf 06 1b 00 bf 6f 73 fa be
       -0.23584953 -0.61690885 -0.50041234 -0.48916194
000120 94 11 f5 be 3a 60 f5 be 99 4c f5 be 7a af 97 be
       -0.47864974 -0.47924978 -0.47910002 -0.29626065
000130 32 85 ad be bb 08 c9 be ac d6 11 bf 13 ea 11 bf
       -0.33890682 -0.39264473 -0.5696819 -0.56997794
000140 23 84 c6 be 34 3b d9 be b7 be 25 bf 93 48 08 bf
       -0.38772687 -0.4242798 -0.6474413 -0.5323574
000150 89 eb b6 be af b6 08 bf 6b 92 36 bf 00 70 f3 be
       -0.35726574 -0.53403753 -0.71317166 -0.47546387
000160 2e f8 2b bf 4c e0 cd be 89 b8 db be 01 77 23 bf
       -0.6717557 -0.40210187 -0.42914227 -0.6385346
000170 d0 13 ef be db fb f5 be 84 91 a1 be 32 b2 a7 be
       -0.46694803 -0.48043713 -0.31556332 -0.3275314
000180 5b 07 85 be 96 a0 0c bf c7 e9 25 bf 2a 52 ff be
       -0.25982174 -0.54932535 -0.6480984 -0.49867374

weight f4 [100, 1, 5, 100]
000000 f1 d8 28 3e c0 5f 69 3e 24 72 aa bc e0 5a 66 3e
       0.16489007 0.22790432 -0.02080638 0.22495604
000010 f6 29 1c be ec a2 97 bc e9 14 8c be 4a 9e 11 be
       -0.15250382 -0.018510304 -0.27359703 -0.14220539
000020 ed e6 8b be d4 82 9b 3d 75 33 a5 be 9b e2 31 3b
       -0.2732462 0.07593313 -0.3226582 0.0027143124
000030 d8 83 23 be d1 f2 a5 bd 65 fd 05 bf 73 12 af 3e
       -0.15968263 -0.08102954 -0.52339774 0.34193763
000040 90 aa 4a be c0 41 38 3d c6 50 3a be 5e df 6d be
       -0.19791627 0.04498458 -0.18194875 -0.23229739
000050 38 87 52 be 83 1f b5 3d a8 ba db bd 1e e0 87 be
       -0.20559394 0.08843901 -0.10728961 -0.26538175
000060 41 44 47 be 5b f2 1a bd 94 ff e3 be d5 44 e4 be
       -0.1945963 -0.037828784 -0.44530928 -0.44583765
000070 f8 1e c6 3e 46 aa 32 3e f5 9c 38 3e 51 8a 73 bd
       0.38695502 0.17447767 0.18028624 -0.05945808
000080 64 ac c4 bc ce f3 72 3e 44 f3 2e 3e 84 f2 b3 3e
       -0.024007984 0.23725817 0.17084986 0.35145962
000090 99 c6 00 be f9 62 ff bd 08 d0 f6 be 5c 4d 88 bd
       -0.12575759 -0.124700494 -0.4820559 -0.0665538
0000a0 55 11 dc 3e f0 ef 09 bd aa a7 dc be e6 5e 12 3e
       0.42981973 -0.033676088 -0.43096668 0.14294013
0000b0 ee 20 91 3e 1e cb 2a be bd 24 c0 be 38 07 a5 bd
       0.28345436 -0.16679046 -0.3752803 -0.080580175
0000c0 90 c2 d7 be 68 1f 53 bc 0f 5e 04 be 24 b7 46 be
       -0.42140627 -0.012885906 -0.12926506 -0.194058
0000d0 21 b3 13 3f fb 63 15 3d d9 8b 6c 3e 0a 4e 0d 3a
       0.57695204 0.036472302 0.23100223 0.0005390352
0000e0 92 0b b5 bc 8c 06 00 be 23 3f 8d be cf 36 f5 3e
       -0.022100244 -0.12502497 -0.27587232 0.47893378
0000f0 28 82 ff bc e8 67 a4 be dd da 9d be 43 e4 9f 3d
       -0.031189993 -0.32110524 -0.30831042 0.07807209
000100 db 25 7f be 3d ac 73 3e 5d b0 bd bd 04 01 b6 be
       -0.24916784 0.23796172 -0.09262154 -0.3554765
000110 db 87 fb bd 41 31 be 3d f3 5a a1 be 64 dc 87 3e
       -0.12281772 0.09286738 -0.315147 0.26535332
000120 23 4d b7 3e f7 60 76 bd af 56 36 bf d8 85 0b bc
       0.35801038 -0.060151067 -0.7122602 -0.008515798
000130 73 43 c5 3e 41 6f ea be 38 0d c4 3d 83 f3 c9 be
       0.38528022 -0.45788005 0.09572834 -0.39443597
000140 ab 77 54 be db ab 38 3e ac 0e f8 3e b4 60 e0 be
       -0.20748775 0.18034308 0.48448694 -0.4382378
000150 e8 79 14 3f 1f 2b 39 bc 1e d7 e3 bd 36 6c 92 3e
       0.57998514 -0.011301785 -0.11125015 0.28598183
000160 fb 7d d6 bc 26 72 55 3e 1a bd 6f be 46 4c 49 3c
       -0.026183119 0.20844325 -0.2341198 0.012286251
000170 4e 75 07 bf a8 50 29 3d 5c 96 f1 bd 98 6a a9 be
       -0.5291337 0.041336685 -0.11796257 -0.33089137
000180 4b cf 11 be 89 7c 94 3e 46 80 1a 3e 43 b9 2c bc
       -0.14239232 0.29001263 0.15087995 -0.010542217
000190 c3 89 82 be 02 56 ad 3e 5e 5f 1d 3e ac 40 12 3e
       -0.2549573 0.3385468 0.15368411 0.14282483
0001a0 a5 b9 2f bd bb 63 87 3d b0 83 c4 3d d0 af 80 be
       -0.042901654 0.06610819 0.0959543 -0.25134134
0001b0 0d 16 fd bd 53 b2 63 be ad ac 3f 3e c0 8c 74 be
       -0.123577215 -0.22235994 0.18718214 -0.23881817
0001c0 25 e3 0f be 2d 33 a9 be 12 73 c3 bd 1a 57 86 3c
       -0.14051493 -0.33046857 -0.09543432 0.016398955
0001d0 e1 54 a0 3e 92 54 a8 3c f3 e5 eb 3d c8 bd 6d 3e
       0.31314757 0.020548139 0.11518469 0.23216927
0001e0 51 d8 ad be fb 91 a9 3d 87 56 35 bd 51 53 8d 3e
       -0.339541 0.08279797 -0.044271972 0.27602628
0001f0 c9 2a 31 3e ad 64 cc be 8b 28 b9 be 46 70 d3 3c
       0.17301477 -0.3992056 -0.36163744 0.025810372
000200 99 d6 b6 bd 40 26 a3 3e a5 e5 8d 3e 5b bd 00 be
       -0.0892765 0.3186512 0.27714267 -0.12572233
000210 ff 00 6a 3c 76 d8 85 bc f9 19 e7 3d 57 93 cd bc
       0.014282464 -0.016338568 0.11284251 -0.025094671
000220 9a 03 13 3d c1 f5 53 bd 02 48 93 3d 51 73 8c 3d
       0.035892107 -0.05174804 0.07191469 0.06857932
000230 65 85 59 3e 4b 9f d2 3b 80 9d 27 be 35 22 b0 be
       0.21242292 0.0064276806 -0.16368675 -0.34401098
000240 f0 15 23 3e 48 1e 53 be 2b d8 8d be e4 33 32 3d
       0.15926337 -0.2061702 -0.27703986 0.043506518
000250 4d 2a 91 3c 5f da 75 3b b2 37 ec 3e 8e 73 f2 bd
       0.017720366 0.0037514193 0.46136242 -0.118384466
000260 f0 df 07 bd b1 a0 17 be fb 9a 2f 3e 4c 43 a1 be
       -0.033172548 -0.14807393 0.17148964 -0.31496656
000270 a7 1f b1 bd 9f 95 90 3e 77 68 33 bd f4 94 91 3c
       -0.08648615 0.28239152 -0.043800797 0.017771222
000280 17 a8 a5 be cb 18 c6 bd ff b8 95 3c 21 4b b4 3d
       -0.32354805 -0.09672698 0.01827669 0.08803392
000290 f1 e0 0b 3d 51 22 0f 3f 7b 17 e9 3c 45 0a 9a be
       0.034150068 0.5591174 0.02845358 -0.3008596
0002a0 e8 22 36 3e 99 a7 a4 3e ee f5 01 3e 8b aa 14 be
       0.17786753 0.32159117 0.12691471 -0.14518182
0002b0 79 c6 bb be 3a 40 f2 be 1c 32 36 bf 4e 5d c3 bb
       -0.3667486 -0.47314626 -0.7117021 -0.0059620505
0002c0 80 77 c1 bd bd 95 2c bd 68 3d ab 3e 54 74 97 3d
       -0.09446621 -0.04213499 0.33445287 0.07395235
0002d0 0e fc 8b be f8 90 d2 bc f6 ac 7c 3e 88 97 a0 be
       -0.2734074 -0.025703892 0.24675354 -0.3136561
0002e0 c2 f7 20 3f 7a c7 0b bc a4 fd 29 3e e6 da 10 be
       0.6287805 -0.008531446 0.16600662 -0.14146003
0002f0 7c aa 26 be 87 b3 dd bb a2 7a 86 3e ac ca 65 3e
       -0.16275972 -0.006765786 0.26265436 0.22440594
000300 2a 71 44 bd 81 81 ca bc 96 fe 73 3d 29 aa b3 be
       -0.047959484 -0.024719955 0.059568964 -0.3509076
000310 b8 fc 18 be 3f d5 a1 3c 16 dc 8a 3e 3d d1 8b be
       -0.14940155 0.019755004 0.27121037 -0.27308074
000320 36 10 81 be 67 67 4b 3e 55 d4 1a 3e 76 e8 1b 3f
       -0.2520768 0.19863664 0.1512006 0.6090158
000330 a5 c5 97 3d 14 e2 b5 bd 61 98 0b 3e dc 9c 92 3c
       0.074107446 -0.088810116 0.13632347 0.017897062
000340 b4 f0 81 bc f3 a3 cf bd 57 ba 84 be 42 e9 c0 3d
       -0.015861847 -0.10138693 -0.25923416 0.094194904
000350 4b 8e b0 3d b6 1c a7 bd b0 bb 4c bd 8b 23 94 3d
       0.0862089 -0.08159773 -0.04998368 0.07233342
000360 db 4e a2 3e 6a 65 be 3e 38 fe 03 be 65 60 41 3e
       0.31700787 0.37186748 -0.12889946 0.18884428
000370 e6 19 e3 3d c0 7d 3a 3e 62 0e c3 be 44 82 0a 3d
       0.11088924 0.18212032 -0.3809691 0.033815637
000380 ff ae 1f b9 ab c6 80 bd 81 92 57 be 53 2f 05 3e
       -0.00015228613 -0.06287893 -0.2105198 0.13006334
000390 57 c3 82 3c bf 74 48 3a 60 60 83 bd 96 93 3e be
       0.015962286 0.0007646791 -0.064148664 -0.18610987
0003a0 95 15 29 be f2 cc 73 3d cd c3 09 3d f8 47 06 3e
       -0.16512139 0.059521623 0.033633996 0.13113391
0003b0 36 dc 43 3d 84 05 83 bc 82 af c8 be 4a 62 35 3c
       0.04781743 -0.015993841 -0.39196402 0.011070797
0003c0 2c 6c 07 3d 65 99 79 be 05 81 a5 be cc 78 7d be
       0.033062145 -0.24374922 -0.32324997 -0.24753112
0003d0 61 3e f7 3d e1 e6 61 3e a2 a5 8d bd ef 42 8a 3d
       0.12072445 0.2206073 -0.069163576 0.06751048
0003e0 8e bd 24 3e d1 93 39 3e 9b 65 99 3e be aa 31 3e
       0.16087934 0.18122794 0.2996033 0.17350289
0003f0 37 b8 6b 3e 03 e2 4e 3d 15 e3 1f 3f ec 7f a7 bd
       0.23019491 0.05050851 0.62455875 -0.08178696

bias f4 [100]
000000 ec 7d df be 1c bc 88 be 4c 40 ba be bd e7 e9 be
       -0.43650758 -0.26706016 -0.3637718 -0.45684615
000010 23 dd ae be 0e 27 d5 be 53 c2 b1 be 97 60 ee be
       -0.3415309 -0.4163136 -0.3471857 -0.46558067
000020 63 ba 92 be bd 37 c7 be 96 0c b4 be ca 6a de be
       -0.28657827 -0.38909712 -0.35165852 -0.4344085
000030 ef ef d2 be 44 76 ff be 1f 66 d2 be aa 9c 1f bf
       -0.4119868 -0.49894917 -0.41093537 -0.62348425
000040 9a 90 bd be 77 e1 c1 be 73 1f cd be ef 78 c1 be
       -0.37024385 -0.3786733 -0.40063056 -0.37787578
000050 b1 aa ea be 0e 4c b6 be 23 83 d8 be 71 fa db be
       -0.45833352 -0.356049 -0.4228755 -0.4296451
000060 92 88 fa be b3 0b c0 be e0 58 88 be b8 f6 f9 be
       -0.4893232 -0.37508926 -0.26630306 -0.48821044
000070 df 9d be be f1 83 13 bf 98 25 d5 be d1 90 f5 be
       -0.3722982 -0.576232 -0.41630244 -0.4796205
000080 a3 c8 d2 be 36 93 c6 be a3 0c fb be ad 4e 0e bf
       -0.411687 -0.38784188 -0.4903308 -0.555888
000090 fd d5 ec be f1 63 d1 be ea ad cb be 9c 34 af be
       -0.4625701 -0.40896562 -0.39781123 -0.34219825
0000a0 c4 0e be be f8 6b af be 8e f0 16 bf 0d c8 d4 be
       -0.3712064 -0.3426206 -0.5896081 -0.41558877
0000b0 b0 d9 ab be 33 f6 bd be 72 55 cc be 2a e8 ac be
       -0.3356452 -0.37101898 -0.3990894 -0.33770877
0000c0 a0 26 9f be fb cc 07 bf 07 72 c2 be 8c de b0 be
       -0.31084156 -0.5304715 -0.3797762 -0.3454479
0000d0 cf 3d b5 be a7 66 ad be 64 92 cb be 95 23 cd be
       -0.3539872 -0.3386738 -0.39760125 -0.4006621
0000e0 cc d5 df be 23 9e c4 be 2c da 02 bf 18 d7 15 bf
       -0.43717802 -0.384019 -0.51114154 -0.5853133
0000f0 58 e5 ad be f3 c9 d2 be 5f 0c a9 be ed ed af be
       -0.33964038 -0.411697 -0.3301725 -0.3436121
000100 19 c4 a7 be 2c bd d7 be 79 ec 30 bf 86 80 2d bf
       -0.32766798 -0.42136514 -0.6911083 -0.67774236
000110 9a ec f2 be cd 2d c2 be bd 19 de be 6a 87 ab be
       -0.47446138 -0.37925568 -0.43379012 -0.3350175
000120 dc 85 de be ed 14 b8 be 5f c1 b8 be 44 40 5a be
       -0.43461502 -0.35953465 -0.3608503 -0.21313578
000130 c8 54 a2 be ae 9e b9 be b1 51 db be 1d 35 89 be
       -0.31705308 -0.36253875 -0.42835763 -0.26798335
000140 42 ed a2 be fb 85 49 bf e2 43 00 bf a1 a1 b8 be
       -0.31821638 -0.7872006 -0.5010358 -0.36060813
000150 73 c3 9e be 6e 42 33 bf 7a f0 b3 be 45 53 d0 be
       -0.3100849 -0.7002324 -0.35144407 -0.4068853
000160 2d db b7 be 88 c2 13 bf 2b 4b f8 be 36 55 0e bf
       -0.35909405 -0.57718706 -0.4849485 -0.5559877
000170 4e 6a d3 be 3b eb 88 be 5b 3e b1 be 82 cf 00 bf
       -0.41292042 -0.26741967 -0.34617886 -0.5031663
000180 ac e3 a4 be 63 65 04 bf 69 e9 1a bf 86 d4 b8 be
       -0.3220495 -0.51717204 -0.60512406 -0.36099643

weight f4 [31, 300]
000000 79 ff 47 be be 0c ae be 2e b0 67 be 6f 22 c5 be
       -0.19531049 -0.33994097 -0.22625801 -0.38502833
000010 74 d7 a8 bc 03 69 84 3b 76 e2 00 3f ab 1f 07 bf
       -0.020610549 0.0040408387 0.5034555 -0.52782696
000020 17 cd 4b bf 0d f9 87 3f 30 a3 15 bf 67 2b 5c bd
       -0.7960982 1.0622879 -0.5845213 -0.05375233
000030 20 ee 43 3d 6c a4 44 bf 91 a2 4d be 16 25 0d 3e
       0.047834516 -0.7681339 -0.20081545 0.13783678
000040 ec 12 02 3e d4 de a1 be 16 a3 6b be 27 75 8d be
       0.1270253 -0.31615317 -0.23011431 -0.27628443
000050 b8 f7 76 be 14 89 69 3e fc 4d 3a be 94 5f e4 be
       -0.24117935 0.22806197 -0.18193811 -0.4460417
000060 de 7d 11 be 3f 66 b4 be 84 8c d0 be ca a1 a9 3d
       -0.14208171 -0.35234258 -0.40732205 0.08282812
000070 5b c6 af 3e 11 a1 bd be 0b e8 03 bf 7f fa 32 3e
       0.3433102 -0.37036946 -0.51525944 0.17478369
000080 28 9b 30 bf a7 a1 65 bd 84 fe 02 be 25 35 1f be
       -0.6898675 -0.056062367 -0.12792403 -0.15547617
000090 c9 3a 6c be 8d 86 63 bf 40 d4 24 bf b6 f7 27 be
       -0.230693 -0.88877183 -0.6438637 -0.16403088
0000a0 c9 d1 6a be cc 0b 3c 3c d7 c3 4a 3f f9 1c 8a 3e
       -0.22931589 0.011477422 0.7920508 0.2697523
0000b0 a5 f4 59 3e 51 da 1b 3e b4 69 26 be 63 9d 43 3b
       0.2128473 0.1522 -0.1625126 0.0029848448
0000c0 e5 69 01 3e 31 b7 e5 be a0 55 28 3e f0 f2 0f be
       0.12638052 -0.44866326 0.16438913 -0.14057517
0000d0 81 35 a3 bf 41 2b 3b 3e 11 81 37 3e a9 18 a1 be
       -1.2750703 0.18278219 0.17920329 -0.31464127
0000e0 41 38 5d be 26 1a 0d 3f 4b 69 60 3d bc d4 89 3f
       -0.2160349 0.55118024 0.054787915 1.0768046
0000f0 09 5b 11 3e 65 51 ce 3e 83 29 af 3e 83 b0 0d bf
       0.14194883 0.40296474 0.34211358 -0.5534746
000100 54 3e 4b 3e 55 c6 9e 3d 31 60 16 3f d8 55 3e bf
       0.19847995 0.077526726 0.58740526 -0.7434974
000110 af 5a 2b be 66 56 20 be 94 95 08 3d 6a 31 1a bf
       -0.16733812 -0.15657958 0.033345774 -0.6023165
000120 38 9c 5a bd e9 ce eb bd 5e 7f 95 3e c3 8a 1e 3e
       -0.053371638 -0.11514074 0.29198736 0.15482621
000130 7d ca 31 bf a4 e6 04 3e f2 b9 3a 3e c0 e5 0f bd
       -0.694496 0.12978607 0.18234995 -0.035131216
000140 c1 b6 6d bf 86 fb f1 3e 0d d1 98 3d e5 91 d9 be
       -0.92856985 0.4726221 0.07461748 -0.4249412
000150 1c df b9 be 37 ea 4c be 60 07 35 3d 6a 8f c9 be
       -0.3630303 -0.20011221 0.044196486 -0.3936723
000160 b4 d2 83 3e 82 6c d7 be ac 1a 85 3c 02 32 81 be
       0.2574669 -0.42074972 0.01624807 -0.25233465
000170 b1 ab c3 bd 35 8c ca bd 8b ab 31 3f 30 5b 98 be
       -0.09554232 -0.098900236 0.6940238 -0.2975707
000180 36 cd 18 be 8c 55 41 be 27 c7 8f bf c8 b8 53 ba
       -0.14922032 -0.1888029 -1.1232651 -0.0008076546
000190 07 ad 10 be 79 ea 6f 3f 19 e9 df be 26 68 c1 3e
       -0.14128505 0.9371715 -0.43732527 0.3777477
0001a0 d4 38 8d bd d1 1e 3b be 5f 1d 2a bf 27 6b c4 be
       -0.06895605 -0.18273474 -0.66451067 -0.38363
0001b0 d3 06 13 3f 43 cc 29 bd c9 86 16 bf 2c c7 41 3e
       0.5743229 -0.041454565 -0.58799416 0.18923634
0001c0 55 51 a8 be 70 dc 4c bc 2f 32 33 bf 39 31 94 bc
       -0.3287455 -0.012503728 -0.6999845 -0.018089877
0001d0 a6 ba 48 be 89 73 02 bd 78 2c 47 bd b9 d4 a7 bd
       -0.1960245 -0.031848464 -0.048626393 -0.081948705
0001e0 7d 86 8c be ed 4e 48 bf ec ec 8a be 7a 94 87 be
       -0.27446356 -0.7824543 -0.27133882 -0.26480466
0001f0 84 1c 3a bf 41 78 b6 be 05 26 dd bd b0 64 87 bf
       -0.7269976 -0.3563862 -0.10798267 -1.0577602
000200 6b 16 3f 3e 46 a9 c1 be d4 7d 45 bc 00 0a 0e be
       0.18660896 -0.37824458 -0.012053926 -0.13871002
000210 52 89 0c bf 5a 9c 40 3e fb 95 09 3e 82 83 d7 3d
       -0.54897034 0.18809643 0.1343612 0.1052313
000220 2d fb 9c be 62 a6 2c 3f de b3 7f bd fa 7b eb bd
       -0.30660382 0.6744138 -0.062427394 -0.11498256
000230 26 b1 1d be 84 79 e4 bd f6 4b b9 bc fa 9f 07 bf
       -0.15399608 -0.1115599 -0.022619229 -0.5297848
000240 48 0b 81 be ad 0b d5 3e 2a bb a9 bc 68 b3 c2 bd
       -0.2520392 0.4161047 -0.02071913 -0.09506875
000250 e7 c3 e3 be 26 3b 2c bf 26 40 80 bf b7 29 f1 be
       -0.444854 -0.67277753 -1.0019577 -0.47102138
000260 0d ec a7 3e 72 e2 d1 be e0 d9 ab be 79 89 2f bf
       0.3279728 -0.40993077 -0.33564663 -0.6856914
000270 40 fc a7 be d8 d0 b5 3f 7f f6 ca 3d 4f a6 73 be
       -0.3280964 1.4204359 0.09910297 -0.2379391
000280 f3 d4 11 bf bf c1 55 3e 0e c0 3c bc ca ed d8 3e
       -0.5696556 0.2087469 -0.011520399 0.4236892
000290 76 f5 ba bd ea cb 44 bf 4e 5b 35 3d a6 b2 70 3e
       -0.09128849 -0.7687365 0.044276528 0.23505649
0002a0 13 22 08 bf 44 11 89 3e 90 8b 55 bf 0d 92 f3 be
       -0.53176993 0.26770985 -0.8341608 -0.47572365
0002b0 2d 03 0f be b4 e7 cb bd 6f 45 9e be 9b a7 76 bf
       -0.13966055 -0.09956303 -0.3091235 -0.96349496
0002c0 54 85 9c 3e b3 4b 24 be 99 02 c6 3e 2b 3f 06 3e
       0.3057047 -0.16044502 0.38673857 0.13110034
0002d0 8d 90 89 3e 7b 17 bf 3c 84 63 02 3e c3 42 00 bf
       0.26868096 0.023326626 0.12733275 -0.5010187
0002e0 e1 3d 22 bf e4 e5 08 be 57 95 3a 3f 66 fe 4e be
       -0.6337567 -0.13368946 0.72884125 -0.20214233
0002f0 1d 2d 87 3d 9c 3d 85 bd 69 81 fa 3e 4c 38 ae 3e
       0.066004016 -0.06505892 0.48926857 0.34027326
000300 ab d3 fd 3d e9 78 62 be ed 16 c3 3e 37 92 6e be
       0.12393888 -0.22116436 0.38103428 -0.23297964
000310 fe 03 a3 be ba ca 3e bf 60 59 74 3e c7 13 77 3f
       -0.31838983 -0.74528086 0.23862219 0.9651455
000320 a3 2e 0b 3f 67 ff 99 bf d6 62 3a be 13 fe 24 3e
       0.54368037 -1.2031068 -0.18201765 0.16112547
000330 39 b8 18 be 00 d3 4d bf ac aa de bf 6f b9 c3 bc
       -0.14914025 -0.80400085 -1.7395835 -0.023892133
000340 55 38 d8 bd aa 52 42 be 1e b7 d9 bd 15 02 ec bd
       -0.105576195 -0.18976846 -0.1063063 -0.115238346
000350 16 7a 2e 3c 83 74 8a bd 0d eb 55 be 0e 92 7d 3e
       0.010649225 -0.06760504 -0.20890446 0.24762747
000360 6f b0 56 bd 33 f8 3b be 75 b8 6d bf 64 aa 8a 3d
       -0.052414354 -0.18356399 -0.92859584 0.06770781
000370 fa 1d b1 bd fb 28 06 3f 21 7f 37 be 90 d9 d5 be
       -0.08648296 0.5240628 -0.1791959 -0.4176755
000380 30 c2 80 3e 06 17 3e 3e dd 96 98 bf f5 aa 21 3e
       0.25148153 0.1856347 -1.192104 0.15787871
000390 98 de 42 be 51 9c 34 3f 09 c1 21 3f 48 fa a5 3e
       -0.19030225 0.7055102 0.63185173 0.32417512
0003a0 8a b3 99 be eb 3c 0e bd f7 e6 51 be b6 5a 6c be
       -0.3001979 -0.034726065 -0.20498262 -0.23081478
0003b0 ba 4c 57 bf 50 e4 1a 3e 0f f5 0c bf 87 8e 23 be
       -0.8410145 0.15126157 -0.5506143 -0.15972339
0003c0 f0 93 66 be 2e 00 e1 be 05 13 7c be 02 59 3f 3e
       -0.22517371 -0.4394545 -0.2461663 0.18686298
0003d0 a9 85 70 3e 80 c1 84 3e 2c ab 42 be cd 9f 80 be
       0.23488487 0.2592888 -0.1901061 -0.25121918
0003e0 bc 8c 07 be cc a0 89 be ff cb dc 3c 92 01 d8 be
       -0.1323728 -0.2688049 0.026952742 -0.42188698
0003f0 81 38 4e be 72 eb d6 bd 44 68 19 be e5 ff 86 be
       -0.20138742 -0.104941264 -0.1498118 -0.26367107

bias f4 [31]
000000 31 4e 3e bf 5d 52 8f bf 6f 04 ad be ed d4 08 bf
       -0.7433806 -1.119701 -0.33792445 -0.534499
000010 15 11 7c bf aa 00 f0 be 23 59 0e bf 73 2e ad be
       -0.98463565 -0.46875507 -0.5560476 -0.338245
000020 16 c7 28 bf d8 5b b2 be b6 ca e2 bd 01 9e 25 bf
       -0.6592878 -0.34835696 -0.1107382 -0.6469422
000030 a6 a7 d7 be e3 7f 4c bf e3 b6 cb bf de 66 19 be
       -0.42120093 -0.7988264 -1.5915188 -0.14980647
000040 da 0e d0 be 9d fa df be b3 62 ac be 9f ce e7 be
       -0.4063633 -0.4374589 -0.33669052 -0.45274827
000050 b8 6c a1 be e7 03 f5 be 98 bc 83 bf 1a a3 dd 3d
       -0.31528258 -0.4785454 -1.0291929 0.10822125
000060 31 d1 3b bf fb 46 23 bf 79 66 f4 be cc 46 e1 be
       -0.73366076 -0.6378018 -0.4773443 -0.43999326
000070 20 dc d9 be ed 1b 3e bf 12 c6 9d be
       -0.42550755 -0.7426136 -0.30815178
